kf/eicu/eicu_kf_LSTM_repetition_0_fold_0_model.ckpt (torch, 757784 bytes, 39 tensors)

rnn.weight_ih_l0 f4 [132, 292]
0.16946624 0.0029675558 0.02928512 0.13076392 0.049835913 0.06304592 -0.10687672 -0.010132185
0.0017308776 0.06050566 -0.1150352 -0.012988933 0.001161155 -0.0043491153 0.113124415 0.0635399
-0.0142322015 -0.077206194 -0.040281832 -0.075354524 -0.053232595 0.14789332 0.019098826 -0.006779676
-0.13105728 -0.09582427 0.01830238 -0.06284128 -0.009363753 0.10037136 0.026218984 -0.034333795
-0.011690484 -0.017603984 -0.10650281 -0.12688868 0.032804545 -0.016742691 -0.0955376 0.014730157
-0.00090463285 0.013739674 -0.057678077 -0.13512808 -0.09040165 -0.037858773 0.08713054 0.056845907
0.08911419 -0.022576978 -0.05254313 -0.072084874 -0.060358178 -0.040711407 -0.07123936 -0.058635563
0.023463745 0.12766455 -0.040826503 0.07284599 -0.09710288 0.0734138 0.08346486 0.033433415
-0.031057075 -0.015494936 -0.11028227 0.11055748 0.09292157 -0.05855576 -0.024341345 -0.10233207
0.0070545184 0.049745202 0.07286695 -0.0057542324 -0.0099607045 0.01780389 -0.026256176 -0.049308658
0.0190138 -0.06810622 0.09708777 -0.0058674854 0.010028097 0.022730993 -0.046531588 0.069763444
0.05089466 -0.0822201 0.022907237 0.016254468 0.0008302596 0.105001226 -0.077662766 -0.045788232
0.05006797 0.004262093 0.037606563 -0.025396002 0.030218553 0.072610006 0.0073006325 -0.022424141
0.023568768 -0.07166364 0.09951985 0.04146112 -0.013865902 -0.027767401 0.087215066 0.0061996127
-0.014051053 0.064559475 0.022215772 0.025391484 0.121413626 0.14659506 0.031344738 -0.078345224
0.114232965 -0.08483869 0.088696465 0.07244233 0.08035777 0.019981928 0.06902123 0.070951715
0.034447674 0.17348596 0.07511119 -0.03808349 0.057522647 0.056111157 0.08961897 0.05475021
0.076494984 -0.011145377 0.040120292 -0.042554803 0.07317257 -0.025912905 -0.034008134 -0.053831734
0.042083904 0.0021713302 0.11691549 -0.06428823 -0.01591786 -0.019236024 -0.03316633 0.011532441
-0.06700787 0.028006736 -0.1721593 -0.046579164 0.0025748918 -0.009394794 -0.008917807 -0.10758737
-0.0127393 0.08429058 -0.03448103 -0.021045258 -0.13353743 0.039038293 0.047866736 -0.10949697
-0.10184095 -0.043823514 0.11481177 0.1218315 0.09746343 -0.03556528 -0.0022930375 -0.12151289
0.04774434 0.059461042 -0.058715586 -0.10710788 -0.07671745 0.09985703 -0.07458723 -0.12101063
0.13843487 -0.015711349 -0.11296775 0.10350225 0.0763575 -0.06402939 0.08745907 0.028936049
-0.048698746 0.1098698 -0.10437936 0.082633756 0.13346201 0.02583074 0.08183275 0.045494962
-0.10474846 0.14401068 0.16394947 -0.067744255 0.16156183 -0.1612356 -0.059402663 -0.16977626
0.15459 -0.090170175 -0.012377193 -0.12716128 0.102192424 0.16210306 -0.1320143 0.077165775
0.010333101 0.035727195 0.074403465 0.042013306 -0.1501118 -0.040311426 0.0861885 0.08038286
-0.13784948 -0.11322453 0.09347134 -0.051548816 0.08430587 -0.11417735 -0.06564013 0.018209983
-0.06613141 -0.041338533 0.06061986 -0.08770422 -0.100019425 0.13167557 0.11233698 -0.14727888
0.050160088 0.03493561 -0.02766324 0.008732935 0.045485597 -0.08063005 0.0027444663 -0.022708038
-0.012800961 0.1450331 -0.15482467 0.0817297 -0.01140868 -0.029982725 -0.054081522 0.19404617
00000000: 8f88 2d3e 537b 423b 59e7 ef3c fae6 053e
00000010: be20 4c3d 381e 813d 2fe2 dabd 7701 26bc
00000020: 9dde e23a c8d4 773d 9397 ebbd 89cf 54bc
00000030: e631 983a 0683 8ebb c6ad e73d 3521 823d
00000040: 2e2e 69bc 481e 9ebd 90fe 24bd 7953 9abd
00000050: 6c0a 5abd 5971 173e 2475 9c3c 0b28 debb
00000060: e133 06be 843f c4bd dfee 953c eeb2 80bd
00000070: 6d6a 19bc 808f cd3d 32c9 d63c 98a1 0cbd
00000080: 7289 3fbc 3b36 90bc 251e dabd 1bef 01be
00000090: 0f5e 063d f827 89bc 38a9 c3bd c256 713c
000000a0: e224 6dba 5f1c 613c d93f 6cbd 045f 0abe
000000b0: 8024 b9bd cd11 1bbd 7f71 b23d 41d7 683d
000000c0: 8081 b63d 5bf3 b8bc 7737 57bd 3ca1 93bd
000000d0: 233a 77bd 01c1 26bd f1e5 91bd d82b 70bd
000000e0: 0a37 c03c 7fba 023e b139 27bd 4730 953d
000000f0: e0dd c6bd f959 963d a0ef aa3d 7af1 083d
00000100: 686b febc 79de 7dbc acdb e1bd f66b e23d
00000110: aa4d be3d 2ad8 6fbd 8067 c7bc 7a93 d1bd
00000120: 9729 e73b a0c1 4b3d 443b 953d 008e bcbb
00000130: 3932 23bc 77d9 913c 3117 d7bc e0f7 49bd
00000140: d4c2 9b3c 467b 8bbd f4d5 c63d 0944 c0bb
00000150: e34c 243c 5936 ba3c e897 3ebd 23e0 8e3d
00000160: eb76 503d 0363 a8bd f5a7 bb3c 1728 853c
00000170: c7a5 593a e20a d73d a80d 9fbd 718c 3bbd
00000180: 1214 4d3d 07a9 8b3b 5709 1a3d 470b d0bc
00000190: e68c f73c 8eb4 943d 253a ef3b d5b2 b7bc
000001a0: 4a13 c13c 63c4 92bd 10d1 cb3d 23d3 293d
000001b0: cf2d 63bc 7678 e3bc d09d b23d 1f26 cb3b
000001c0: 6336 66bc c237 843d dafd b53c cd01 d03c
000001d0: b5a7 f83d 041d 163e 5763 003d 7673 a0bd
000001e0: f9f2 e93d e8bf adbd 7ea6 b53d a55c 943d
000001f0: 9d92 a43d 24b1 a33c 015b 8d3d 224f 913d
00000200: 0119 0d3d 4ea6 313e e5d3 993d 6ffd 1bbd
00000210: de9c 6b3d d0d4 653d 278a b73d c241 603d
00000220: 67a9 9c3d 199b 36bc 2d55 243d f24d 2ebd
00000230: 80db 953d 4d47 d4bc 1d4c 0bbd aa7e 5cbd
00000240: 2c60 2c3d e04c 0e3b 6371 ef3d 8ca9 83bd
00000250: 2c66 82bc de94 9dbc 6bd9 07bd 90f2 3c3c
00000260: 6c3b 89bd 626e e53c 874a 30be cbc9 3ebd
00000270: 84bf 283b 9fec 19bc fe1b 12bc c456 dcbd
00000280: 7fb8 50bc 8aa0 ac3d fb3b 0dbd 1b67 acbc
00000290: 09be 08be 9ee6 1f3d e90f 443d f33f e0bd
000002a0: fd91 d0bd 4980 33bd 6f22 eb3d cb82 f93d
000002b0: e89a c73d e6ac 11bd c946 16bb c0db f8bd
000002c0: 928f 433d 6c8d 733d c17f 70bd 605b dbbd
000002d0: 0a1e 9dbd d881 cc3d 31c1 98bd 6cd4 f7bd
000002e0: dfc1 0d3e 16b5 80bc a35b e7bd fdf8 d33d
000002f0: 5261 9c3d d721 83bd be1d b33d 4b0b ed3c
00000300: 5678 47bd 6b03 e13d d9c4 d5bd e33b a93d
00000310: 44aa 083e fd9a d33c ee97 a73d ed58 3a3d
00000320: 5c86 d6bd 8977 133e 5fe2 273e 80bd 8abd
00000330: 7770 253e f21a 25be 3550 73bd d4d9 2dbe
00000340: d74c 1e3e 24ab b8bd b6c9 4abc 9136 02be
00000350: 434a d13d 58fe 253e c22e 07be 1709 9e3d
00000360: 2b4c 293c ae56 123d d860 983d 2516 2c3d
00000370: e8b6 19be 981d 25bd 9983 b03d c59f a43d
00000380: 6a28 0dbe 43e2 e7bd e76d bf3d da24 53bd
00000390: 8ea8 ac3d d1d5 e9bd 556e 86bd 1a2d 953c
000003a0: e86f 87bd 9852 29bd 884c 783d 459e b3bd
000003b0: fcd6 ccbd f6d5 063e ee10 e63d 46d0 16be
000003c0: aa74 4d3d a418 0f3d 059e e2bc 9614 0f3c
000003d0: 1b4f 3a3d 5e21 a5bd 81dc 333b 3506 babc
000003e0: 1fbb 51bc 8f83 143e 5c8a 1ebe e761 a73d
000003f0: 79eb 3abc 559e f5bc 9684 5dbd 0ab4 463e

rnn.weight_hh_l0 f4 [132, 33]
-0.103285626 0.05811751 -0.13552874 -0.004831759 -0.030893894 -0.040401038 -0.021065332 0.024174817
0.02722734 0.0011893504 0.081624866 -0.055007275 0.09765519 -0.020712752 0.016134545 0.014114481
0.0001756475 -0.03864938 -0.036441337 0.03343959 -0.0011810304 0.06545286 -0.040896848 -0.0662551
2.5135068e-05 0.025442135 9.408032e-05 0.024878532 0.012708571 -0.004719787 -0.03928281 -0.099360384
0.005838503 0.014061594 -0.0012771618 -0.0035320614 0.001364941 -0.0025896952 0.011851254 -0.0010423638
-0.0013890307 0.0035503746 0.00044640675 0.0014367288 0.0020007873 -0.0056723827 -0.0027800025 0.0023117922
-0.008201533 0.00025243216 -0.0018158975 0.017212281 -0.0002490536 0.00016648682 0.0034594222 0.00028853456
-0.0062893736 0.00072430726 -0.0073906886 -0.00045355133 -0.013918036 -0.0007343398 -0.004972271 0.0013501794
-0.01112223 0.0017067534 -0.02737978 0.041697226 0.008060857 -0.024850914 0.0143104745 0.028144343
0.007304167 -0.0003382251 -0.015514715 -0.0009782987 -0.005731171 0.008937852 0.0036042463 -0.02021422
-0.018274037 0.00080219767 -0.0008583789 -0.0093378145 -0.009652866 0.04122442 0.00014299522 0.020124126
0.00024444988 0.0036808404 -0.015725976 -0.0053237146 5.629647e-05 -0.031815983 -0.039076626 -0.02694721
-0.060806405 0.05371706 0.00024276492 0.043966025 0.024896178 -0.13095488 -0.07788546 -0.085137874
-0.029625388 -0.003778571 -0.11528337 0.015841896 0.0009297768 0.11295341 -0.099204265 -0.10327007
-0.067878604 0.13498797 -0.017234389 -0.0016756027 -0.09727239 -0.15388021 0.0037582861 -0.002562956
-0.08085041 -0.0056523844 -0.0045017037 0.046049185 -0.032976046 -0.0013358755 -0.04665183 0.014040896
0.027834497 0.06510129 0.086378165 0.0042487206 -0.015617952 -0.024690242 0.014214048 0.0014719783
-0.0054181837 0.01564599 -0.02650863 0.0012890304 -0.008020616 0.00039762707 -0.002798158 -0.03197634
-0.016418833 0.010110512 -0.005047119 0.0036960808 0.0003503272 -0.025899516 -0.011286533 0.044002775
0.00034077713 0.00029028193 0.0014439117 -0.0029428734 -0.0050542345 -0.0014423237 -0.0002805679 -0.0071301055
-0.018255185 -0.002715221 -0.028581746 0.009735266 -0.007018224 -0.033839267 -0.0021934554 -0.014264413
-0.0049949265 0.009623942 0.0052351323 0.0039626476 -0.0006214213 0.0050229304 0.0013195139 0.0018276353
-0.010271747 -0.026057998 -0.0062022363 0.0043931794 -0.0030509469 0.0006096056 0.000985039 0.02271326
0.0039918944 -0.0004286929 0.001787982 -0.0025669415 -0.013907416 0.00046071422 0.001331791 0.00063501985
0.020012684 -0.0014068855 -0.0006122633 0.000325105 -0.004272229 -0.0031689783 -0.026499044 0.004458467
0.04443639 0.005635256 -0.022498325 0.019334247 -0.04978739 -0.0047131353 -0.02464615 -0.009106633
-0.018822487 -0.024446853 0.016475463 0.036454733 -0.015373501 -0.028260542 -0.0020805039 -0.0074391672
0.01374336 -0.012815891 0.01697613 -0.050381105 0.019232405 -0.020256631 -0.01995556 -0.0012293801
0.008022377 0.019865558 -0.018453931 -0.0060220812 -0.01874292 0.019447984 0.0073758 -0.05655446
0.10162282 -0.18263176 -0.03462495 -0.1147696 -0.11651109 0.09659156 0.043622132 0.12701127
-0.001427314 0.06257916 0.15285935 -0.008602293 0.08566976 -0.07609956 -0.014386784 -6.870537e-06
0.113378055 0.03576985 -0.10114239 0.00025967308 0.018467404 -0.0032367145 -0.027859755 -0.030790841
00000000: 6a87 d3bd a00c 6e3d 0cc8 0abe bb53 9ebb
00000010: 3115 fdbc 8f7b 25bd 3491 acbc 440a c63c
00000020: df0b df3c fae3 9b3a f02a a73d 4f4f 61bd
00000030: 72ff c73d caad a9bc 982c 843c 6d40 673c
00000040: 042e 3839 d04e 1ebd 8343 15bd f4f7 083d
00000050: cecc 9aba 260c 863d 7483 27bd c1b0 87bd
00000060: 26d9 d237 066c d03c fd4c c538 10ce cb3c
00000070: 9c37 503c 71a8 9abb 03e7 20bd 757d cbbd
00000080: ea50 bf3b 9a62 663c 7066 a7ba 287a 67bb
00000090: d2e7 b23a e0b7 29bb c32b 423c ed9f 88ba
000000a0: 2310 b6ba 67ad 683b b30b ea39 9e50 bc3a
000000b0: a41f 033b 65df b9bb b430 36bb 7081 173b
000000c0: b95f 06bc df58 8439 6903 eeba c500 8d3c
000000d0: 6993 82b9 f792 2e39 79b7 623b 7446 9739
000000e0: 1717 cebb 70df 3d3a 972d f2bb a1ca edb9
000000f0: 7908 64bc b680 40ba 6fee a2bb 81f8 b03a
00000100: 043a 36bc 24b5 df3a 8f4b e0bc b6ca 2a3d
00000110: af11 043c 2594 cbbc 7b76 6a3c f78e e63c
00000120: cb57 ef3b ce53 b1b9 6e31 7ebc 423a 80ba
00000130: 8ccc bbbb 1270 123c 3835 6c3b 4b98 a5bc
00000140: 6fb3 95bc 934a 523a d504 61ba a2fd 18bc
00000150: 0e27 1ebc f0da 283d fdf0 1539 5adb a43c
00000160: 8229 8039 413a 713b c3d3 80bc 8e72 aebb
00000170: e01f 6c38 7a51 02bd d00e 20bd 65c0 dcbc
00000180: 2310 79bd 6b06 5c3d b68e 7e39 b815 343d
00000190: 12f3 cb3c 0919 06be 6982 9fbd c45c aebd
000001a0: f1b0 f2bc e7a1 77bb b019 ecbd ddc6 813c
000001b0: 44bc 733a 1e54 e73d 9b2b cbbd 427f d3bd
000001c0: f003 8bbd 493a 0a3e 222f 8dbc e69f dbba
000001d0: bf36 c7bd c692 1dbe 944d 763b 44f7 27bb
000001e0: e694 a5bd a337 b9bb 0783 93bb 129e 3c3d
000001f0: e411 07bd 8b18 afba fd15 3fbd c90b 663c
00000200: 2c05 e43c d353 853d 09e7 b03d da38 8b3b
00000210: 70e2 7fbc 3143 cabc 0ae2 683c 65ef c03a
00000220: 058b b1bb 052c 803c a028 d9bc aff4 a83a
00000230: e768 03bc 9a78 d039 4d61 37bb 9ff9 02bd
00000240: ca80 86bc 90a6 253c 4e62 a5bb f239 723b
00000250: 1fac b739 392b d4bc 27eb 38bc 413c 343d
00000260: 55aa b239 fb30 9839 a341 bd3a 39dd 40bb
00000270: fe9d a5bb 5a0c bdba 3019 93b9 a9a3 e9bb
00000280: e68b 95bc d9f1 31bb 4424 eabc aa80 1f3c
00000290: 21f9 e5bb 0b9b 0abd 13c0 0fbb 49b5 69bc
000002a0: 7bac a3bb bdad 1d3c 798b ab3b 19d9 813b
000002b0: e1e6 22ba 6597 a43b 8af3 ac3a 448d ef3a
000002c0: d44a 28bc 9577 d5bc 213c cbbb a9f4 8f3b
000002d0: 65f2 47bb f0cd 1f3a 6d1c 813a 2911 ba3c
000002e0: 70ce 823b 30c2 e0b9 b85a ea3a 223a 28bb
000002f0: eedb 63bc 048c f139 7e8f ae3a 7677 263a
00000300: a4f1 a33c 3e67 b8ba 4b80 20ba db72 aa39
00000310: 0efe 8bbb a2ae 4fbb 8614 d9bc 5518 923b
00000320: ef02 363d f4a7 b83b 684e b8bc db62 9e3c
00000330: dded 4bbd a570 9abb b9e6 c9bc fd33 15bc
00000340: 9e31 9abc c444 c8bc 8df7 863c 8f51 153d
00000350: 23e1 7bbc a782 e7bc 1059 08bb 42c4 f3bb
00000360: d42b 613c bef9 51bc 8611 8b3c 6b5c 4ebd
00000370: 478d 9d3c 3cf1 a5bc d879 a3bc 2723 a1ba
00000380: 4a70 033c 18bd a23c b32c 97bc e154 c5bb
00000390: c18a 99bc 6151 9f3c b2b0 f13b a6a5 67bd
000003a0: a01f d03d d203 3bbe e4d2 0dbd 530c ebbd
000003b0: 5e9d eebd ccd1 c53d 1fad 323d 3e0f 023e
000003c0: b614 bbba 8129 803d 2987 1c3e a2f0 0cbc
000003d0: a173 af3d 16da 9bbd 8cb6 6bbc 7789 e6b6
000003e0: c132 e83d 6883 123d be23 cfbd bb24 8839
000003f0: f448 973c 0f1f 54bb 243a e4bc 133d fcbc

rnn.bias_ih_l0 f4 [132]
0.059393242 0.0012895056 0.016711786 -0.07719628 0.08998309 0.025948323 -0.037322633 0.028994307
0.07605214 -0.0029795317 -0.03963274 0.08267321 0.06367535 0.013300481 0.043616906 0.0066302926
-0.0007304745 -0.03735803 0.0017842447 0.13493702 -1.2190546e-05 0.1512133 0.009625116 -0.0065962514
-0.1678374 0.027411627 -0.0019325443 0.009397172 0.0057153837 -0.06949381 0.009313972 0.069506235
0.006988311 0.103549145 0.0017599643 0.0019701791 0.017707417 -0.047932766 -0.004712923 0.034811918
-0.02342064 0.0071615935 -0.0013756453 -0.00056745816 -0.012058449 -0.06616134 0.018739214 -0.09365716
0.007410597 -0.00027087034 -0.0012368317 0.0038800903 -0.040930208 0.00038136748 0.0022546335 0.0006925925
0.013359122 0.00017176529 0.005852884 -0.0012616783 0.01717536 0.003031816 0.000644432 0.0017999021
0.042950474 0.0024987457 -0.0039684256 -0.0050263233 0.15269276 0.013410067 0.043826506 0.14230481
-0.012429943 -0.010569287 -0.047034122 1.7379392e-05 -0.026914533 -0.060668983 0.036330823 0.031142185
0.04394848 0.06366127 0.00019832709 0.0013918799 0.006027736 -0.0072843037 -0.005453799 0.012432441
0.040567413 -0.08215345 -0.022992147 0.041000813 -0.009647464 0.037642777 0.00892853 0.023395961
0.00975769 -0.0658037 0.018276889 0.0043214783 -0.0063843564 -0.009239839 0.0018087432 0.011068728
-0.11642116 0.006324882 0.080640934 0.037788715 -0.00321855 0.098424286 -0.00019525312 0.16498584
0.12907453 -0.008091 0.03925785 -0.0007636174 0.0006684078 0.1373342 0.008835874 -0.0038325011
0.007165494 0.0015477925 0.13391846 0.00070933 -0.04702392 -0.002151668 -0.10559917 0.10493731
0.0043182853 -0.035621367 0.021557145 0.0008369104
00000000: 5446 733d a104 a93a 28e7 883c 1519 9ebd
00000010: 0e49 b83d 9491 d43c 9edf 18bd 7885 ed3c
00000020: 39c1 9b3d 3f44 43bb f155 22bd 9250 a93d
00000030: 3968 823d 43ea 593c a4a7 323d ed42 d93b
00000040: 507d 3fba bc04 19bd 51dd e93a ee2c 0a3e
00000050: ff85 4cb7 a9d7 1a3e aab2 1d3c 5e25 d8bb
00000060: 91dd 2bbe 598e e03c 6d4d fdba 99f6 193c
00000070: 1d48 bb3b c552 8ebd a199 183c 4959 8e3d
00000080: 34fe e43b 9311 d43d 9aae e63a 1f1e 013b
00000090: 250f 913c 2655 44bd dd6e 9abb f196 0e3d
000000a0: a4dc bfbc cdab ea3b ff4e b4ba 79c1 14ba
000000b0: cd90 45bc 997f 87bd fb82 993c 53cf bfbd
000000c0: 98d4 f23b 9a03 8eb9 2f1d a2ba 1d49 7e3b
000000d0: 6fa6 27bd 47f2 c739 79c2 133b 198f 353a
000000e0: 38e0 5a3c e51b 3439 8dc9 bf3b e65e a5ba
000000f0: 57b3 8c3c 6fb1 463b 19ef 283a b1ea eb3a
00000100: d6ec 2f3d ffc1 233b 9109 82bb dbb3 a4bb
00000110: 7e5b 1c3e e6b5 5b3c 6c83 333d 5ab8 113e
00000120: f6a6 4bbc ce2a 2dbc daa6 40bd f6c9 9137
00000130: de7b dcbc 0a80 78bd a1cf 143d e51d ff3c
00000140: 5203 343d d760 823d 06f6 4f39 bd6f b63a
00000150: 5084 c53b 2bb1 eebb c8b5 b2bb 70b1 4b3c
00000160: 042a 263d 1140 a8bd 075a bcbc 78f0 273d
00000170: 6610 1ebc 502f 1a3d f848 123c e3a8 bf3c
00000180: b8de 1f3c 17c4 86bd 6ab9 953c 309b 8d3b
00000190: dd33 d1bb b262 17bc 5a13 ed3a 9c59 353c
000001a0: 386e eebd f540 cf3b 1327 a53d 57c8 1a3d
000001b0: 4fee 52bb ac92 c93d dcbc 4cb9 0cf2 283e
000001c0: 1d2c 043e 1d90 04bc d7cc 203d 7f2d 48ba
000001d0: 1738 2f3a 56a1 0c3e 57c4 103c b32a 7bbb
000001e0: 85cc ea3b 4cdf ca3a ec21 093e 55f2 393a
000001f0: 279c 40bd 0003 0dbb 6144 d8bd 5fe9 d63d
00000200: 6780 8d3b b6e7 11bd 9c98 b03c 1b64 5b3a

rnn.bias_hh_l0 f4 [132]
-0.034291055 0.0009549201 0.04630374 0.040032156 -0.07325695 0.045261934 0.05324897 -0.12342675
0.07843607 -0.00298689 -0.1446315 0.017379496 0.023828536 0.013409475 0.1274093 0.002381912
-0.000730473 -0.07264609 0.0019361451 -0.001468424 -1.2215946e-05 0.07798296 0.008752807 -0.0038064846
-0.09814278 0.014650782 -0.0019325038 0.005905798 0.0059317197 0.14339133 0.010298472 -0.06573191
0.006987049 -0.021134732 0.0020444433 0.0048830565 0.033916622 -0.04355372 -0.0050562173 0.041024465
0.020369735 0.0066903327 -0.0013750603 -0.00056745816 -0.0070310514 0.0010805115 0.018733047 -0.16553698
0.0074862586 -0.0002708704 -0.0012367077 0.0038807006 -0.10304933 0.00038136935 -0.14350758 0.0006925928
0.013399817 0.00017175305 0.0059166313 -0.0012616769 0.01630395 0.00303182 0.0006445295 0.0018012691
-0.11115276 0.0024987457 -0.0019955481 -0.008400881 -0.113712326 -0.09332487 0.011555464 0.052694052
0.009207151 -0.01220864 -0.00151108 -0.00031625835 -0.04515731 0.0954115 0.0394659 0.03393477
-0.16021991 -0.032459326 0.00023122423 0.015981074 0.11362311 0.060098596 -0.0015936887 0.04045403
-0.0023885663 0.090018295 0.010651529 0.01179106 -0.004181511 0.040090535 0.008916514 0.032385446
-0.090082884 0.06842513 0.019179003 0.006214935 -0.03114633 0.025474545 0.0018091322 0.011656078
-0.06720405 0.0062348447 -0.03987499 0.14133488 -0.0032185065 -0.040415592 -9.0960646e-05 -0.15314305
-0.092574246 0.003983253 0.06836247 -0.0007636115 6.834354e-05 -0.06519459 0.009400104 -0.0020014653
0.0071652536 0.108271584 -0.010378526 0.0006861202 0.045677062 -0.0022104175 0.12554413 0.037211183
0.0045341384 0.11974139 0.008582751 0.0020557337
00000000: c774 0cbd 9a53 7a3a fea8 3d3d c2f8 233d
00000010: bd07 96bd 9464 393d 981b 5a3d 2ac7 fcbd
00000020: 17a3 a03d b3bf 43bb 481a 14be 725f 8e3c
00000030: 1034 c33c 6ab3 5b3c 9577 023e da19 1c3b
00000040: 377d 3fba 79c7 94bd 40c6 fd3a 2278 c0ba
00000050: 17f3 4cb7 88b5 9f3d ef67 0f3c 3776 79bb
00000060: 15ff c8bd d509 703c 114c fdba 6d85 c13b
00000070: df5e c23b 2dd5 123e ecba 283c 749e 86bd
00000080: 9df3 e43b bf22 adbc 11fc 053b 0c02 a03b
00000090: 28ec 0a3d 6365 32bd a0ae a5bb 4509 283d
000000a0: 6ede a63c 943a db3b 5e3b b4ba 79c1 14ba
000000b0: bc64 e6bb f39f 8d3a 0c76 993c 8782 29be
000000c0: 4a4f f53b 9c03 8eb9 0619 a2ba 5a53 7e3b
000000d0: 870b d3bd 87f2 c739 a7f3 12be 1e8f 353a
000000e0: e88a 5b3c 9c18 3439 4de0 c13b da5e a5ba
000000f0: dd8f 853c 80b1 463b a4f5 283a 9018 ec3a
00000100: 0fa4 e3bd ffc1 233b bec7 02bb d9a3 09bc
00000110: 02e2 e8bd 1c21 bfbd 2153 3d3c b8d5 573d
00000120: 97d9 163c bf06 48bc 6e0f c6ba 7acf a5b9
00000130: dff6 38bd 1b67 c33d ffa6 213d 2fff 0a3d
00000140: b010 24be 12f4 04bd c874 7239 beea 823c
00000150: 3cb3 e83d f229 763d 52e3 d0ba 20b3 253d
00000160: 7e89 1cbb 835b b83d c083 2e3c 4a2f 413c
00000170: 0e05 89bb f935 243d 9216 123c 9aa6 043d
00000180: 607d b8bd 7922 8c3d 491d 9d3c a7a6 cb3b
00000190: 9726 ffbc feaf d03c 6720 ed3a 22f9 3e3c
000001a0: 47a2 89bd ab4d cc3b f553 23bd 17ba 103e
000001b0: 94ed 52bb d28a 25bd 20c2 beb8 88d1 1cbe
000001c0: 9197 bdbd f385 823b 9f01 8c3d 1a2d 48ba
000001d0: a953 8f38 be84 85bd e502 1a3c 042b 03bb
000001e0: 81ca ea3b 7ebd dd3d b10a 2abc bfdc 333a
000001f0: df17 3b3d a7dc 10bb a48e 003e c16a 183d
00000200: 1c93 943b f93a f53d ab9e 0c3c 7db9 063b

rnn.weight_ih_l1 f4 [132, 33]
-0.08019319 -0.046727825 0.12744175 -0.06454289 -0.1221269 -0.044894278 0.09746543 -0.13462509
0.063911855 -0.0011743468 -0.13083896 -0.13873352 0.03391949 0.023358524 -0.08081934 -0.047210917
-0.0009475189 0.036322698 0.065140255 -0.04620963 -0.00020189576 -0.18848205 0.037414417 -0.059192464
0.016503641 -0.14530337 0.00040289643 -0.10042193 -0.04972383 -0.0916549 -0.11757937 -0.146124
0.008252978 -0.052754637 0.019523863 -0.055971447 -0.09547763 -0.07902893 0.16315688 -0.003277974
-0.004257884 -0.053455565 -0.0005733816 0.13434629 0.10807396 0.050571032 -0.027835723 0.05778887
0.03404389 0.0011637697 -0.09938638 0.07583338 0.0687799 0.00020495948 0.07602913 0.013152687
0.08544089 0.204032 -0.07371708 5.6846795e-05 -0.120739855 -0.10416266 0.006372549 0.12810232
-0.20517974 0.0017168709 -0.1029919 -0.028901692 0.03098793 -0.06985805 0.03883803 0.13252994
-0.063764244 -0.093074754 -0.02996259 -0.00038735886 0.10506479 0.0022839417 -0.08269773 -0.07870133
0.06267766 -0.012948383 1.3611777e-05 -0.062480804 0.099159345 0.0021643296 -0.00024832206 -0.0578029
0.037121836 -0.063873135 0.08108945 -0.027916024 0.00019994072 -0.10651566 0.15547685 -0.07646212
-0.028025726 -0.16723935 0.0016091779 -0.0054884814 0.073398836 0.1983727 -0.118393086 -0.10946643
0.18024802 0.05915957 -0.13346142 -0.11453924 -0.0009494231 -0.003639528 0.018052442 -0.17656256
0.02367327 0.14392307 -0.001962766 -0.0005403245 0.07318741 0.18315397 0.048739154 0.00032305685
-0.14351426 0.045607008 0.042111125 -0.08581613 -0.088654146 0.00024375955 -0.07276207 0.0029474588
-0.06703839 -0.11731903 0.030998077 0.0019650874 -0.20323263 -0.039292797 0.015575575 -0.08479971
-0.011621419 0.11231682 -0.019267831 -0.18334366 -0.1724101 -0.000266698 -0.0035992677 -0.08154823
-0.1601079 -0.074250214 0.04700097 -0.010315715 0.0005512786 -0.017146584 0.015515995 0.13926375
6.0363564e-05 0.20344913 0.027906982 -0.16369703 0.13467422 0.01088977 5.5452638e-05 0.039945308
0.17411163 -0.050950002 0.034005813 0.010334701 -0.0031887481 -0.050486207 0.058649164 0.10622353
-0.17518964 -0.08546906 -0.014278992 0.06343392 -0.15444022 -0.12516561 0.0006456298 -0.07433983
0.07695671 0.067098916 0.043420386 0.10926056 0.062048905 0.0008040202 -0.0869616 -0.06297071
0.0916411 0.0003366278 -0.0046372768 -0.03745645 -0.11423161 0.052026164 -0.09735681 -9.3119124e-05
-0.061379597 -0.094184786 -0.082411274 -0.08583797 0.030707287 0.003050498 -0.1745841 -0.007720856
-0.0021289643 -0.1007312 -0.0677145 0.16000678 -0.047369238 -0.15392189 -0.11918284 -4.604432e-06
0.17823008 -0.08511301 0.07102308 -0.00053669466 -0.10503177 -0.008359795 0.00035958443 -0.13993664
0.18027355 -0.11843325 0.00022659094 0.15306269 0.026526295 0.16273977 -0.042754717 0.06225498
-4.3184576e-05 -0.09380666 -0.13731106 -0.08265031 -0.070292674 -0.007844891 0.0032807402 0.09733964
-0.0027104826 0.15130587 -0.08197161 0.009331356 0.19534022 -0.11772294 0.06488868 -0.14339446
-0.00030264616 0.02343705 -0.07715586 -0.1959005 -0.10327571 0.01754621 -0.013281251 0.0015429492
-0.05570002 -0.018844815 0.0034807075 1.5314696e-05 -0.20495294 0.09862639 -0.08969882 0.09228324
00000000: 543c a4bd ad65 3fbd 1780 023e 102f 84bd
00000010: ab1d fabd 10e3 37bd f59b c73d 29db 09be
00000020: 38e4 823d 8aec 99ba a6fa 05be 2910 0ebe
00000030: 2aef 0a3d 605a bf3c 9c84 a5bd 3c60 41bd
00000040: eb62 78ba 1cc7 143d 4168 853d 4f46 3dbd
00000050: fbb3 53b9 7001 41be dc3f 193d cc73 72bd
00000060: a532 873c 68ca 14be d83b d339 03aa cdbd
00000070: 37ab 4bbd 90b5 bbbd 74cd f0bd 88a1 15be
00000080: 8037 073c 3f15 58bd 82f0 9f3c 5142 65bd
00000090: c789 c3bd ebd9 a1bd 9912 273e 47d3 56bb
000000a0: b885 8bbb 39f4 5abd fd4e 16ba 1392 093e
000000b0: e155 dd3d 9223 4f3d be07 e4bc 06b4 6c3d
000000c0: 9b71 0b3d a289 983a 168b cbbd 884e 9b3d
000000d0: 7adc 8c3d 64ea 5639 29b5 9b3d 5e7e 573c
000000e0: a2fb ae3d c4ed 503e fbf8 96bd c86e 6e38
000000f0: 7546 f7bd 3c53 d5bd d1d0 d03b 412d 033e
00000100: a31a 52be a108 e13a 6bed d2bd 3ec3 ecbc
00000110: 66da fd3c bd11 8fbd a014 1f3d eeb5 073e
00000120: d496 82bd fa9d bebd 1b74 f5bc 6d16 cbb9
00000130: 352c d73d 2fae 153b 6d5d a9bd 2a2e a1bd
00000140: 255d 803d 7425 54bc 235e 6437 dfeb 7fbd
00000150: 0e14 cb3d 6dd7 0d3b 3931 82b9 bcc2 6cbd
00000160: 110d 183d ebcf 82bd 3a12 a63d 25b0 e4bc
00000170: 2ea7 5139 e224 dabd 5335 1f3e 2c98 9cbd
00000180: 3596 e5bc cb40 2bbe 0deb d23a b8d8 b3bb
00000190: 2152 963d 3722 4b3e 1378 f2bd f02f e0bd
000001a0: f092 383e 4e51 723d 1caa 08be 8d93 eabd
000001b0: b5e2 78ba 2685 6ebb b7e2 933c d1cc 34be
000001c0: 72ee c13c 9260 133e c0a1 00bb 90a4 0dba
000001d0: 48e3 953d b78c 3b3e b5a2 473d f55f a939
000001e0: 67f5 12be 6ace 3a3d b77c 2c3d 5ec0 afbd
000001f0: 4e90 b5bd b599 7f39 4804 95bd 272a 413b
00000200: 6c4b 89bd f644 f0bd aeef fd3c b2c8 003b
00000210: 371c 50be 7cf1 20bd b230 7f3c 78ab adbd
00000220: c467 3ebc 5c06 e63d 92d7 9dbc 71be 3bbe
00000230: 468c 30be 9ad3 8bb9 b1e1 6bbb c202 a7bd
00000240: 53f3 23be 7f10 98bd 1784 403d 3f03 29bc
00000250: ae83 103a fe76 8cbc cd36 7e3c 289b 0e3e
00000260: e22e 7d38 f854 503e 2f9d e43c 32a0 27be
00000270: 0ae8 093e 026b 323c d195 6838 b19d 233d
00000280: 524a 323e f3b0 50bd ae49 0b3d e152 293c
00000290: 51fa 50bb a0ca 4ebd 1b3a 703d b98b d93d
000002a0: ea64 33be 670a afbd 6ff2 69bc a5e9 813d
000002b0: 9425 1ebe 6a2b 00be 7c3f 293a 7b3f 98bd
000002c0: 7b9b 9d3d 286b 893d 93d9 313d 00c4 df3d
000002d0: fe26 7e3d e2c4 523a ec18 b2bd caf6 80bd
000002e0: 54ae bb3d 6b7d b039 4cf4 97bb ef6b 19bd
000002f0: 43f2 e9bd 6319 553d 0263 c7bd f348 c3b8
00000300: 2c69 7bbd f4e3 c0bd 3ec7 a8bd d1cb afbd
00000310: d98d fb3c ddea 473b 2dc6 32be 3cff fcbb
00000320: 1886 0bbb 294c cebd e6ad 8abd d1d8 233e
00000330: 3f06 42bd b39d 1dbe 2216 f4bd c57f 9ab6
00000340: f281 363e bb4f aebd 8c74 913d f8b0 0cba
00000350: e61a d7bd 86f7 08bc 9b86 bc39 8d4b 0fbe
00000360: a199 383e 228d f2bd 0b99 6d39 77bc 1c3e
00000370: ac4d d93c 41a5 263e 921f 2fbd 14ff 7e3d
00000380: 1621 35b8 b51d c0bd 459b 0cbe 9144 a9bd
00000390: 9bf5 8fbd dc87 00bc b001 573b 015a c73d
000003a0: 5aa2 31bb edef 1a3e bbe0 a7bd 8be2 183c
000003b0: 4407 483e ba18 f1bd 5be4 843d ffd5 12be
000003c0: 7bac 9eb9 0eff bf3c e403 9ebd 249a 48be
000003d0: 3782 d3bd 12bd 8f3c 9b99 59bc c93c ca3a
000003e0: b425 64bd 7160 9abc 951c 643b 0f78 8037
000003f0: 2fdf 51be a2fc c93d 04b4 b7bd fffe bc3d

rnn.weight_hh_l1 f4 [132, 33]
-0.099908985 0.09242667 0.057982598 -0.028470634 0.14579317 -0.122910485 -0.03416667 0.10870906
0.02372061 -0.033368044 -0.09598092 -0.049093265 0.035276756 0.031424135 0.047743674 -0.103083536
-0.007000716 -0.118864834 -0.006693502 -0.011099975 -0.0029512367 0.0257268 0.018396592 0.077660464
0.0035851197 0.014557966 0.05341758 -0.09320943 -0.027390568 0.1244838 0.0119285 -0.05625215
-0.09940692 0.05056449 -0.0059064166 -0.05387562 -0.13118201 -0.111533895 -0.15968496 -0.15746711
-0.029560218 -0.12257889 -0.17093857 0.06855302 0.07646944 -0.0628602 0.06879156 0.15187174
-0.11816479 0.08991303 0.012740741 -0.042392213 -0.027636047 0.024134565 -0.06264143 -0.10649905
0.21544577 -0.10322489 -0.0073234104 0.110694334 0.014779803 -0.1695373 -0.016278593 0.113657475
-0.048463125 -8.703268e-06 0.012992468 0.08915041 0.01942734 0.049585417 0.08470812 -0.02106997
-0.03333656 -0.06913714 0.0016183086 -0.014831101 -0.009002336 -0.019777395 -0.015354419 0.01296037
0.013355294 -0.0612267 0.030471718 -0.02236906 -0.020804456 -0.06287911 -0.08019923 -0.009938793
-0.035234947 0.066441745 0.011554979 0.014654676 0.033051204 -0.02148885 -0.037000034 -0.06013091
0.024039265 -0.024949247 -0.079949975 -0.035934675 0.0808869 0.054107595 0.14484134 -0.03663448
-0.072517194 -0.03734578 -0.018261923 -0.025915466 -0.10812486 0.016878638 0.009526873 -0.036826354
0.024127947 -0.092602156 -0.09160931 0.060811967 -0.06672697 0.04417183 0.06441082 0.03808437
0.017746925 -0.053829137 -0.031693764 0.025775058 -0.059233736 -0.03517711 -0.026884897 -0.08198979
-0.0049277036 0.13955802 0.011401448 -0.09111323 0.04149859 0.011359062 -0.0008716502 -0.020492561
0.147339 0.055829972 -0.031677157 -0.0152980015 0.07080783 -0.031593747 -0.012554973 -0.005884732
-0.03361138 0.040204983 0.117293745 0.0501351 -0.030666688 0.0075251292 -0.0014447148 -0.017759888
-0.07028531 0.03676742 0.0029460802 0.045896962 -0.09690679 0.013337082 0.07740581 -0.025244268
-0.052280687 0.030558364 0.013269246 -0.0012255516 0.06601998 -0.024912423 0.07704895 -0.115042366
0.008672138 -0.0074499887 -0.004396198 -0.0908869 -0.14816839 0.06875674 0.12237978 0.059283134
0.00072012894 -0.047501493 0.1011982 0.11056092 -0.14407647 -0.016252799 0.021646043 0.11409158
-0.15074003 0.063513234 0.041493222 -0.15506227 0.122749306 0.0023022587 0.081100084 0.058551926
-0.04726451 -0.11545811 0.013377611 -0.15124214 0.023415146 -0.014048841 -0.0673944 -0.007920714
-0.070047945 -0.04087993 0.04928455 0.01650608 -0.018122485 0.02104849 0.03081251 0.13112451
0.052941628 0.04474759 -0.057267886 -0.06267016 -0.09438241 0.029072408 0.12527217 0.06445083
-0.049988043 0.038835503 0.0778091 -0.081753485 -0.060356498 -0.060291804 -0.06853916 0.017372977
0.13214925 -0.0374357 0.014732695 -0.04929389 0.053382654 -0.053227674 -0.026354354 0.039479606
0.028362334 -0.023761436 0.15293705 -0.1125448 -0.12789649 0.029527819 0.108110145 0.0789633
0.08890154 -0.04650952 -0.0015501853 -0.07146367 -0.06713831 0.17501678 -0.046864983 0.0498602
-0.10508296 -0.009059015 -0.1486621 0.06811156 -0.059390865 -0.1275883 -0.14903077 0.04601065
00000000: 159d ccbd 324a bd3d 297f 6d3d 3f3b e9bc
00000010: ce4a 153e 7eb8 fbbd 5af2 0bbd dba2 de3d
00000020: ba51 c23c eeac 08bd a591 c4bd 0516 49bd
00000030: 5c7e 103d 98b6 003d df8e 433d 761d d3bd
00000040: 4366 e5bb 686f f3bd 2a55 dbbb abdc 35bc
00000050: 8969 41bb 03c1 d23c 73b4 963c 730c 9f3d
00000060: 54f4 6a3b 8984 6e3c 64cc 5a3d 96e4 bebd
00000070: 2f62 e0bc 5df1 fe3d c16f 433c a868 66bd
00000080: db95 cbbd b61c 4f3d 9d8a c1bb afac 5cbd
00000090: 9454 06be e26b e4bd 7484 23be 0f3f 21be
000000a0: 4528 f2bc a40a fbbd 850a 2fbe 8765 8c3d
000000b0: 029c 9c3d d9bc 80bd 97e2 8c3d 4484 1b3e
000000c0: 6200 f2bd 5324 b83d 8abe 503c 75a3 2dbd
000000d0: fe64 e2bc dab5 c53c 264a 80bd 2d1c dabd
000000e0: d19d 5c3e 9267 d3bd 38f9 efbb b6b3 e23d
000000f0: fd26 723c 309b 2dbe af5a 85bc 40c5 e83d
00000100: 4581 46bd 4004 12b7 5cde 543c 7d94 b63d
00000110: 1626 9f3c 141a 4b3d 737b ad3d ee9a acbc
00000120: eb8b 08bd c697 8dbd 6d1d d43a 25fe 72bc
00000130: 897e 13bc 3404 a2bc 1a91 7bbc bb57 543c
00000140: 2ad0 5a3c d9c8 7abd d39f f93c 523f b7bc
00000150: 1b6e aabc c3c6 80bd 7e3f a4bd 52d6 22bc
00000160: 8552 10bd 9c12 883d 1851 3d3c 2b1a 703c
00000170: b360 073d 6209 b0bc 598d 17bd d44b 76bd
00000180: feed c43c 5d62 ccbc d0bc a3bd 3d30 13bd
00000190: 08a8 a53d ed9f 5d3d 4a51 143e 090e 16bd
000001a0: e583 94bd e3f7 18bd 079a 95bc ac4c d4bc
000001b0: 9170 ddbd 1245 8a3c 9a16 1c3c 3bd7 16bd
000001c0: f9a7 c53c 33a6 bdbd a99d bbbd f815 793d
000001d0: 26a8 88bd 85ed 343d d2e9 833d 5bfe 1b3d
000001e0: 0062 913c f17b 5cbd 52d1 01bd 3726 d33c
000001f0: 139f 72bd e015 10bd b73d dcbc 43ea a7bd
00000200: 9378 a1bb 4ce8 0e3e 24cd 3a3c 9399 babd
00000210: 6dfa 293d 5c1b 3a3c 747f 64ba 04e0 a7bc
00000220: 09e0 163e f8ad 643d e8bf 01bd 78a4 7abc
00000230: b203 913d 7268 01bd 60b3 4dbc b6d4 c0bb
00000240: 16ac 09bd fbad 243d b437 f03d 765a 4d3d
00000250: b538 fbbc 5c95 f63b 965c bdba 2f7d 91bc
00000260: bff1 8fbd 6f99 163d 0613 413b 74fe 3b3d
00000270: 1177 c6bd c783 5a3c f086 9e3d 11cd cebc
00000280: 4624 56bd 8955 fa3c 4067 593c b0a2 a0ba
00000290: 7c35 873d 2315 ccbc d7cb 9d3d 559b ebbd
000002a0: 9515 0e3c 091f f4bb fb0d 90bb e922 babd
000002b0: 74b9 17be 55d0 8c3d 40a2 fa3d dfd2 723d
000002c0: 09c7 3c3a ed90 42bd 0041 cf3d c36d e23d
000002d0: c888 13be 9724 85bc 0b53 b13c d9a8 e93d
000002e0: 985b 1abe 3a13 823d ccf4 293d a5c8 1ebe
000002f0: fd63 fb3d 7ee1 163b cd17 a63d 25d4 6f3d
00000300: 6e98 41bd 4d75 ecbd c42d 5b3c 38df 1abe
00000310: 1fd1 bf3c 1c2d 66bc 1306 8abd e2c5 01bc
00000320: 4c75 8fbd b771 27bd 99de 493d c237 873c
00000330: 9b75 94bc e26d ac3c 846a fc3c 8145 063e
00000340: 52d9 583d 4049 373d bb91 6abd 3659 80bd
00000350: 914b c1bd 4229 ee3c 5947 003e ccfe 833d
00000360: 43c0 4cbd fa11 1f3d 615a 9f3d 5f6e a7bd
00000370: 6038 77bd 8af4 76bd 425e 8cbd c651 8e3c
00000380: 2252 073e 2d56 19bd 6761 713c 64e8 49bd
00000390: c5a7 5a3d 4305 5abd 16e5 d7bc 5eb5 213d
000003a0: 2058 e83c 58a7 c2bc 889b 1c3e e37d e6bd
000003b0: 4cf7 02be 53e4 f13c da68 dd3d 83b7 a13d
000003c0: 0312 b63d c480 3ebd 962f cbba 8b5b 92bd
000003d0: cf7f 89bd 9937 333e 7ff5 3fbd 363a 4c3d
000003e0: bc35 d7bd 436c 14bc e13a 18be 137e 8b3d
000003f0: d643 73bd 82a6 02be 869b 18be aa75 3c3d

rnn.bias_ih_l1 f4 [132]
-0.10313318 0.079808526 0.039295334 0.0963644 0.116285056 0.095660426 0.17299925 0.032112166
-0.11213416 0.052679196 -0.07935141 0.11904358 -0.0091526555 -0.06538393 0.031562578 0.16123472
0.078877404 -0.08665678 0.028521582 0.060240228 0.14682205 -0.07499826 0.009351582 0.17491113
0.15191853 -0.066512845 -0.072331175 -0.022903597 -0.07931418 -0.056824934 0.11266423 0.14169392
0.14983921 -0.11414689 -0.11656928 -0.04597491 0.14826396 -0.03313607 -0.08981921 -0.12716448
0.1341726 -0.12514369 -0.04811054 -0.004425919 -0.05966643 -0.0056066643 0.026088607 0.12091212
0.1185065 0.045172136 -0.02094816 -0.053297244 0.12992021 0.14009689 0.06150881 -0.08781632
-0.06189339 0.02596019 -0.0140558565 -0.10589196 0.043009873 -0.14585392 0.19115575 0.10984229
-0.10463518 0.041665744 0.016571842 0.032445893 -0.13244548 -0.049262393 -0.017136957 -0.106495075
-0.09374693 -0.06301725 0.14717421 -0.028185815 -0.037095588 0.04308054 -0.080259696 0.14556275
-0.0024238792 0.004549459 -0.049557455 -0.087523445 -0.05881421 -0.07329861 -0.047477737 -0.14291184
0.033756446 0.031752795 0.07882349 0.14662208 0.09336805 -0.1396495 -0.10700745 0.029593157
0.031496264 -0.06121662 0.08978296 0.09358644 0.108299404 0.15009841 -0.10188978 0.20938009
-0.07419567 -0.10716157 0.19974357 -0.10799899 0.048090193 0.0044018934 0.019952785 -0.0058442755
-0.08757025 -0.015711103 0.015381633 -0.021045798 -0.004364176 0.094222315 -0.11503731 0.091616884
-0.01029924 0.18613923 0.14831342 0.08463945 -0.0012094273 -0.075887695 -0.1318659 0.047172144
0.12224776 0.007567777 0.10024782 -0.025271649
00000000: 7d37 d3bd a772 a33d 25f4 203d b35a c53d
00000010: dc26 ee3d 9de9 c33d b726 313e 0c88 033d
00000020: 98a6 e5bd 24c6 573d fe82 a2bd 1fcd f33d
00000030: 05f5 15bc 03e8 85bd c347 013d b71a 253e
00000040: 7a8a a13d 1c79 b1bd 18a6 e93c 75be 763d
00000050: 8558 163e b098 99bd 6137 193c e71b 333e
00000060: 8890 1b3e e337 88bd 5e22 94bd 53a0 bbbc
00000070: 796f a2bd 43c1 68bd 81bc e63d 3618 113e
00000080: 736f 193e d8c5 e9bd e0bb eebd 3050 3cbd
00000090: 82d2 173e b0b9 07bd 22f3 b7bd 6837 02be
000000a0: 8b64 093e ab25 00be 8f0f 45bd 4d07 91bb
000000b0: c964 74bd 1cb8 b7bb c6b7 d53c c6a0 f73d
000000c0: 89b3 f23d 6b06 393d 7a9b abbc 364e 5abd
000000d0: ce09 053e 8f75 0f3e a9f0 7b3d 0bd9 b3bd
000000e0: ec83 7dbd 77aa d43c 894a 66bc e2dd d8bd
000000f0: 1f2b 303d bb5a 15be 55be 433e fff4 e03d
00000100: f84a d6bd b3a9 2a3d acc1 873c fce5 043d
00000110: ca9f 07be 5dc7 49bd ce62 8cbc 171a dabd
00000120: 64fe bfbd 300f 81bd d6b4 163e f0e5 e6bc
00000130: 8bf1 17bd 3875 303d 325f a4bd 670e 153e
00000140: f2d9 1ebb a113 953b c2fc 4abd 7e3f b3bd
00000150: 2be7 70bd 951d 96bd 0478 42bd 7b57 12be
00000160: 3344 0a3d 380f 023d 366e a13d 1924 163e
00000170: c037 bf3d 4700 0fbe b926 dbbd 596d f23c
00000180: 3a02 013d 47be 7abd 21e0 b73d 3faa bf3d
00000190: 14cc dd3d 66b3 193e 97ab d0bd bc67 563e
000001a0: e6f3 97bd 8677 dbbd 9489 4c3e 932e ddbd
000001b0: 39fa 443d c23d 903b 0674 a33c 5681 bfbb
000001c0: 0858 b3bd 92b4 80bc 3f03 7c3c 3d68 acbc
000001d0: 5d01 8fbb a1f7 c03d ae98 ebbd a2a1 bb3d
000001e0: 25be 28bc 489b 3e3e 79df 173e 7357 ad3d
000001f0: a585 9eba 026b 9bbd db07 07be 9437 413d
00000200: 095d fa3d 1dfb f73b bb4e cd3d 7d06 cfbc

rnn.bias_hh_l1 f4 [132]
-0.10980841 0.20318574 0.19928071 0.0829 0.12975648 -0.052536927 -0.045843683 -0.051634863
0.087046325 -0.072269075 0.07115641 0.08725939 0.078289434 -0.07720149 -0.13193427 0.18098113
0.09640759 0.055622827 0.029421242 0.05917737 0.19382259 -0.045725185 -0.11330129 0.057234384
-2.3797722e-05 -0.09958041 0.12896042 0.06769641 -0.04764859 -0.04704531 0.13868019 0.089566536
0.14886157 -0.08554682 0.16473627 -0.07541759 0.04770481 0.14476633 1.8959729e-05 0.018080464
0.17626207 0.025418736 -0.03806383 0.00025688374 -0.068044886 0.037002664 0.037361182 -0.103078246
-0.032039918 -0.098988935 -0.04787554 0.020295905 0.056963596 0.11860911 0.04066658 0.13592465
-0.079761736 -0.11031306 -0.12642513 0.056386434 0.1659229 -0.012259546 0.17175098 0.16450688
-0.12543313 0.0030408436 -0.08145437 -0.060377184 -0.14143619 0.0102546 0.04801293 0.03377684
0.17282 0.0041463836 -0.022003058 0.09237056 -0.06232052 -0.16300239 0.072069705 0.091421805
0.094317146 -0.044135448 0.10761779 -0.06470623 0.1086147 0.11990417 -0.006736416 -0.14602552
-0.10245034 0.08513385 -0.06437122 -0.022732427 0.14844681 0.05317928 0.042532165 0.15589073
0.13015026 -0.1016836 -0.09677009 -0.05474296 0.07229642 0.1254083 0.066276476 -0.08165134
-0.108321756 0.08289126 0.08036048 -0.086180314 0.12284997 0.06614803 -0.06867366 0.11183416
0.028308341 -0.08630546 0.18271635 -0.03371142 0.09334181 0.08181423 0.112092845 0.027668351
-0.040299885 -0.051180113 -0.051075734 -0.017537925 0.12535165 -0.0012504318 0.11705564 0.0135424
0.12272984 -0.0454851 0.14608598 0.17209409
00000000: 3be3 e0bd ec0f 503e 3e10 4c3e 7ac7 a93d
00000010: e2de 043e f630 57bd 96c6 3bbd 147f 53bd
00000020: 5845 b23d cf01 94bd 74ba 913d 0db5 b23d
00000030: 3656 a03d d11b 9ebd c719 07be 1e53 393e
00000040: 5871 c53d c3d4 633d d104 f13c f863 723d
00000050: 6e79 463e 554a 3bbd 820a e8bd 9a6e 6a3d
00000060: 38a1 c7b7 d0f0 cbbd 330e 043e 6aa4 8a3d
00000070: 2b2b 43bd 95b2 40bd 2e02 0e3e a96e b73d
00000080: 2b6f 183e 2c33 afbd a0b0 283e 8a74 9abd
00000090: 1e66 433d a03d 143e b50b 9f37 7b1d 943c
000000a0: 0b7e 343e f43a d03c d2e8 1bbd 5aae 8639
000000b0: 1e5b 8bbd 1b90 173d 0a08 193d b01a d3bd
000000c0: 4a3c 03bd b6ba cabd 2419 44bd 9943 a63c
000000d0: a952 693d 55e9 f23d 0092 263d d52f 0b3e
000000e0: 1f5a a3bd d0eb e1bd 9775 01be 76f5 663d
000000f0: b1e7 293e 43dc 48bc 7ddf 2f3e 7e74 283e
00000100: 8b71 00be e448 473b 8cd1 a6bd 114e 77bd
00000110: a6d4 10be e902 283c 35a9 443d 9559 0a3d
00000120: baf7 303e 63de 873b c23f b4bc c72c bd3d
00000130: cd43 7fbd 19ea 26be 4899 933d 5b3b bb3d
00000140: 5929 c13d 5fc7 34bd b766 dc3d b384 84bd
00000150: 6271 de3d 5190 f53d 27bd dcbb b787 15be
00000160: 7cd1 d1bd a85a ae3d 0fd5 83bd 5b39 babc
00000170: 7102 183e 84d2 593d 3536 2e3d d2a1 1f3e
00000180: 1c46 053e 7e3f d0bd 662f c6bd 273a 60bd
00000190: 2510 943d 096b 003e f6bb 873d d138 a7bd
000001a0: ccd7 ddbd e5c2 a93d 0994 a43d 4e7f b0bd
000001b0: c498 fb3d 9e78 873d c7a4 8cbd 4f09 e53d
000001c0: e5e6 e73c ebc0 b0bd ff19 3b3e fc14 0abd
000001d0: fe29 bf3d 388e a73d ef90 e53d bda8 e23c
000001e0: 7e11 25bd 3da2 51bd ca34 51bd b2ab 8fbc
000001f0: 2f5c 003e 87e5 a3ba deba ef3d f1e0 5d3c
00000200: c859 fb3d 964e 3abd 9097 153e 6f39 303e

rnn.weight_ih_l2 f4 [132, 33]
-0.020557782 0.010700938 -0.057525102 0.03142062 0.099126324 0.064545035 -0.013381126 -0.09384103
-0.049964156 0.09068657 0.011983215 -0.015292862 -0.08252467 0.11224552 0.05019892 0.07898096
-0.070019566 -0.059017394 -0.050140727 0.031354405 -0.0115877045 0.072418734 -0.01815942 -0.17218904
-0.0060544163 0.079062134 0.09895708 -0.08702211 0.073515296 0.08445887 0.037052687 -0.12821223
-0.17108327 0.0309789 -0.027835684 -0.011034999 0.03958782 0.006103799 -0.0071103554 0.0035121224
-0.016442757 -0.0019529471 0.0027764207 -0.0021849056 -0.0074440967 0.0069969622 -0.00042585708 -0.002240792
-0.005609554 0.004885703 -0.004367743 -0.015280596 -0.0035385902 0.022861443 -0.0012002856 -0.009790496
-0.013469939 -0.00084210455 -0.010928108 0.0028961361 -0.008179397 0.0024588117 -0.025401574 0.009532391
-0.008513705 -0.02141611 0.014377041 -0.01741146 -0.017481826 0.020729566 0.013195115 -0.016750885
0.002765311 -0.012260829 0.00080561906 -0.0018510536 0.00048825273 -0.004517608 -0.00046625937 0.0075585363
0.013425131 5.5734604e-06 0.015123169 -0.0029071616 -0.008412446 -0.011852118 0.012487765 -0.0072713173
0.00014739676 -0.022611605 -0.0005278807 -0.0072065727 0.0060031908 -0.008894206 0.00894498 0.004427341
0.0052373884 -0.0024957112 -0.013272951 0.13635257 -0.030384019 -0.101117715 0.06382708 0.06290884
0.062421806 0.13471065 0.06764954 0.08301522 -0.07155478 -0.02593039 0.03241161 0.01483777
0.058777772 0.09148651 0.06511074 0.052277654 -0.053259946 -0.0057206 -0.076534785 -0.030518532
-0.03504863 0.020001039 0.005209752 0.03243393 6.840063e-05 0.0354886 0.0053215465 -0.09040391
-0.103773475 0.15148313 0.105334 0.054897085 -0.030294202 0.0031101725 0.05239258 0.058956515
0.013892786 -0.014083404 -0.054956634 0.032377284 -0.010634446 -0.021267695 0.0126268715 0.0032511826
0.027697697 -0.025640089 -0.032923996 -0.043062057 -0.06994259 0.005350371 -0.004661935 0.02386906
-0.075530134 -0.004887786 0.012444833 -0.09898723 -0.029296318 -0.022728428 -0.009986029 -0.0028198198
-0.010667291 0.05693078 -0.12590358 -0.02699174 -0.09405618 -0.008905421 0.10306452 -0.010311729
-0.07244471 0.07641991 -0.0747092 0.007398425 -0.06956686 0.032273587 0.09589656 0.008535776
0.009353104 -0.015866593 -0.017282179 -0.08749132 0.11379337 -0.07305778 0.077140875 0.007816278
-0.017953513 -0.005433378 -0.019032236 0.01395808 0.10802097 0.0004072139 -0.03476981 0.012443302
0.008035773 0.08998019 0.1268025 0.065381095 0.021932054 0.08524319 0.03524714 -0.02316539
-0.037073202 0.0562783 0.019418225 -0.06415936 0.01273022 -0.028403979 -0.00062692893 0.00022727666
-0.0022724434 -0.016243106 0.0041404697 0.008181719 0.007892513 -0.009706949 0.04819719 -0.0032161616
-0.02601175 -0.011011532 0.04144723 -0.013172879 -0.01482558 -0.027862227 0.0022987484 -0.028983053
0.006872832 -0.018524121 0.018679168 -0.008851776 0.024948899 -0.009043351 -0.014551875 0.07247499
-0.17145033 -0.22103474 0.23635599 0.0695494 -0.20736887 0.05344038 -0.11790053 0.0021274912
-0.03993438 0.024727726 -0.104294814 -0.045949925 0.05808929 0.046189282 0.10810517 0.17136936
-0.002614104 -0.08907425 -0.07163279 0.27489057 -0.076368675 -0.06172162 -0.2553673 -0.076348305
00000000: cb68 a8bc fd52 2f3c 719f 6bbd e8b2 003d
00000010: be02 cb3d 3030 843d 833c 5bbc ba2f c0bd
00000020: 37a7 4cbd e1b9 b93d 3f55 443c ea8e 7abc
00000030: b202 a9bd fbe0 e53d 629d 4d3d c5c0 a13d
00000040: 6b66 8fbd 39bc 71bd 5d60 4dbd 7a6d 003d
00000050: 5bda 3dbc 4650 943d 10c3 94bc 5352 30be
00000060: 2064 c6bb 54eb a13d 02aa ca3d a638 b2bd
00000070: 308f 963d c6f8 ac3d 8fc4 173d 114a 03be
00000080: 7430 2fbe 76c7 fd3c a907 e4bc 24cc 34bc
00000090: d726 223d 6102 c83b fcfd e8bb a32b 663b
000000a0: f6b2 86bc 08fa ffba 9cf4 353b a230 0fbb
000000b0: 9ced f3bb c646 e53b 9245 dfb9 40da 12bb
000000c0: 59d0 b7bb 3f18 a03b 491f 8fbb 775b 7abc
000000d0: b1e7 67bb ec47 bb3c e752 9dba 5168 20bc
000000e0: 05b1 5cbc aec0 5cba cf0b 33bc 1acd 3d3b
000000f0: e102 06bc 0424 213b f616 d0bc bf2d 1c3c
00000100: 117d 0bbc d770 afbc ae8d 6b3c 7aa2 8ebc
00000110: 0c36 8fbc 0dd1 a93c 5330 583c 2739 89bc
00000120: 383a 353b a5e1 48bc 2e30 533a 0d9f f2ba
00000130: 2cfc ff39 7108 94bb 4674 f4b9 99ad f73b
00000140: 15f5 5b3c a903 bb36 2bc7 773c 1486 3ebb
00000150: 5bd4 09bc 632f 42bc 7c99 4c3c 3b44 eebb
00000160: 848e 1a39 f93b b9bc 7961 0aba 1d25 ecbb
00000170: 6ab6 c43b 01b9 11bc f78d 123c 3a13 913b
00000180: 669e ab3b 168f 23bb cb76 59bc 02a0 0b3e
00000190: e8e7 f8bc ce16 cfbd c6b7 823d 5ad6 803d
000001a0: 02ae 7f3d 97f1 093e d88b 8a3d e203 aa3d
000001b0: 508b 92bd f86b d4bc 09c2 043d 1e1a 733c
000001c0: f6c0 703d 485d bb3d c858 853d 1821 563d
000001d0: 1a27 5abd df73 bbbb 45be 9cbd 0002 fabc
000001e0: 278f 0fbd 38d9 a33c 91b6 aa3b 71d9 043d
000001f0: 4f72 8f38 7f5c 113d 5e60 ae3b af25 b9bd
00000200: 3087 d4bd 651e 1b3e 5ab9 d73d c4db 603d
00000210: 8c2b f8bc 09d4 4b3b 9a99 563d 637c 713d
00000220: 919e 633c 14be 66bc 351a 61bd 0b9e 043d
00000230: 193c 2ebc 9739 aebc f0e0 4e3c cb11 553b
00000240: 48e6 e23c 2a0b d2bc 50db 06bd d761 30bd
00000250: 103e 8fbd 2a52 af3b 25c3 98bb 0c89 c33c
00000260: 8baf 9abd b929 a0bb 6ae5 4b3c d1b9 cabd
00000270: d5fe efbc f830 babc 719c 23bc bacc 38bb
00000280: dcc5 2ebc 4030 693d deec 00be c81d ddbc
00000290: 87a0 c0bd 0be8 11bc 7e13 d33d 87f2 28bc
000002a0: e45d 94bd 0b82 9c3d 2301 99bd 7d6e f23b
000002b0: 1279 8ebd 4f31 043d 6a65 c43d a4d9 0b3c
000002c0: c33d 193c a8fa 81bc 5b93 8dbc a62e b3bd
000002d0: 800c e93d 519f 95bd 09fc 9d3d d90f 003c
000002e0: 3f13 93bc 7a0a b2bb 7ee9 9bbc 6eb0 643c
000002f0: 193a dd3d 537f d539 ca6a 0ebd fede 4b3c
00000300: 7aa8 033c 8947 b83d 84d8 013e 86e6 853d
00000310: daaa b33c fb93 ae3d 4e5f 103d 58c5 bdbc
00000320: 12da 17bd 1384 663d f812 9f3c fc65 83bd
00000330: 6a92 503c 76af e8bc 7d58 24ba 1d51 6e39
00000340: 46ed 14bb 4310 85bc c7ac 873b 9e0c 063c
00000350: 994f 013c e509 1fbc 6b6a 453d 3dc6 52bb
00000360: 9816 d5bc b669 34bc 92c4 293d 0fd3 57bc
00000370: fde6 72bc 533f e4bc 99a6 163b de6d edbc
00000380: 7e35 e13b e6bf 97bc 0e05 993c 0a07 11bc
00000390: a261 cc3c 902a 14bc fd6a 6ebc c46d 943d
000003a0: ad90 2fbe ee56 62be 4e07 723e ea6f 8e3d
000003b0: 8158 54be 4de4 5a3d d575 f1bd 616d 0b3b
000003c0: 3c92 23bd cd91 ca3c 8598 d5bd fd35 3cbd
000003d0: 09ef 6d3d f930 3d3d 3e66 dd3d 737b 2f3e
000003e0: 6351 2bbb 8f6c b6bd 36b4 92bd 75be 8c3e
000003f0: 2e67 9cbd cfcf 7cbd 81bf 82be 805c 9cbd
