los/hirid/hirid_los_GRU_repetition_0_fold_0_model-v1.ckpt (torch, 732576 bytes, 15 tensors)

rnn.weight_ih_l0 f4 [351, 52]
00000000: 5c51 033e e484 b73b 799f 4d3b 775c cc3d
00000010: f750 cdb9 4ee5 4f3d 5480 213b fccd 093e
00000020: 8fd3 343d c75c 183d 7be5 8d3a bcd5 13bd
00000030: 5f38 653d 1c7e e53c da45 893d 9c04 fabc
00000040: 82d2 98bd c011 91bd 6ee0 81bc 1d20 9bbd
00000050: a670 1abd 854d bb3d 8132 793c c438 883d
00000060: df51 07bd a505 b9bc 6358 a2bc ff6b 15bd
00000070: 523b 5bbd 7823 453d 0517 9c3b 59a5 efbc
00000080: 2add 833d 5250 05bd afac 03be 3138 8dbd
00000090: ae4a 55bc bd4f 63bd de39 22bd 900e 2d3d
000000a0: a024 86bc ae1e 903d fc7d 3bbe b83e 52bd
000000b0: e915 07be cda4 aa3d 81ad 81bc 46b4 d73d
000000c0: 4a78 533d 860c bebc 703b 47bd 0cb9 80bd
000000d0: 95a9 7fbd a53f 11bd 74d2 93bd 2803 3ebd
000000e0: 0694 0b3d efce b73d fc34 a4bd 578a 7c3c
000000f0: 9893 96bd b28d 883d d21d 463c 467b 333d
00000100: b586 d63b 4b0e b1bc 187b a4bd bc79 a53d
00000110: 1f60 d13c 0807 1dbd 3e41 893d f46c 0abe
00000120: 5600 fdba 85a2 193d 7684 313d b830 2e3d
00000130: d722 8abd c934 16bd 3855 bcbc 5358 503a
00000140: b78a 0dbc 9032 fbbd 54ab a23d de7d c43c
00000150: f2dc 093d c1f3 483d 2ab6 01bd aaf8 653d
00000160: 983a 1b3d 20ce 84bd 095b 02bd 3eb1 aa3d
00000170: 5d59 57bc c048 9f3d 1e25 9fbd 2bf3 86bb
00000180: e5dd 40ba 37b6 1cbd 0b5e 983c c91d cbbc
00000190: 7c5f 103c a0ea c93b b832 4b3d e26a a33d
000001a0: 0ea3 52bb 0750 a3bd 2549 ab3d 2f9d d23d
000001b0: b8ac d43c d837 0a3d 984e b13c 5844 92bd
000001c0: 37c8 3a3b d346 2c3c 7324 acbc 24cf c13c
000001d0: cc94 163d f769 663d 157e d03a f837 2a3d
000001e0: 8ad7 a63d 862e 7abc e30a 4e3d b2db c93c
000001f0: c5d6 493d da89 90bd 0dc5 ca3d 56d8 a63c
00000200: f4ea 0d3e 0db1 823d 805b b13d 8a2a a5bd
00000210: b2d7 233d 5eb9 873d 3d5e 143d 8c57 ec3c
00000220: f669 8e3d b3ee 7fba 3249 083d dbeb 55bd
00000230: 45cd 8a3d d7e3 2c3d 66fc 13bc 0106 a9bd
00000240: e85f 2f3d 1428 d0bc 5dcd ec3d 445b 9abd
00000250: 0183 a93b f670 0dbd c402 1e3b e6be ce3d
00000260: 6121 01be 2fdf 783d b119 28bc 62df 20bd
00000270: 494f a73d 942c 913c 6724 d93b 41f2 05bd
00000280: e940 2b3d 6a98 c93b a3f4 313d c8a0 04bc
00000290: 35df 3dbd 3bd7 8ebc 0e7f 243d 4504 a2bd
000002a0: 5139 54bd c529 bdbc 0130 b23d baea 933d
000002b0: 5c03 913d 9a2f ebbc 6b4b 0a3d 03d5 0ebe
000002c0: e4aa 773d 8197 9d3d a41e 66bd 7538 e5bd
000002d0: 1fb0 ae3c 237c 133d 375e 91bd 95b2 81bd
000002e0: d28c b13d 3a2a a53d 7168 26bd 6472 b23d
000002f0: cb60 bf3c 4691 dcbc 0b35 7d3d 979f 9d3d
00000300: a5ae 3dbd e8b8 703d 2589 46bd 270d b03c
00000310: 1247 823d ddc9 6e3b 5955 a3bc bae2 6939
00000320: 31f6 86bd 9e1e fd3c cf23 e7bb 3ad3 efbc
00000330: 8d1c f43d b11e 21bd 2eea 29bd 5b1e b2bd
00000340: 0cd3 e33d 6e3a 5dbd 5999 3c3d 7d50 bfbc
00000350: bd4d 923d 0eae cb3d a0ea 90bd 42f2 df3c
00000360: 08b7 b13d b4ee 393b 18e4 033d 2b8f c1bb
00000370: 8ef8 13bd c5c4 da3b 494c 933b 12ac 8c3d
00000380: f7b8 adbd be4e 06bd 4d99 093d 1750 63bb
00000390: 9374 453d 73c6 74bd 13a3 123d e9cf 653d
000003a0: 6dc9 c43c 0c87 34b8 8e49 bb3d 7f2d 0ebd
000003b0: e922 bfbd 3883 9b3d 5ab5 293c 3e85 90bd
000003c0: c5ce a73c 73e1 cd3c 375f c6bd 37ff 4abc
000003d0: 545c 273d 7a19 74bd 6730 b23c 3e75 c7bb
000003e0: 2409 633c 88d8 823d 8283 dabd e31e ae3d
000003f0: d487 053d bee2 51bc a6ff 29be b152 ef3d
0.12824005 0.0056005586 0.003137557 0.09978574 -0.0003916097 0.05075579 0.002464314 0.13457483
0.04414707 0.037197854 0.0010825837 -0.036092505 0.055961963 0.028014235 0.06702776 -0.030519776
-0.07462026 -0.07083464 -0.015854087 -0.075744845 -0.037705086 0.09145645 0.015209795 0.06651452
-0.033037063 -0.0225857 -0.019817537 -0.036479946 -0.05352337 0.04812953 0.0047634863 -0.029253649
0.06438668 -0.032547303 -0.12858842 -0.06895483 -0.013018293 -0.055495966 -0.039605968 0.042250216
-0.016374886 0.07037102 -0.18309778 -0.051329345 -0.13191952 0.083322145 -0.015829803 0.10532431
0.05162839 -0.023199331 -0.04864067 -0.06285295 -0.062417585 -0.035461087 -0.07217875 -0.04638973
0.034076713 0.08975016 -0.080179185 0.015413842 -0.0735237 0.06667651 0.012092071 0.043818735
0.00654682 -0.02161326 -0.08031291 0.080798596 0.02555853 -0.038336784 0.06701897 -0.13518125
-0.0019302468 0.037508506 0.043339215 0.04252693 -0.067449264 -0.036671434 -0.022989854 0.00079477316
-0.008639029 -0.122655034 0.079428345 0.0239858 0.033657975 0.049060587 -0.031667866 0.056145348
0.037897676 -0.06484628 -0.0318251 0.083345875 -0.013143864 0.07777548 -0.077707514 -0.0041183433
-0.00073572836 -0.03825971 0.01859953 -0.024794476 0.008811828 0.0061620027 0.049608916 0.07979371
-0.0032140645 -0.079742484 0.083635606 0.10283887 0.025961265 0.033744663 0.021643922 -0.07141942
0.0028500685 0.010514933 -0.021013474 0.023658343 0.036762998 0.0562534 0.0015906716 0.041557282
0.081465796 -0.015269881 0.05030335 0.024640892 0.049277086 -0.07057543 0.09900866 0.020366829
0.13859159 0.06381426 0.0866003 -0.08064754 0.040000625 0.06627153 0.036222685 0.02885034
0.06953804 -0.0009763047 0.03327293 -0.052226882 0.06777433 0.042209473 -0.009032344 -0.08253098
0.042816073 -0.025409736 0.115626074 -0.07536939 0.0051730876 -0.034531556 0.0024110535 0.10095005
-0.1261039 0.06075972 -0.010260032 -0.039275534 0.08169419 0.017721452 0.006626654 -0.032701734
0.04180995 0.0061522024 0.043446194 -0.008094974 -0.046355445 -0.017436614 0.04016023 -0.079109706
-0.051812474 -0.023091206 0.08700562 0.07222505 0.07080719 -0.028709222 0.03376333 -0.13948445
0.06046571 0.07694913 -0.056181565 -0.11192409 0.021324215 0.036007058 -0.07098048 -0.0633289
0.086694375 0.08064695 -0.040626947 0.087132245 0.023361584 -0.02692474 0.061818164 0.07696455
-0.046309132 0.05877009 -0.048470635 0.021490647 0.06361212 0.0036436238 -0.019938158 0.00022305074
-0.06589926 0.030898388 -0.0070538293 -0.029275525 0.11919508 -0.03933591 -0.041483097 -0.08697196
0.11124238 -0.0540108 0.04604468 -0.02335381 0.07143734 0.09945308 -0.07076001 0.027337197
0.086774886 0.0028371038 0.03219995 -0.0059069595 -0.036125712 0.006676289 0.004495178 0.06868757
-0.08482545 -0.03278994 0.033593465 -0.0034685188 0.048206877 -0.05975957 0.03580005 0.05610648
0.024021829 -4.3041116e-05 0.09144889 -0.034711357 -0.093328305 0.07593387 0.010358179 -0.07056664
0.020484338 0.025131917 -0.096861295 -0.0123899495 0.040859535 -0.05959461 0.021751596 -0.0060869744
0.01385716 0.06388956 -0.106696144 0.08501985 0.03260024 -0.012810407 -0.16601428 0.11685694

rnn.weight_hh_l0 f4 [351, 117]
00000000: fd1e f23d ddad 6e3d 9920 a23d 3d6f 69bd
00000010: 36e3 a63d 4e32 113d d827 87bd f772 49bd
00000020: 40b8 54bd 9e7f ea3c 3662 dcbd e6a9 8b3d
00000030: 4167 80bd cc2a 963d 4c4b 1a3d 7ae6 203d
00000040: 877f 673d b730 01bd faee 583d 84d3 413d
00000050: 3bda 9b3d 16e6 e63d 4ec0 113d 51fc 5e3d
00000060: 873a 113d 1906 4c3d bae7 203c e225 c33c
00000070: dcaa c7bd 7e05 3ebd 07fa ab3d eb65 e93d
00000080: 4b81 953c b1f2 8abd 828d 72bc 7f30 cebd
00000090: f9c5 f53d 149e d5bc f148 a83d 9ee8 69bd
000000a0: d5ee aebd d2fd 2a3d 2fc0 bfbb 3e8c 943c
000000b0: ef9c f0bc e4c0 623d dccc 9d3d 6a98 b0bd
000000c0: ca6d b939 d01d 9fbd 04cb 3bbd 8ade ebbd
000000d0: a3e7 ca3d 9d91 00bb 3250 2cbd 8ae6 e2bd
000000e0: d7a5 673d b06e 68bd b657 5cbd 9f02 9c3d
000000f0: d683 98bd dcfe 193d 3663 a1bd 2198 c33c
00000100: ec6c c2bc 6552 a33c 777a 523d ecaf 0ebd
00000110: c979 9cba 12c1 9a3c 854b 193d 45ba a7bd
00000120: 32df c1bc e254 4b3d 22b1 d0bc 65bf 34bd
00000130: 6d64 e8bb 4763 ac3c 18e7 37bd 70f8 263c
00000140: 3fca bc3d 48a1 02bd 346c 943c 09fa 5d3d
00000150: b0b3 8bbd be9e bfbc bc4a 85bd d211 683b
00000160: 4904 1b3d 2e0f 09bd 8d42 5c3d 3b9e 3b3c
00000170: 692b 5a3d b061 743c bb11 9ebd 812a 8a3c
00000180: e032 4bbd 6a0c 8b3d c95d 8b3d 6e68 40bc
00000190: fee5 6ebd 8685 70bd bc1b 113c 3c0e 9b3d
000001a0: b061 093b ca80 a1bc 27d7 61bd 0010 8abc
000001b0: 665a 0c3e 755b 9c3d 11c8 f8bd 0840 a9bd
000001c0: be8e a03c 97d7 b4bd 5e6e a8bd 7263 083d
000001d0: e6a8 1cbd f4a2 b0bd 8469 b4bc c495 9c3d
000001e0: d4ba 193d 5d8c 7bbd 9aab 683d 7aaa 9f3d
000001f0: 0e49 2dbd 4a2c b5bb 87fd 8bbd a7d4 b63d
00000200: 95ce 32bd 93f9 c4ba a5ab 1fbd d3b0 afbc
00000210: 837e b83b 95b9 713c e7ea 6c3d 2ff1 e1bc
00000220: 68b5 24bc 7139 58bd 287e 6e3d b8a8 5cbb
00000230: 2df1 62bd 58b4 bf3d e81a c3bd 3430 223d
00000240: 7568 3b3d 2872 193d 954a fdbc 1a6c 9bbc
00000250: 4c65 663d c1f6 52bd 98eb 18bd c428 bf3d
00000260: 5e36 a8bd 79f0 85bd 806d a23d 3418 98bc
00000270: c94e db3c 55f0 9bbb 38a6 69bd 56e2 37bd
00000280: 846d 373d 6e99 183b 6d32 b53d 7e01 b1bd
00000290: a876 56bd 8081 3fbd a74f 493d 2e32 b33d
000002a0: 4c11 1b3c 33ff fcbb 35e3 933b 4e07 b53d
000002b0: 5954 b9bd a148 5ebd bbfe be3c 4db8 c6bd
000002c0: baf1 70bc 94b9 cabc e9cb 91bd 4593 86bd
000002d0: cbc6 6c3c 0d07 5fbd cacf b43c 81c0 57bd
000002e0: e0d1 9ebd 0161 2e3c 5222 0fbd add9 6abd
000002f0: 3fff 283d d249 5c3c 630f 92bd 7fca bebc
00000300: 98c6 1e3c 07a9 92bd 1f56 11bd 3598 81bc
00000310: 555b bb3d e0a9 e53c 4326 c7ba b53c 72bd
00000320: 5235 a53d 7b91 a5bc 5d40 32bc bd45 dfbc
00000330: 2b22 18bd b4d9 2abd c6e2 993d 36cd d33d
00000340: 05c7 b1bd eb88 a1bd 8b06 a03d e3d1 50bd
00000350: 2434 ba3d a6e4 a23c 96bb 233d ff25 8abd
00000360: d8fd a3bc b8bf d23d d4fb 9c3b af42 863d
00000370: ac15 833c ea70 49bd 0c4b 8dbd 9110 8bbd
00000380: 1143 0b3d dd67 943d e100 79bd d28d 553c
00000390: 1208 9bbd b0fd e03c d54b a13d 3c6a 3fbd
000003a0: 139f 11bc 60e8 84bd 8ef0 0a3e f824 75bd
000003b0: 139a 913c 30de 543d 7d6b 71bd 3ca7 0d3d
000003c0: c71c a1bc 9543 f1bc 1032 903d 1cb8 813d
000003d0: af40 a5bc e9fe b0bc 0843 833d c393 a73d
000003e0: f32e 74bc 9726 52bd 86a1 88bd e87f 8fbb
000003f0: 54c2 e4bc 03a3 84bd 0dca a43d deb8 b6bd
0.11822317 0.058271278 0.07916374 -0.05699085 0.08148806 0.035448365 -0.065993965 -0.049181905
-0.051933527 0.028625306 -0.1076092 0.06819515 -0.06269694 0.073323816 0.037669465 0.0392823
0.056518104 -0.0315406 0.05296228 0.047320858 0.076099835 0.11274354 0.035583787 0.054439846
0.035456207 0.049810503 0.009820873 0.023821775 -0.09749386 -0.046391957 0.08397298 0.113963924
0.018250128 -0.06784571 -0.014804246 -0.10067844 0.12000651 -0.026076354 0.082170375 -0.057106607
-0.08541647 0.04174597 -0.0058517675 0.018133279 -0.029371707 0.055359736 0.077050894 -0.08622821
0.0003536775 -0.07769358 -0.045847908 -0.11517055 0.099074624 -0.0019618042 -0.042068668 -0.11079128
0.05655464 -0.056746185 -0.053794585 0.076176874 -0.07447021 0.03759657 -0.07880251 0.023876252
-0.023733579 0.01993675 0.051386323 -0.03483574 -0.001193815 0.018890891 0.037425537 -0.08189825
-0.023665998 0.049641497 -0.025475089 -0.04412784 -0.00709205 0.021043433 -0.044898123 0.010191068
0.09218263 -0.03189209 0.018118002 0.05419353 -0.06821382 -0.023391124 -0.06508395 0.0035411012
0.037845884 -0.033461742 0.053774405 0.011451299 0.053264055 0.014915869 -0.077182256 0.01686597
-0.049609065 0.06789477 0.068049975 -0.011743648 -0.058324806 -0.058721088 0.00885671 0.07571074
0.0020962767 -0.019714732 -0.055136826 -0.016853333 0.1370636 0.076346315 -0.12147535 -0.08264166
0.019599315 -0.08830183 -0.08224176 0.033297963 -0.03824701 -0.08624831 -0.02202297 0.07645753
0.03753169 -0.061413158 0.056804277 0.07796188 -0.042306 -0.0055289613 -0.06835466 0.08927279
-0.043654043 -0.0015027992 -0.038982052 -0.021446621 0.0056303157 0.014753719 0.057841208 -0.027580826
-0.010053016 -0.052789155 0.05822578 -0.00336699 -0.055405784 0.0936057 -0.09526616 0.03959675
0.045753915 0.037462384 -0.030919353 -0.018972445 0.056248948 -0.051504854 -0.037334055 0.09333947
-0.08213495 -0.06540007 0.07931042 -0.018566228 0.026770966 -0.0047588744 -0.057043284 -0.044893585
0.044782177 0.002328481 0.088475086 -0.08642863 -0.052359253 -0.04675436 0.049148228 0.087498054
0.009464573 -0.007720852 0.004513169 0.08839284 -0.09049291 -0.054268483 0.023314824 -0.09703121
-0.01470607 -0.024746694 -0.07118971 -0.06571058 0.014451693 -0.054450084 0.022071738 -0.05267382
-0.07754874 0.010643245 -0.03494484 -0.057336498 0.041259047 0.0134453345 -0.07131841 -0.023289917
0.009690903 -0.07161146 -0.035482522 -0.015819648 0.091482796 0.028035104 -0.0015193898 -0.059139926
0.08066811 -0.020210972 -0.010879603 -0.027254933 -0.03714196 -0.041711524 0.07513957 0.10341875
-0.08680538 -0.07887443 0.07813748 -0.050981414 0.09091976 0.019884419 0.039973818 -0.067455284
-0.020018503 0.10290474 0.0047907624 0.06555688 0.016001545 -0.04917995 -0.0689908 -0.06790269
0.033999506 0.07246373 -0.060791854 0.013034301 -0.07569899 0.027464718 0.07875792 -0.046732172
-0.008888024 -0.064896345 0.13568327 -0.05984971 0.017773664 0.051969707 -0.0589404 0.034583315
-0.019667042 -0.029451171 0.07040799 0.06333944 -0.020172445 -0.021605926 0.064092696 0.0818248
-0.014903772 -0.051306333 -0.06671433 -0.0043792613 -0.027924694 -0.064764045 0.08046351 -0.08921979

rnn.bias_ih_l0 f4 [351]
00000000: 9d97 023d d032 84bd 5e41 a7bc d45b e63c
00000010: 0e2f 933d 0690 07bd eed2 4a3d edd8 9c3d
00000020: 7bbf a53a 1200 d1bc 7ed6 263d ebee 94bd
00000030: 3f11 603d 4f1d 65bc c0c3 02bc 45af b23d
00000040: 0e8f bd3d e422 503d 9114 603d 6f03 eabc
00000050: 853d 063c 91ae c43d 8ad2 a8bc 9005 96bd
00000060: af83 dd3d e78e 853d 6312 fd3c 7099 4bbb
00000070: a668 3ebd 9554 ff3d d102 a53d d0db 8d3d
00000080: 5036 253d 944d b03d 1d58 8e3d 3319 0d3e
00000090: 81d8 72bc f95a 253d 8ad2 df3c 1bd1 af3d
000000a0: e745 9f3d 523f 983d 47d6 9a3d bca6 4dbc
000000b0: 28eb 9f3d d59f 013e 2400 523d c64c 82bd
000000c0: 1f10 f3bc 283f 8bbd 874d e03c 2c50 94bd
000000d0: 93af 923d ce18 2ebd bbb7 b3bc 2804 ce3d
000000e0: 84ba 6e3d 39c1 90bd f972 9cbd 1ee3 8b3c
000000f0: 59a4 073d 7b5a d3bc 99de 213d b3bc 49bd
00000100: 1882 193d a501 bb3d d32a ab3d 68fc cc3c
00000110: c11a 263d 4472 fa3d 573a c93d 3001 26bd
00000120: 457c e13c 1c0b 643d 3ffe 3ebd e2c4 b0bc
00000130: a532 ab3b a300 6bbd 4f42 9a3c 7f57 023c
00000140: 3a56 8f3d e50b 2ebd a184 f83d 7652 623d
00000150: e547 ca3d a3f6 503d 658b 6dbd 8507 cf3d
00000160: 1659 7ebd ac1a 8abd 3394 963c 1df3 6abd
00000170: 2673 8a3d 9b02 1f3d 7eb3 b53d d94c c9bc
00000180: 4010 bd3d af88 86bc 77c4 0a3d d1ce 8ebc
00000190: 0d1d ac3d df33 9a3d 2312 95bc d67a bfbc
000001a0: 2cc2 1fbd bc27 edbb f340 973d 121b 553d
000001b0: 3b6e 0b3d 1210 db3d 5d41 3abd d059 7c3d
000001c0: 44df 1abd 4efa 86bc d88b 6c3d 05cd a63c
000001d0: 5a9f 103d bf67 203e d41f 203e cd36 f93d
000001e0: d1b4 e13d ca61 36be fd8a 153e fea1 783d
000001f0: 6363 563e 1989 073e be71 293d 00c8 71bd
00000200: db7f b03d a830 a03d c30f 013e bd67 cfbd
00000210: e144 b8bd ce6b e83c 00f5 83bc e9b3 f23d
00000220: 5725 013e 5046 b23d 968e c63d 3371 7a3d
00000230: 0613 983d 52bf 9d3c 9885 703c 9765 d03d
00000240: c4db 283e 9346 d63d ffca a9bd 4a4d 6b3d
00000250: 2d77 8b3c 9a48 8a3d ca2e e43d fc55 c63d
00000260: 32e6 513e 2f30 c63d c981 bf3c 1cff a43d
00000270: 34d8 0a3e 1dcd ac3c 3f87 0ebd 030d e83c
00000280: 384a 573e 03f7 563e 3cd5 3d3b 1c98 823d
00000290: bd97 2d3e 3c1c 373e 660e 183d 5044 a93c
000002a0: 3906 a73b 61ab 983c f918 b23d 3b89 cd3b
000002b0: e9f8 053e 68e9 433e af30 d03d ad18 733c
000002c0: a8be 70bd 0cb5 1e3e 5382 6abc f6f2 093e
000002d0: e491 9c3d 54ec 27be 3c35 633d 7232 883e
000002e0: 9e12 debc eae0 b5bd c251 2a3d 779d 813d
000002f0: 1470 ac3d 49b1 353d 511e 4f3d b583 933d
00000300: 618c f2bc 7c64 dfbc 30d6 3cbd d3bb c83d
00000310: 73d0 503e 292c 8a3d 6b9f 593b d30a fc3c
00000320: 81f8 c53d a342 793e f917 b33c dffe d8bd
00000330: 2e51 b93d 3d26 b33b 20cf 20bd 80c2 0c3e
00000340: 2c3f 93bc c739 043e 23d2 373e feee e83d
00000350: fc0e aa3d 33b0 173e 13aa 813d 407b 253e
00000360: 17bb 443e 1430 d53d db9e 363d ad98 1d3e
00000370: a8af 603e c68c 543c 137e 293e 8aa5 2bbc
00000380: 8c35 0d3d e06d 313c cf08 933d 4e1d 993d
00000390: 8cf0 1d3e f265 4dbe 1766 3a3e 05c6 3b3d
000003a0: 1fd8 9b3d 8f37 1d3e b5db 93bd 951e 9abb
000003b0: dfa3 fbbc c36c 94bd 99cf d43d a389 613d
000003c0: 4f32 813d 7588 6bbd 7dcc 8e3b 0cfc 4fbd
000003d0: 9d1a 45bd 059c c53d 916c 2d3d 3c39 93bd
000003e0: 6302 27bd 3440 4e3d 6db0 e63c dc22 553d
000003f0: 1d6c a2bd 700a 343d 1ff2 f4bc 56fe 193d
0.03188287 -0.06455004 -0.020416912 0.028119959 0.07186709 -0.033096336 0.049517564 0.07658563
0.0012645567 -0.025512729 0.0407319 -0.072721325 0.054703947 -0.0139840385 -0.007981241 0.08724836
0.09255801 0.050814524 0.054707114 -0.02856609 0.008193378 0.096036084 -0.020608205 -0.0732528
0.10816132 0.06521397 0.030892557 -0.0031066798 -0.04648652 0.124673046 0.08057178 0.069266915
0.040335 0.08608547 0.069504 0.13779144 -0.014822126 0.04036996 0.027322073 0.085848056
0.07777005 0.074339524 0.075604014 -0.01255196 0.07808524 0.12658627 0.051269665 -0.063622996
-0.029670773 -0.067991555 0.027380718 -0.07241854 0.071623944 -0.042504124 -0.021938195 0.100593865
0.058283344 -0.07068104 -0.07639117 0.017076071 0.03311572 -0.02579998 0.039518926 -0.049252223
0.037477583 0.09131173 0.083577774 0.0250227 0.04055286 0.12228826 0.098255806 -0.040528476
0.027525077 0.055674657 -0.046629187 -0.021578256 0.005224543 -0.057373654 0.018830447 0.007955431
0.06998868 -0.042491812 0.12134672 0.055254422 0.09876994 0.05101646 -0.057994265 0.10108856
-0.062096678 -0.067433685 0.018381214 -0.057360757 0.06760244 0.038820844 0.08872126 -0.024572777
0.09231615 -0.016422598 0.03387877 -0.017432602 0.084039785 0.07529425 -0.018197125 -0.023374002
-0.039003536 -0.0072374027 0.07385435 0.05202777 0.03404067 0.106964245 -0.04547249 0.06160909
-0.03781058 -0.016476776 0.057750553 0.020361433 0.03530822 0.15664576 0.15637141 0.121686555
0.11020816 -0.17810741 0.14603801 0.060701363 0.2093635 0.13235892 0.04136824 -0.059028625
0.086181365 0.078217804 0.12603669 -0.101272084 -0.089975126 0.028371718 -0.016108036 0.118507214
0.126119 0.08704817 0.09695165 0.06114311 0.074255034 0.019256268 0.014680289 0.10175627
0.16490084 0.1046268 -0.082906716 0.057446755 0.0170246 0.06752129 0.11141737 0.09684369
0.20497969 0.09677159 0.023377316 0.08056471 0.13559037 0.0210939 -0.03479695 0.028326517
0.21024406 0.20992665 0.002896621 0.06376669 0.16952415 0.17881864 0.037123106 0.020662457
0.0050971773 0.018636407 0.086961694 0.0062724627 0.13083233 0.19132006 0.10165536 0.014837426
-0.058775574 0.15498751 -0.014313298 0.13471588 0.07645014 -0.16398746 0.05547069 0.26600987
-0.027108487 -0.088807896 0.041581877 0.06328862 0.08419815 0.044358525 0.05056602 0.072028555
-0.029607954 -0.027269594 -0.046102703 0.098014496 0.20392017 0.06746704 0.0033206593 0.03076688
0.09666539 0.24341826 0.021862017 -0.10595488 0.09048687 0.005467205 -0.03926003 0.13746071
-0.017974459 0.12912665 0.17951255 0.11373709 0.08303639 0.14813308 0.06331267 0.16160297
0.19211994 0.10409561 0.04458509 0.15390272 0.21942008 0.012973016 0.16552 -0.010476479
0.034474894 0.010829419 0.071794145 0.074762926 0.15423793 -0.2005842 0.18203007 0.045843143
0.07609581 0.15353225 -0.0721964 -0.0047033527 -0.030717788 -0.07247307 0.103911586 0.0550629
0.06308424 -0.057503182 0.004357873 -0.05077748 -0.048121084 0.09648899 0.042339865 -0.07188651
-0.04077376 0.050354198 0.028160298 0.052035198 -0.07930777 0.043955266 -0.029900609 0.03759607

rnn.bias_hh_l0 f4 [351]
00000000: 5c83 7b3d 6f9a 80bd e35c 9f3d 6ccd 173e
00000010: ddab 3abd 1c3d 863d 8ed3 f43d e42b 683d
00000020: d544 273d ca2f 0abd bb1f 83bc 584b 313d
00000030: 32cd 683c 1832 ce3d e588 353d 239b c63c
00000040: 5051 43bd 4905 53bd cea1 89bd ea92 913d
00000050: aa6b 76bc 8d8a c63d d992 1ebc 2ba7 8fbd
00000060: a7eb a13c 1eb8 d7ba d551 9e3d 979a 923d
00000070: d18e ab3d 7634 a33d e8cc 163d 0df3 553d
00000080: f9e3 cabc c1a9 373d ffa2 00bd f5f9 fa3a
00000090: dc8d f0bb f398 a33c 66dc e23d 5b6d a03d
000000a0: b354 7a3d 0619 873d 547f 283c a525 ea3c
000000b0: 64f6 903d 0d00 b23b 6c72 713c 9d6f 0cbd
000000c0: 79b0 933d 333f 4bbd 765c de3d 7455 cc3d
000000d0: d849 bd3d 2f07 80bb dabf a23d fa27 babc
000000e0: 4f88 3e3d d0e4 05bc 1d46 7a3d 87f9 813d
000000f0: 391e 4abd cecb 893c 30dd 5dbc 753f 25bd
00000100: 5ddd e33c 9cee 93bd 10a2 ba3d f288 c13d
00000110: 22b9 3fbc 2a99 f63d 12fe d33d cb01 ac3c
00000120: 816b 31bd 7c16 a63d f144 7cbd cef2 48bb
00000130: a0a5 ed3d 3901 96bd 1de2 8dbb fdd0 d03d
00000140: 851a f73c 675a ea3d 4ea2 23bd 231c 4c3d
00000150: 7c71 103d e5fe 17bd 2452 c23d 0542 5dbd
00000160: 2698 b93d 586e 93bc 46a2 8ebd 46be 8e3d
00000170: 8bd1 a53d 0ffc 3b3d 0a91 2bbb 1b57 af3d
00000180: 58ac 0eba c1a2 3bbd 19da 693d c8c4 9d3d
00000190: a446 8ebb a722 ad3d 60a6 10bc cd4e 753d
000001a0: 9aff 3d3d bb35 acbc 230b 18bc 1aa6 bf3d
000001b0: a827 4ebd 9ccf ed3b b3e7 913c cd22 e33c
000001c0: 024a b33d afb2 ae3d 27cb e7bc ef4a 2f3d
000001d0: ea71 d73d 72b1 2e3c da5a bb3d 4312 973d
000001e0: baf6 323e 7fd4 87bd 89f5 2b3e 27b8 993d
000001f0: 584a f63d 290e af3d 534d 043e 1dad 6abd
00000200: 6a9b 0d3e a680 0e3e ece0 97ba 7b61 dbbc
00000210: 1881 59bd dbc6 fc3d 80a3 debd 2c6c 273e
00000220: 4eb6 c93d 239f 473c ad56 183d 364c 5d3d
00000230: ffee 813d 6738 4a3d 09f8 a63d 2f34 a73d
00000240: 431f 873d 41f3 a13d 2cb4 f7bc 7769 f93d
00000250: 5898 e03d ea01 403e 5296 443c 1a71 513e
00000260: a31e 133e ed30 ebbc 2ac0 fc3d c16c 6f3d
00000270: 2621 f53d 071c 0d3e c5a3 2fbb b843 443d
00000280: 65af 473e 182f 7b3e f54f 213e 1b52 283e
00000290: a611 0c3e 5092 053e aa71 b83c eb7c 8f3d
000002a0: 15fe ed3d b65a e9bc e22e c53d 99c8 39bc
000002b0: 794e 353e 120f c83d df49 333e e0ce 5bbb
000002c0: 4305 bcbc e603 e83d 9d5b ca3d 056b 353d
000002d0: b112 0c3e b6e9 a1bd 53f9 953d a38a 933e
000002e0: 270e 18bd 0200 c4bd b9d4 353e 947d 163e
000002f0: fa50 fe3d c3fa 07bc d338 e83c 3ad9 a73d
00000300: e2dc 743d 0ee8 2c3d 6a05 16be 2906 e7bb
00000310: c086 233e d94e 31bd d29c 95bd d034 103e
00000320: 4ca1 203e c886 7f3e bdd6 c83d 4053 c6bd
00000330: d8ed 163e 6e84 ea3d 1767 723c fc03 083e
00000340: 602a a8bd 4cb7 c33d 8af1 903d cde4 4bbd
00000350: 97c6 6f3d 45d6 d53d 24ef bd3d 8bc2 f13d
00000360: 1b6e 9f3d 05e5 41bd 6388 f83c 5338 fd3d
00000370: 7a74 403e d3de f0bd b0dd 3a3e e8ff 753d
00000380: f216 3c3e 8f74 a4bc b75f bb3d 2aa7 033e
00000390: 8d1d f43d b841 14be 6746 0c3e 86ad b83d
000003a0: a25e 993d 7b6c 2c3e 8603 123c e2c4 0a3c
000003b0: 3b8b e63c f250 5e3d de7e 75bd 8df4 973c
000003c0: cc3a 34bc f608 8abb ecc4 1cbd 73a4 b8bd
000003d0: fdd0 e63c bb6e ac3d 90a8 9dbd f40a 21bd
000003e0: e0b8 56bc b9cb f83d e73f 81bd b7c8 c1bd
000003f0: c4fb ab3c 0097 f53c 85ab 52bd bb1c b8bc
0.06140457 -0.06279456 0.077813886 0.14824456 -0.045574058 0.065546244 0.11954413 0.056682482
0.040837128 -0.03373698 -0.016006341 0.043284744 0.014209079 0.100681484 0.044320006 0.024243897
-0.047684968 -0.051518712 -0.06720315 0.071081 -0.015040318 0.09694395 -0.009678566 -0.07014307
0.019765688 -0.001645807 0.07730452 0.07158392 0.083768494 0.079689905 0.036816508 0.052233744
-0.024766909 0.044839624 -0.031405445 0.0019147979 -0.0073411297 0.019970393 0.11077194 0.07833358
0.06111593 0.0659657 0.010284264 0.028582403 0.07078245 0.005432135 0.014736753 -0.03428613
0.07211394 -0.04962082 0.10857479 0.099772364 0.092426 -0.0039071064 0.07946749 -0.02272414
0.046516713 -0.008172229 0.06110202 0.06346422 -0.04934523 0.016820814 -0.013541505 -0.04034372
0.027815515 -0.072232455 0.09112942 0.09449948 -0.011701854 0.120409325 0.103511944 0.020996949
-0.043315414 0.08109757 -0.061589185 -0.00306623 0.11603856 -0.07324452 -0.0043299333 0.10196111
0.030164013 0.11443024 -0.039949708 0.04983152 0.035264477 -0.03710832 0.09488323 -0.05401804
0.09062223 -0.017996952 -0.06964545 0.069698855 0.08096608 0.04589468 -0.002617898 0.08561536
-0.00054425513 -0.04580951 0.05709276 0.07703549 -0.004341917 0.08453875 -0.008828729 0.059889603
0.04638634 -0.021021714 -0.009279999 0.09357853 -0.050330788 0.007257415 0.017810678 0.027726555
0.0875435 0.08530175 -0.028295113 0.04279607 0.10519774 0.010662423 0.09148188 0.0737653
0.17476931 -0.06632327 0.16792883 0.075058274 0.12025899 0.08547623 0.12920122 -0.057294
0.13828817 0.13916263 -0.0011587418 -0.02677988 -0.05310163 0.12342616 -0.10871029 0.16349858
0.09849225 0.012183937 0.037192035 0.05402776 0.06344413 0.049370196 0.08152778 0.0816425
0.065977596 0.07907725 -0.03023728 0.12178319 0.10966557 0.1875073 0.01199873 0.20453301
0.14367156 -0.028709853 0.1234134 0.058453325 0.11969213 0.13780223 -0.0026800495 0.047916144
0.19500501 0.24529684 0.15753157 0.16437571 0.13678607 0.13044095 0.022515137 0.07006248
0.11620728 -0.028485637 0.09628083 -0.01133933 0.17705716 0.097684994 0.17508648 -0.0033540055
-0.022951728 0.113288686 0.09880755 0.044291515 0.13679005 -0.07905905 0.073229454 0.2881671
-0.03712287 -0.09570314 0.17756929 0.14696342 0.12417789 -0.008299532 0.028347408 0.081957296
0.059780963 0.042213492 -0.14650503 -0.007050295 0.15969372 -0.043288086 -0.07305302 0.14082646
0.1568653 0.24953759 0.09806583 -0.096838474 0.14739168 0.1145104 0.014795086 0.1328277
-0.082112074 0.095564455 0.0707732 -0.04977875 0.058539 0.10441259 0.09274128 0.11804684
0.07784673 -0.04733755 0.030338472 0.123642586 0.18794432 -0.1176125 0.1824863 0.060058504
0.18368128 -0.02007511 0.091491155 0.12856737 0.11919699 -0.14478195 0.13698731 0.09017472
0.07488753 0.16838257 0.008911973 0.008469792 0.028142562 0.054276414 -0.059935443 0.018549228
-0.011000346 -0.004212494 -0.038273737 -0.09015741 0.028175825 0.08419558 -0.07698166 -0.039317086
-0.013105601 0.12148232 -0.063110165 -0.094621114 0.020994075 0.029979229 -0.051433105 -0.022474637

logit.weight f4 [1, 117]
00000000: 2971 8e3d 84a9 a0bd 9a1f a43d 7078 a3bc
00000010: cf14 383d 0f1c 5dbc a5de 573c dd84 043d
00000020: 474f cd3c c7c9 2f3a f402 86bd 988a 24bd
00000030: 86ac c6bd f4fc 9dbd e622 863d db38 103d
00000040: 9ec9 993d f037 6fbd e1cb 0b3d df80 0bbd
00000050: 2d52 6f3d 2b8c 3d3d 3e75 603d 390f 9bbd
00000060: 041a ef3a f01d aabd 5d85 eabc a738 c1ba
00000070: db9a aabc ee58 273d 45f0 c63d 9a85 513c
00000080: 1608 8cbd 67e8 7fbd ae2d c63d c9dc 013b
00000090: f2f6 193d 1ac4 83bd c4a9 36bd 27c7 b8bd
000000a0: 8b27 883d d308 b73c 4ee7 1ebd 20ce 1dbd
000000b0: 63fb a3ba d216 88bc 937e 33bd 0cc1 a9bd
000000c0: 7668 803d 0ddb 1cbd 2099 8c3d 78d4 e0bc
000000d0: f869 803c 95de a93d 0e2c c63d 8c50 b83d
000000e0: 3331 7e3d 9bb4 633d be1f 47bd 920c 37bd
000000f0: 18d5 a33d b8c4 673d 34ee 8d3d 367e 6c3d
00000100: 5e7c 83bc 30ad 863d ae76 52bd 5dbb 02bd
00000110: 9717 913d 254a 403d c562 89bb 5623 bf3d
00000120: 5c13 873d 2139 33bc fd88 8f3d 6840 be3d
00000130: 0cb1 863d babd 593d d0bf b83d c4a0 a53d
00000140: 8b54 133c 92bb 973d 342f c4bd 58e6 5c3d
00000150: 3162 09bd e688 2b3a 2550 86bd 0dcf 9cbd
00000160: 5a52 ae3d 0b7d b13d 7969 6a3c 05c7 b23d
00000170: 52d1 04bd 0059 6b3d 8428 803d 3f07 5d3d
00000180: bbb6 02bd 4ecb a8bd b3e3 653c 8c7b 563c
00000190: 3ba4 7a3d 2bca 6c3d f137 ff3b f2c7 153d
000001a0: 39ec 11bd 726c 7c3d b469 bcbd 5480 933a
000001b0: 407c 7c3d e77d babc 769d 84bc d38b cebd
000001c0: 3fce 4e3d 2624 d2bc 906b a93d a36e 883d
000001d0: 48e4 303d
0.06955177 -0.078448325 0.0801384 -0.01995489 0.04494172 -0.013495459 0.013175641 0.03235327
0.025062216 0.00067057874 -0.06543532 -0.040171236 -0.09700875 -0.077142626 0.06549625 0.03521047
0.075091586 -0.058402956 0.03412998 -0.034058448 0.05842798 0.046276253 0.05479931 -0.07571263
0.0018242006 -0.083064914 -0.028628046 -0.0014741615 -0.020825794 0.040856294 0.097137965 0.012788201
-0.0683748 -0.062477496 0.096766815 0.0019815436 0.03758902 -0.06433888 -0.044595495 -0.0902236
0.06648167 0.022343075 -0.038794808 -0.038526654 -0.0012510832 -0.016612444 -0.043821882 -0.08288774
0.06269924 -0.03829484 0.06865144 -0.027445063 0.01567553 0.08294407 0.096763715 0.08999738
0.06205864 0.05559216 -0.048614256 -0.044689722 0.07999629 0.05658409 0.06930199 0.05773755
-0.016050514 0.06576002 -0.051382713 -0.031916965 0.070845775 0.04694571 -0.0041926824 0.09332912
0.065954894 -0.010938914 0.0700855 0.09289628 0.06576738 0.053159453 0.0902096 0.08087304
0.008992325 0.07408823 -0.09579316 0.05393061 -0.03354091 0.0006543532 -0.06558255 -0.07656679
0.08511801 0.08666428 0.014307373 0.08729366 -0.032426186 0.057457924 0.06257728 0.05396199
-0.031912547 -0.08241902 0.0140313385 0.013090979 0.06119178 0.05780999 0.007788651 0.036567636
-0.03562567 0.06162686 -0.09199849 0.0011253455 0.06164193 -0.022765113 -0.016188364 -0.10085263
0.05048966 -0.025652003 0.08272469 0.06661727 0.043186456

exp_avg f4 [351, 52]
00000000: 3a3c 0bb8 9087 fbb8 e087 0ab8 0f3e 0fb8
00000010: 2147 9239 9456 6839 1972 f3b8 88f2 5fb8
00000020: 72f2 9538 c637 a6b9 e494 0c38 2a2f db38
00000030: c11a 05b8 af8d c936 7084 a1b9 7ccc 1db9
00000040: 6f89 ad39 cdfa 09b9 6dee 8238 e57f f5b9
00000050: 3d1d 9ab9 4dcb 26b9 df79 1ab9 62ff 2eb9
00000060: 6c0e 75b9 b088 26b9 5693 b238 16f7 55b9
00000070: 87e9 0e3a 4d5f 9639 cf0d e839 1644 04b9
00000080: 6ce0 38b9 3d89 8438 a64a 1738 4edb 9538
00000090: a8ea 4a38 74ca 8739 ade7 8e38 e0dc cc38
000000a0: 7d92 b9b6 6508 6fb9 77d0 55b8 ac18 68b9
000000b0: 14c7 c3b7 1d23 edb7 9f64 9cb7 d319 bab8
000000c0: 69b6 f3b9 cb69 c139 3051 0a38 93e5 cfb9
000000d0: 057c 3d38 91bb a9b8 ee00 98b8 4862 9fb8
000000e0: 4f19 3439 77ad 4639 f66d 53b7 82d3 2837
000000f0: c34a 04b7 0409 26b9 3be4 3338 d4b4 6737
00000100: 0f87 47b7 4dfa 4838 8ad9 acb8 759f 99b8
00000110: 65d2 3838 2583 2939 7118 fcb7 ac43 6cb9
00000120: a8f6 44b8 5871 7d36 1a59 75b9 23b7 8cb8
00000130: 8912 8ab8 f625 a7b8 7b69 da37 136f 0939
00000140: 4c3b 5939 36c2 cf38 ceeb 3139 bacd d636
00000150: c00f 9fb8 5027 5d38 807e 45b7 b69d e338
00000160: a382 ca38 81d2 9b38 fbfb 1538 5699 7e38
00000170: 2414 a638 6138 05b8 52ee 28b9 5107 cc38
00000180: c1c6 a1b8 a5a0 b637 6f3f 96b8 3ce8 3db9
00000190: 6448 4db9 080b da38 68ec 5d37 8d2f ffb8
000001a0: 5426 4537 371b e0b7 3d76 9b39 1b9d 4939
000001b0: e080 6bb8 9427 31b8 d968 4b38 67b2 9637
000001c0: 7cf1 8fb8 98b4 b637 7166 b3b7 9eeb 8838
000001d0: 6429 5db7 f87e 1eb7 5c89 9038 725e 32b8
000001e0: 8f23 a537 38e3 deb8 e732 7a38 545d d3b6
000001f0: 190d eb37 5dcc 67b8 3c4b b838 3c14 d038
00000200: 053c 2ab8 0d92 1538 0bd9 64b8 3a64 09b9
00000210: 735e 5938 ee20 57b9 9a81 1939 4804 0638
00000220: 6bb2 3936 a51b 95b7 ad96 db37 d89d 37b8
00000230: 5087 c037 c240 99b8 8bb7 c438 d1fe a538
00000240: 167c 7ab6 a6b0 1436 15c7 49b8 1c6e 31b9
00000250: 82cd 9138 ceb3 ce34 d28e b638 9dfe 2138
00000260: 815d 80b7 998c bcb8 9b14 f9b8 b69f eeb6
00000270: 6f29 e0b7 c993 cd34 2510 df38 c33c af38
00000280: 2a5a 95b7 bec3 1eb7 e8c9 3437 d62e 4ab6
00000290: 97c7 c1b7 bd4a 6338 b0a7 4ab7 ee36 06b8
000002a0: a25c 55b5 633e c836 a721 4838 4f5f 2838
000002b0: 74b6 a837 c1e2 ddb5 1921 ac37 7206 9eb7
000002c0: 7602 45b7 96ec d636 3d04 15b8 7bb3 4fb7
000002d0: 0310 9935 66d5 20b5 91b5 00b6 d16b c8b7
000002e0: 3346 3435 ff1d e0b7 b01e 8b37 41b5 d337
000002f0: 72d8 4238 1556 5138 9108 a737 2997 bcb7
00000300: 0ce8 94b6 6c7a 91b7 76cd 6f38 3d3b 5235
00000310: 9b58 14b8 8324 8fb7 58df 2437 2d8d fb34
00000320: 0e2c 6a37 a389 7835 83a5 b937 caf2 f237
00000330: b8d0 ebb6 fec7 0737 54c7 b6b7 2983 8c37
00000340: dbe6 c0b7 c86e 75b8 2396 b637 ebb9 f537
00000350: 0256 ca38 01b1 b738 6173 d6b5 fdf6 80b7
00000360: 5ae3 9f37 36f9 feb6 ab04 b435 71ed c7b6
00000370: 4ad9 10b8 e219 93b7 85c6 5db8 61b8 b835
00000380: 16f5 5338 e01f cbb8 92bc 42b7 4d85 08b9
00000390: facb 69b8 119a 51b7 067e c5b8 dbaa a037
000003a0: efa3 9036 16fe 8733 4b76 bfb5 fa3f e1b8
000003b0: b882 6f39 afdc 2ab8 069c 8e39 d2d1 4a37
000003c0: d9de 0438 b036 b238 731e ddb7 8aaa f137
000003d0: ad22 b038 f2a5 2f38 5717 b538 279d 55b8
000003e0: d712 3c37 93ab dcb7 82ab b3b8 4f1a cbb8
000003f0: fbd9 0437 37c4 ceb6 128e 0fb8 4aa1 29b8
-3.3196273e-05 -0.00011993863 -3.3028307e-05 -3.4151653e-05 0.00027900285 0.00022157497 -0.00011608395 -5.3393218e-05
7.1500326e-05 -0.00031703542 3.3517266e-05 0.00010451519 -3.1734588e-05 6.006761e-06 -0.00030806987 -0.00015048863
0.00033099527 -0.00013158769 6.243293e-05 -0.0004682533 -0.00029394953 -0.00015906729 -0.00014731985 -0.0001668907
-0.00023370393 -0.00015881914 8.515145e-05 -0.0002040531 0.00054516684 0.00028681234 0.00044260776 -0.00012613865
-0.00017631211 6.319813e-05 3.6070727e-05 7.145722e-05 4.8379094e-05 0.00025900046 6.8142406e-05 9.768619e-05
-5.530483e-06 -0.00022795943 -5.0977305e-05 -0.00022134435 -2.3338514e-05 -2.8268953e-05 -1.8643505e-05 -8.873981e-05
-0.00046484478 0.0003689065 3.2977376e-05 -0.00039653163 4.5176614e-05 -8.093485e-05 -7.248098e-05 -7.600017e-05
0.00017175566 0.00018947372 -1.2602182e-05 1.0062826e-05 -7.88522e-06 -0.00015834352 4.2889482e-05 1.3810775e-05
-1.189277e-05 4.7916827e-05 -8.242119e-05 -7.32531e-05 4.4064964e-05 0.00016165951 -3.0052122e-05 -0.00022531924
-4.6959758e-05 3.7765913e-06 -0.00023398214 -6.709832e-05 -6.583805e-05 -7.970251e-05 2.6036743e-05 0.00013106717
0.00020716822 9.906704e-05 0.0001696788 6.4016467e-06 -7.5846445e-05 5.272712e-05 -1.1771568e-05 0.000108535794
9.6564436e-05 7.430185e-05 3.5759043e-05 6.0701124e-05 7.919248e-05 -3.1762178e-05 -0.0001611051 9.728841e-05
-7.714099e-05 2.1770897e-05 -7.164373e-05 -0.00018110959 -0.00019577291 0.00010397105 1.3227669e-05 -0.000121682046
1.1751039e-05 -2.6715554e-05 0.00029651998 0.0001922738 -5.614839e-05 -4.223695e-05 4.849662e-05 1.7964468e-05
-6.863751e-05 2.1780186e-05 -2.1386166e-05 6.5288725e-05 -1.31822635e-05 -9.447096e-06 6.89204e-05 -4.2526466e-05
1.9686091e-05 -0.00010628108 5.965205e-05 -6.299155e-06 2.8020282e-05 -5.526502e-05 8.787817e-05 9.921982e-05
-4.0587056e-05 3.566039e-05 -5.4561573e-05 -0.00013102675 5.1824794e-05 -0.00020516265 0.00014639497 3.1952077e-05
2.7671e-06 -1.7775057e-05 2.6176998e-05 -4.3777603e-05 2.2951193e-05 -7.3076706e-05 9.380196e-05 7.9152764e-05
-3.732513e-06 2.2156541e-06 -4.8107544e-05 -0.00016921054 6.9524176e-05 3.8501315e-07 8.7050386e-05 3.862252e-05
-1.530233e-05 -8.990727e-05 -0.00011877083 -7.1115455e-06 -2.6722175e-05 3.8291753e-07 0.00010636476 8.355968e-05
-1.780417e-05 -9.463109e-06 1.0775846e-05 -3.0127608e-06 -2.3100334e-05 5.4190623e-05 -1.2079181e-05 -3.1999247e-05
-7.948348e-07 5.9677272e-06 4.7715057e-05 4.0143084e-05 2.0112122e-05 -1.6531777e-06 2.051941e-05 -1.8838069e-05
-1.1742688e-05 6.405239e-06 -3.5528315e-05 -1.237995e-05 1.1404048e-06 -5.991518e-07 -1.9179172e-06 -2.3892064e-05
6.715738e-07 -2.6716849e-05 1.6584381e-05 2.5237563e-05 4.6454785e-05 4.9909653e-05 1.991194e-05 -2.2481736e-05
-4.4377575e-06 -1.7342354e-05 5.717339e-05 7.83173e-07 -3.536847e-05 -1.706393e-05 9.827163e-06 4.6855112e-07
1.3957744e-05 9.258749e-07 2.2130791e-05 2.8961706e-05 -7.027844e-06 8.093191e-06 -2.178891e-05 1.6750377e-05
-2.2995684e-05 -5.8515725e-05 2.1766004e-05 2.929285e-05 9.648131e-05 8.7590895e-05 -1.5977822e-06 -1.5373802e-05
1.9060146e-05 -7.598802e-06 1.3412404e-06 -5.958304e-06 -3.453464e-05 -1.7535818e-05 -5.287539e-05 1.376273e-06
5.0534574e-05 -9.6857315e-05 -1.1607206e-05 -0.00013019629 -5.5741497e-05 -1.2493242e-05 -9.417166e-05 1.9153047e-05
4.310619e-06 6.332645e-08 -1.4265037e-06 -0.000107407526 0.00022841513 -4.0736686e-05 0.00027200597 1.2088991e-05
3.1678795e-05 8.497888e-05 -2.6359432e-05 2.8808852e-05 8.398793e-05 4.18778e-05 8.6351e-05 -5.0929517e-05
1.121006e-05 -2.630594e-05 -8.567331e-05 -9.684695e-05 7.918566e-06 -6.162121e-06 -3.422617e-05 -4.0442952e-05

exp_avg_sq f4 [351, 52]
00000000: 6374 2c34 ba25 4434 855f 4334 040d d333
00000010: ecc7 ad35 7f47 b635 5ae9 ae34 93f0 cc33
00000020: d634 1035 9c34 8f35 37ce b333 a011 5c35
00000030: 93fd 9933 90ff 2634 0df2 b435 c501 4435
00000040: ab2b 8b35 16d2 ac35 9e85 e534 d57a b735
00000050: b99d 1335 cd9b df35 0778 ee35 6188 2c35
00000060: ecb6 5e35 e369 d334 99b0 af34 5a6f 9635
00000070: 40fa f435 648d 9a35 a32f ee35 c558 8735
00000080: f0e3 5935 892e cf35 0723 1035 fa3c 7935
00000090: d689 5435 9113 4935 f525 1335 abdb b135
000000a0: 15a1 1f35 21f4 9a34 a0a8 9935 7851 a935
000000b0: 8849 0635 035e 0933 9929 9234 c01d 0c35
000000c0: 9775 4d36 0be7 ca35 2ca0 1736 2c9e df35
000000d0: 1365 2233 0026 4733 c301 2433 d872 be32
000000e0: 7216 6334 2fda 6d34 79b7 b233 5f2c 9832
000000f0: 79fa d233 14a1 6e34 b8fa ce32 86c3 4534
00000100: 58b2 8932 c61d fc32 a92c 8e34 5639 3b34
00000110: be60 6b34 3aa9 c034 c06b a833 9727 bf34
00000120: 9ea2 e233 887f 9534 1316 a134 2ce3 e733
00000130: 6105 2f34 82f2 af33 144c 9f33 73fb a734
00000140: 2866 9a34 49c0 8a34 c823 b134 864f 6434
00000150: 3707 3634 6875 9b34 c7aa d533 600a 2434
00000160: 8b22 1534 c3b6 0d34 413b 0a34 e099 8534
00000170: e267 ed33 1509 8333 62a9 3734 70b7 a734
00000180: fe51 c933 f4f8 ab31 a9dc 7f33 039a ef33
00000190: 45e8 f734 f873 8534 9609 d034 c8c5 b534
000001a0: badd 1f33 c9b5 4933 d620 e833 1002 3233
000001b0: a2c2 3434 b1d7 3a34 ed47 ae33 766c b132
000001c0: a97c 3034 cb45 8834 154d ae32 6bb0 3734
000001d0: 48ee 3a33 0d83 1533 8721 8e34 c0d3 8a34
000001e0: c086 c734 016b 5234 c8ab 0e34 f249 2e34
000001f0: f278 9633 97a2 5134 b5bc 3a34 cb3d c033
00000200: 7d99 1134 5cec 6133 06e2 7033 59ad 3034
00000210: 0372 4e34 8eb0 4f34 fe61 7134 db09 3b34
00000220: 6eb1 1434 5131 8034 0c49 0c34 3af4 3b34
00000230: 7680 1834 4da0 0834 ba88 0234 1f78 7134
00000240: c392 b033 178a 5733 e450 1234 63ff 5034
00000250: 5565 b933 4bd8 1b32 2865 5433 63ba 0734
00000260: 5faf 8b34 7bfe 5b34 f080 6d34 8963 7434
00000270: 6104 9231 e272 d131 5e80 0a33 531f 6c32
00000280: 6235 7f32 1cb8 8632 e411 5732 fd12 4a31
00000290: 2360 5232 6b8b e132 8b8c 3431 10f0 a732
000002a0: eaac c531 d0b0 8931 1761 c232 0dae 1733
000002b0: ba0a 0433 4867 c532 8279 8832 71ae 2133
000002c0: 59c4 3c32 e880 2933 d1c3 cb32 6df8 8532
000002d0: c1c7 7a32 b946 e531 390c b231 f8e8 9b32
000002e0: 82a6 e632 2269 be32 ae00 ed32 0308 ce32
000002f0: 3717 9f32 040f c532 e255 3c32 ae21 bb32
00000300: ffd7 6f32 2e79 5732 1c0f a532 124a 1133
00000310: 7462 3232 43b5 f631 821f 9432 6968 b932
00000320: d8f3 2632 6c75 0f30 61bc e431 83d2 8b32
00000330: bedc 3033 f265 bc32 baed 1033 5270 1933
00000340: 3cad c432 4a65 db32 f444 0133 9119 b632
00000350: d94a 5734 f143 6534 02c6 1c33 c723 f031
00000360: 4b7a 8d33 b7b2 2334 993d 4032 42ab 0034
00000370: 2887 0632 5c3c 8432 7353 3434 6405 1434
00000380: 1354 1934 76b3 4834 d975 9833 bbca 2e34
00000390: a912 8833 d2f2 3b34 ddc3 4d34 6809 8933
000003a0: 5baa cb33 f32d 6433 06ce 8c33 7cd9 2b34
000003b0: d9b1 ab34 268b 5334 6df0 9d34 54df 1034
000003c0: f68f f833 927f 3e34 5c08 a333 aaca d433
000003d0: eb6a 1334 a1ee bf33 4525 d033 73a6 5134
000003e0: b150 6d33 f2e7 8033 58a2 e233 436a 4234
000003f0: 42b2 6d33 d138 8331 8ae4 0233 c547 9d33
1.606109e-07 1.8267647e-07 1.819554e-07 9.827821e-08 1.2947689e-06 1.3580865e-06 3.257981e-07 9.5432505e-08
5.3721067e-07 1.0669642e-06 8.372847e-08 8.1982034e-07 7.1707426e-08 1.5552928e-07 1.3481491e-06 7.3018265e-07
1.0369016e-06 1.2876142e-06 4.2751793e-07 1.3670311e-06 5.4991284e-07 1.6660139e-06 1.7767314e-06 6.427345e-07
8.296763e-07 3.9378855e-07 3.2724782e-07 1.1208278e-06 1.8252249e-06 1.1515044e-06 1.7746246e-06 1.0084119e-06
8.117049e-07 1.5436245e-06 5.369515e-07 9.284846e-07 7.917673e-07 7.490681e-07 5.4817e-07 1.325146e-06
5.946652e-07 2.8862362e-07 1.1448465e-06 1.2615192e-06 5.002589e-07 3.19833e-08 2.7224885e-07 5.2197356e-07
3.0615827e-06 1.5117415e-06 2.2593986e-06 1.6660829e-06 3.781049e-08 4.636786e-08 3.8185828e-08 2.2171136e-08
2.1149188e-07 2.215172e-07 8.3221444e-08 1.7715307e-08 9.824448e-08 2.2224077e-07 2.409557e-08 1.8418186e-07
1.603e-08 2.93502e-08 2.6482056e-07 1.7436591e-07 2.1921275e-07 3.5885915e-07 7.842709e-08 3.5605328e-07
1.0553525e-07 2.7846204e-07 3.0004648e-07 1.0798098e-07 1.6300102e-07 8.1931844e-08 7.417853e-08 3.1289127e-07
2.8759064e-07 2.584441e-07 3.2994853e-07 2.1263085e-07 1.6952696e-07 2.8956424e-07 9.9496496e-08 1.5277465e-07
1.3889273e-07 1.3198137e-07 1.2873808e-07 2.488514e-07 1.1055069e-07 6.101815e-08 1.7104824e-07 3.1239642e-07
9.374706e-08 5.0050577e-09 5.9572503e-08 1.1157319e-07 4.6176334e-07 2.485756e-07 3.8749994e-07 3.3857782e-07
3.722173e-08 4.6964292e-08 1.0809315e-07 4.144573e-08 1.6834613e-07 1.7401068e-07 8.1155896e-08 2.0654834e-08
1.6436628e-07 2.5382755e-07 2.0291319e-08 1.7107384e-07 4.3523215e-08 3.4810956e-08 2.6473955e-07 2.5858571e-07
3.7164682e-07 1.9596702e-07 1.3287274e-07 1.6231914e-07 7.006919e-08 1.9523792e-07 1.7391251e-07 8.951937e-08
1.3560016e-07 5.2601862e-08 5.608492e-08 1.6454341e-07 1.9226722e-07 1.9342608e-07 2.2480523e-07 1.7419318e-07
1.3848123e-07 2.387774e-07 1.306509e-07 1.7504581e-07 1.4202837e-07 1.2724304e-07 1.2156934e-07 2.2488574e-07
8.2223345e-08 5.018418e-08 1.3626737e-07 1.9464419e-07 8.633166e-08 9.071367e-09 4.9452098e-08 1.2640662e-07
2.6018367e-07 2.0488544e-07 2.2119252e-07 2.2760481e-07 4.249657e-09 6.0957612e-09 3.2247378e-08 1.374413e-08
1.4855091e-08 1.5683376e-08 1.2518715e-08 2.9405662e-09 1.2245468e-08 2.6256847e-08 2.6273337e-09 1.9550527e-08
5.7531127e-09 4.007326e-09 2.2628724e-08 3.5315725e-08 3.07434e-08 2.2980785e-08 1.588774e-08 3.7644387e-08
1.09876845e-08 3.946562e-08 2.3721357e-08 1.5596209e-08 1.4597334e-08 6.6728174e-09 5.1818714e-09 1.8150317e-08
2.6851243e-08 2.216672e-08 2.759074e-08 2.39852e-08 1.8520593e-08 2.2940647e-08 1.0962568e-08 2.1784981e-08
1.3960743e-08 1.25422e-08 1.9215399e-08 3.382781e-08 1.0383349e-08 7.1801494e-09 1.7243796e-08 2.1584315e-08
9.717915e-09 5.2189963e-10 6.6570895e-09 1.627746e-08 4.1178957e-08 2.193244e-08 3.3743824e-08 3.5725243e-08
2.2896181e-08 2.5541016e-08 3.0097866e-08 2.1199215e-08 2.0050665e-07 2.1352004e-07 3.6501667e-08 6.9889867e-09
6.588069e-08 1.5245574e-07 1.1189877e-08 1.1983232e-07 7.8305575e-09 1.539427e-08 1.6794165e-07 1.3785535e-07
1.4279821e-07 1.8691739e-07 7.099488e-08 1.6278766e-07 6.336388e-08 1.750407e-07 1.9163367e-07 6.3812706e-08
9.4839116e-08 5.3127177e-08 6.5567335e-08 1.6004736e-07 3.1980633e-07 1.9701528e-07 2.9418462e-07 1.3492291e-07
1.1574586e-07 1.7741539e-07 7.5917995e-08 9.908884e-08 1.3729338e-07 8.937537e-08 9.692534e-08 1.9525196e-07
5.525425e-08 6.002655e-08 1.0553475e-07 1.8106316e-07 5.5342987e-08 3.819061e-09 3.047584e-08 7.323937e-08

exp_avg f4 [351, 117]
00000000: 1990 3438 dea9 7738 502d 9cb6 14b0 d138
00000010: d3d5 1c39 6bc6 7f37 1b8b 43b8 325f 6c38
00000020: 3f66 0339 2e32 4039 13d9 d036 8bf6 2d39
00000030: c453 9138 7bfa 41b7 44b5 32b8 c818 1639
00000040: 4c29 2b39 a3c2 84b5 dd21 91b8 0bcb 10b7
00000050: ab81 4ab8 e6a5 cab7 72a3 3638 4984 37b9
00000060: 5889 f4b7 2c40 2a38 0243 78b7 c743 3139
00000070: 7fce 04b8 112a 25b9 f04a 7936 4f18 cd38
00000080: 686d f4b7 f5a5 5938 92ac e6b7 6532 4939
00000090: ff94 ff38 d8e8 e5b8 9717 ea38 0ca0 6238
000000a0: 5a8c e038 1941 2339 c4ac 56b9 8ed7 3eb8
000000b0: fa06 0739 dabb 4239 d5be 6bb8 2b04 79b8
000000c0: 9bba 8937 ba78 0c37 b48c f638 cff1 62b9
000000d0: 04d5 0b39 2502 4bb8 ae67 6938 4a80 3bb7
000000e0: 339b cc38 5740 9338 9349 fe37 bed8 3bb8
000000f0: 9bba 82b8 7f6b e038 d697 1439 b8f6 f238
00000100: 14b0 5539 01c0 d238 4528 3139 9fbb 91b9
00000110: 32de 1db8 4b8d 36b9 38fa d1b8 8985 2ab9
00000120: c850 6b39 3ace 0239 9ff7 91b7 9e26 4038
00000130: 5e56 7e39 60d8 aa38 5b45 21b7 9785 f438
00000140: 9fc4 73b6 03d5 3c39 a471 f9b8 c42c 0bb8
00000150: 96e1 25b8 b05b 6b39 00e0 1db9 a006 3f39
00000160: 438f 1038 d514 7737 35da 7339 9163 b4b7
00000170: a9ec 3038 6ed0 5f38 56e9 2939 959c f037
00000180: d109 2938 bae0 99b8 5a8a 47b9 91cb 1139
00000190: 8727 ef38 a568 9937 6900 5039 7e0f a6b7
000001a0: 3598 aab8 74b1 27b9 8788 2eb9 dd6f 1439
000001b0: a6dd 99b7 d82c 4539 608d c6b7 daf4 a9b7
000001c0: 7ea8 1739 9417 36b9 ce53 7b38 9a30 eeb8
000001d0: 1293 d836 80d8 1538 879d 3337 bbf6 c136
000001e0: 4a44 0039 fcac dd37 4fcb d937 d91b 6837
000001f0: 4876 1438 a3f7 b638 6c1f f138 6bcc 1338
00000200: 1b7c ec38 58e6 33b8 fd08 2936 1adb 05b9
00000210: fadf cf38 b8d1 7b38 d53b 8b38 a520 7eb8
00000220: c5f9 d736 b5ca 57b8 2757 32b8 1575 5b36
00000230: 5404 e2b8 f60f 1c38 ed8f b9b7 dedc 45b7
00000240: 23ff 1b38 0e7a 87b8 90cf 15b9 68e6 e537
00000250: 1a91 8236 e9c2 9037 3867 a137 26f9 eb36
00000260: a599 ef38 c1c5 8f38 fa27 19b8 a8f2 a838
00000270: ea91 3fb7 d82c 8f38 4463 bf38 76ba 01b9
00000280: 05d2 d9b8 f7b5 0638 768f f138 1a9f 9cb7
00000290: ffd3 15b7 cbd6 0eb8 8218 81b8 24af 4b38
000002a0: e7ee 97b8 8a0f d238 1271 89b7 7515 b2b7
000002b0: ea41 27b8 0c0c 5238 da1d 1c38 9b3b 44b7
000002c0: bbab 3937 9779 a937 4c8e e338 8cb0 4638
000002d0: 00e5 2a38 49e1 1e39 a352 c735 a7f9 de37
000002e0: 3049 d3b8 c895 6fb8 310c 31b9 bd3f 24b7
000002f0: 33bb 04b9 7eac ed38 0103 1139 52f8 35b8
00000300: 3d5e 8936 c3c7 b438 91ee 04b8 2b7d 2ab8
00000310: 8e57 7f38 f8c1 45b8 3849 d737 a3a6 61b8
00000320: a0c9 b5b7 3e4c 95b8 2259 bb38 d63c 7eb8
00000330: ad91 c338 f808 81b8 ea95 6338 ecec e738
00000340: f309 60b7 3db8 be37 626c e038 9717 5238
00000350: 94df 8337 881b be36 ac57 fd36 b655 44b8
00000360: 7262 8538 7110 1438 8677 e537 0d9a e238
00000370: 1bd4 a6b8 1322 be37 5f0a 9ab8 ceca 8a35
00000380: 4e79 a838 d588 edb7 f099 5739 fbd8 1eb8
00000390: ccaa f6b7 61ca 7338 0e1e 60b8 388f a936
000003a0: a570 96b7 c3c1 20b8 e94a 84b8 934e 1737
000003b0: 1937 5237 d01b 8ab8 dc79 b4b7 9bfb 28b8
000003c0: 06cd c0b6 56c5 cab7 80b2 84b8 41c6 b2b8
000003d0: c1d3 30b8 a27b 4bb8 11a0 ac37 2579 af37
000003e0: 036e a338 55ce 76b8 f82d 27b8 56d5 7b37
000003f0: 6e20 7937 a28d aeb7 54bc 7238 3b34 3f38
4.3049546e-05 5.904759e-05 -4.6544374e-06 9.998694e-05 0.00014956975 1.5245382e-05 -4.6621175e-05 5.6355442e-05
0.00012531223 0.0001832924 6.224154e-06 0.0001659041 6.929741e-05 -1.1562016e-05 -4.2607324e-05 0.00014314346
0.00016323215 -9.891413e-07 -6.920446e-05 -8.6303435e-06 -4.8281316e-05 -2.4157529e-05 4.35444e-05 -0.0001750152
-2.9151022e-05 4.0590923e-05 -1.4797553e-05 0.00016905284 -3.1663567e-05 -0.00015751297 3.714751e-06 9.7796896e-05
-2.9138013e-05 5.189139e-05 -2.7498496e-05 0.00019187627 0.000121871 -0.000109629415 0.000111623835 5.4031654e-05
0.00010707295 0.00015569142 -0.0002047299 -4.550028e-05 0.00012877202 0.00018571262 -5.6206092e-05 -5.9370108e-05
1.6418568e-05 8.372759e-06 0.00011756402 -0.0002164312 0.00013335428 -4.840097e-05 5.5648088e-05 -1.1175938e-05
9.756386e-05 7.0214905e-05 3.031342e-05 -4.478613e-05 -6.233641e-05 0.00010701175 0.00014170943 0.00011585414
0.00020378857 0.00010049344 0.00016895037 -0.00027796344 -3.7638652e-05 -0.00017409508 -0.000100125035 -0.00016262209
0.0002244144 0.00012474591 -1.7400655e-05 4.5812332e-05 0.00024255502 8.146535e-05 -9.612496e-06 0.0001165971
-3.632427e-06 0.0001800843 -0.000118944125 -3.3181874e-05 -3.954916e-05 0.00022445503 -0.00015056133 0.00018217647
3.44657e-05 1.4727198e-05 0.00023255574 -2.1504036e-05 4.2182077e-05 5.336146e-05 0.0001620402 2.8683144e-05
4.0301882e-05 -7.337467e-05 -0.00019029659 0.00013904112 0.000114037706 1.828775e-05 0.00019836579 -1.9795956e-05
-8.1345825e-05 -0.00015992468 -0.00016644794 0.00014156052 -1.8342234e-05 0.0001880409 -2.3669272e-05 -2.0260388e-05
0.0001446325 -0.00017365656 5.9921113e-05 -0.00011357777 6.454423e-06 3.5726e-05 1.0705909e-05 5.7805714e-06
0.00012232471 2.6425805e-05 2.5963089e-05 1.3834761e-05 3.5396108e-05 8.724562e-05 0.00011497628 3.523791e-05
0.000112764734 -4.289145e-05 2.5188194e-06 -0.0001276549 9.912248e-05 6.003838e-05 6.639181e-05 -6.058872e-05
6.4365763e-06 -5.144878e-05 -4.2519674e-05 3.2701694e-06 -0.00010777326 3.7208163e-05 -2.212074e-05 -1.179354e-05
3.7192494e-05 -6.460036e-05 -0.0001428707 2.7406219e-05 3.891194e-06 1.72569e-05 1.924076e-05 7.0325505e-06
0.000114250266 6.855606e-05 -3.6515274e-05 8.0560625e-05 -1.141846e-05 6.827124e-05 9.1260794e-05 -0.00012371861
-0.000103864855 3.2117558e-05 0.00011518497 -1.8670737e-05 -8.930451e-06 -3.405548e-05 -6.155764e-05 4.8562084e-05
-7.24474e-05 0.00010016475 -1.6384325e-05 -2.1229245e-05 -3.987729e-05 5.007912e-05 3.72211e-05 -1.1696388e-05
1.1066843e-05 2.020299e-05 0.00010850708 4.73713e-05 4.074443e-05 0.0001515198 1.4850706e-06 2.6580716e-05
-0.00010074896 -5.7121535e-05 -0.00016884577 -9.790002e-06 -0.00012658238 0.0001133317 0.00013829397 -4.338503e-05
4.093889e-06 8.6202774e-05 -3.1693435e-05 -4.064773e-05 6.087828e-05 -4.7149108e-05 2.5664092e-05 -5.3799373e-05
-2.167077e-05 -7.119075e-05 8.933457e-05 -6.0614977e-05 9.325459e-05 -6.15287e-05 5.4260636e-05 0.000110590685
-1.3353757e-05 2.2735558e-05 0.0001070134 5.008987e-05 1.5720529e-05 5.6656463e-06 7.550194e-06 -4.6809866e-05
6.360271e-05 3.5301262e-05 2.7354585e-05 0.00010805214 -7.9550045e-05 2.2665632e-05 -7.345224e-05 1.0340825e-06
8.033459e-05 -2.8316319e-05 0.00020561344 -3.7872214e-05 -2.9405019e-05 5.8124195e-05 -5.3433752e-05 5.0532653e-06
-1.7933848e-05 -3.8327427e-05 -6.3082036e-05 9.018596e-06 1.2529804e-05 -6.585533e-05 -2.1514417e-05 -4.0288647e-05
-5.7459138e-06 -2.4172168e-05 -6.327499e-05 -8.524629e-05 -4.215888e-05 -4.8514114e-05 2.0578535e-05 2.0918038e-05
7.792937e-05 -5.8843132e-05 -3.9858714e-05 1.5010437e-05 1.4849107e-05 -2.080837e-05 5.787269e-05 4.5586592e-05
