los/eicu/eicu_los_TCN_repetition_0_fold_0_last.ckpt (torch, 616159 bytes, 41 tensors)

network.0.conv1.bias f4 [32]
-0.19191779 -0.01592485 -0.059834134 0.025866913 -0.20267245 -0.24657409 -0.085740596 -0.22388133
-0.08401524 -0.025463618 -0.17383832 -0.22716235 -0.070504226 -0.0949334 -0.14930727 -0.100607105
-0.15756129 -0.13701802 -0.2605265 -0.19814655 -0.10845227 -0.06513474 -0.2662174 -0.24545883
-0.21106628 -0.022985624 -0.14608149 -0.22796668 -0.21946988 -0.2886414 -0.15066127 -0.26244
00000000: 1986 44be d574 82bc a314 75bd d9e6 d33c
00000010: 5e89 4fbe eb7d 7cbe c498 afbd 2641 65be
00000020: 2f10 acbd 1499 d0bc ac02 32be 3f9d 68be
00000030: 8564 90bd 716c c2bd 01e4 18be 190b cebd
00000040: bf57 21be 744e 0cbe bb63 85be eee6 4abe
00000050: 391c debd 5d65 85bd a64d 88be 8f59 7bbe
00000060: c221 58be 594c bcbc 6396 15be 1970 69be
00000070: b6bc 60be cec8 93be f346 1abe 895e 86be

network.0.conv1.weight_v f4 [32, 52, 10]
0.04987628 0.012445811 -0.0007778166 0.041947957 0.0010270732 0.031960316 -0.014555828 0.055658896
0.05385029 0.04311359 -0.04914224 -0.04164144 0.007859118 0.0019429721 0.011957427 -0.035916943
-0.022725366 -0.056449346 -0.019685954 -0.028870923 -0.0034833942 0.0428144 0.037445076 0.04305615
0.008762326 0.0065425723 0.010714389 -0.0018712666 0.0096218325 0.060882933 -0.041338243 -0.085100666
-0.026113676 -0.07872416 -0.10168048 -0.094902545 -0.026550222 -0.09272742 -0.07088762 0.0060994974
-0.052511726 -0.0044469326 -0.081658065 -0.08738273 -0.090447746 -0.006555518 0.0035604732 0.005500858
-0.003632354 -0.046788245 0.08026445 0.057145566 0.04486044 0.024788342 -0.0027626746 -0.017942313
-0.007892243 0.0021681893 -0.08730954 -0.052476544 0.030367453 0.109012105 0.105620414 0.089885585
0.07566825 0.064155534 0.048336677 0.14094119 0.118859954 0.06211925 0.017306097 -0.0688542
-0.024391564 0.010864779 0.023441344 -0.004752918 -0.021795763 -0.0052802814 -0.02908967 -0.030911881
-0.0725508 -0.12689844 -0.030854015 -0.051147018 -0.0732853 -0.061836127 -0.09554119 -0.031149866
-0.032762665 -0.09192103 -0.076230034 -0.025234707 -0.06539099 0.0062121325 -0.056896858 -0.038527552
-0.017280357 0.00044043057 0.030779066 -0.009550957 0.011020329 0.011464686 0.033822905 0.015741358
-0.019961022 -0.088818625 -0.023046257 -0.030077381 -0.07156242 -0.08526323 0.027660752 -0.030408228
-0.0003879147 0.034465823 0.0033432818 0.036257375 0.05921037 0.07772388 0.035396405 0.04839662
-0.051784962 -0.107691295 -0.03942083 -0.046092626 -0.035628647 -0.0889635 -0.026293457 -0.014425851
-0.0033192276 0.012994105 -0.026637869 -0.122955635 -0.05494792 -0.06587161 -0.03924304 -0.065008305
-0.021652138 -0.06800017 -0.023920335 -0.07366704 -0.09325554 -0.072620206 -0.10353192 -0.12305055
-0.051842127 -0.05798189 -0.0063799866 -0.061529756 -0.023583295 -0.0036833805 -0.22971772 -0.18532294
-0.25775015 -0.19167204 -0.22548957 -0.23188227 -0.17120205 -0.17146869 -0.20357805 -0.23526105
0.10041528 0.07411619 0.07203723 0.01426199 -0.016503325 0.055449605 0.0729042 -0.03459115
-0.0039474717 0.024374515 0.10633163 0.091200665 0.08859073 0.043348603 0.055614524 0.0064148265
0.058045913 0.0628524 0.02664776 0.047504686 0.04472682 0.08130412 0.03969037 0.029862298
0.10013303 0.08680944 0.04218995 0.116527885 0.09057213 0.06524535 -0.029389083 -0.019717935
-0.059190225 -0.018766927 -0.08057859 -0.027565157 -0.0035438915 -0.041528463 -0.01980322 -0.040697243
-0.053570334 0.01901537 0.037682105 -0.015982844 0.06611461 0.0040119793 0.048275895 0.028290458
0.112815365 0.08000356 0.028702334 -0.0072856746 0.050905824 0.06463706 -0.017977506 0.039484367
0.022083053 0.041122105 0.07235424 0.08145257 -0.11546413 -0.0779084 -0.03305271 -0.018550472
-0.06722249 -0.06869146 -0.02467187 -0.078912854 -0.06396813 -0.15558505 0.01249564 0.0384816
0.015423583 0.02354948 0.053239975 0.009954245 0.002338099 0.06319881 0.046527196 -0.043065015
0.0108694825 0.018251747 -0.018647557 -0.007992728 0.0066043534 -0.048086617 -0.0007942473 -0.04068215
-0.024504852 -0.029999165 0.09630376 0.17722055 0.13988888 0.1328986 0.10201349 0.18421274
00000000: 124b 4c3d 84e9 4b3c 63e6 4bba 9fd1 2b3d
00000010: dc9e 863a d2e8 023d 917b 6ebc 95fa 633d
00000020: 1f92 5c3d e097 303d 6049 49bd 3790 2abd
00000030: 88c3 003c 53ab fe3a 15e9 433c a51d 13bd
00000040: 8c2a babc 6e37 67bd 7044 a1bc b782 ecbc
00000050: a849 64bb 275e 2f3d 0260 193d a55b 303d
00000060: dc8f 0f3c 1363 d63b 688b 2f3c 4a45 f5ba
00000070: e4a4 1d3c 6260 793d 4a52 29bd 4249 aebd
00000080: 59ec d5bc 223a a1bd db3d d0bd 445c c2bd
00000090: da7f d9bc e0e7 bdbd 872d 91bd 4bde c73b
000000a0: 8916 57bd 93b7 91bb 583c a7bd b7f5 b2bd
000000b0: ab3c b9bd accf d6bb d456 693b 8b40 b43b
000000c0: ca0c 6ebb 08a5 3fbd b061 a43d 7811 6a3d
000000d0: 95bf 373d ec10 cb3c fd0d 35bb c2fb 92bc
000000e0: 774e 01bc 2e18 0e3b 58cf b2bd a5f1 56bd
000000f0: 2ac5 f83c bd41 df3d 844f d83d ef15 b83d
00000100: f5f7 9a3d fa63 833d aefc 453d e352 103e
00000110: d96c f33d c170 7e3d 84c5 8d3c 6e03 8dbd
00000120: d1d0 c7bc 3002 323c 1008 c03c 5ebe 9bbb
00000130: 078d b2bc 3606 adbb 764d eebc ea3a fdbc
00000140: 8495 94bd aaf1 01be 8fc1 fcbc 897f 51bd
00000150: 9a16 96bd e147 7dbd 19ab c3bd 012e ffbc
00000160: 2532 06bd 1841 bcbd 7e1e 9cbd 04b9 cebc
00000170: b6eb 85bd 258f cb3b ae0c 69bd 11cf 1dbd
00000180: 898f 8dbc 97e9 e639 6124 fc3c 9e7b 1cbc
00000190: 9c8e 343c 61d6 3b3c e389 0a3d 05f4 803c
000001a0: 4c85 a3bc 8ae6 b5bd 81cb bcbc d764 f6bc
000001b0: 518f 92bd 7d9e aebd cd98 e23c ad1a f9bc
000001c0: 0861 cbb9 092c 0d3d f61a 5b3b 9d82 143d
000001d0: 9386 723d b32d 9f3d d2fb 103d 893b 463d
000001e0: 781c 54bd 418d dcbd bc77 21bd 9fcb 3cbd
000001f0: 58ef 11bd 7f32 b6bd 6065 d7bc 685a 6cbc
00000200: 6687 59bb 3ae5 543c a937 dabc 2ad0 fbbd
00000210: 1211 61bd b2e7 86bd 4fbd 20bd 1323 85bd
00000220: d35f b1bc ac43 8bbd 94f4 c3bc bfde 96bd
00000230: c3fc bebd e7b9 94bd 8b08 d4bd ed01 fcbd
00000240: 6958 54bd 6b7e 6dbd 350f d1bb a006 7cbd
00000250: c131 c1bc df64 71bb 1f3b 6bbe 4cc5 3dbe
00000260: d4f7 83be ad45 44be bde6 66be 8c72 6dbe
00000270: 974f 2fbe 7d95 2fbe c476 50be 46e8 70be
00000280: 87a6 cd3d 3bca 973d 4188 933d 1fab 693c
00000290: fb31 87bc 201f 633d cc4e 953d 73af 0dbd
000002a0: cb59 81bb 10ad c73c 66c4 d93d 6ac7 ba3d
000002b0: 0f6f b53d 4e8e 313d 0ecc 633d 7733 d23b
000002c0: 8dc1 6d3d c2b8 803d 674c da3c 4694 423d
000002d0: 7833 373d c682 a63d 5f92 223d c7a1 f43c
000002e0: 8c12 cd3d 26c9 b13d 5ecf 2c3d 2ca6 ee3d
000002f0: e27d b93d 5b9f 853d 60c1 f0bc 8287 a1bc
00000300: 7371 72bd 19bd 99bc 6306 a5bd 53d0 e1bc
00000310: a240 68bb c019 2abd 5d3a a2bc 27b2 26bd
00000320: 916c 5bbd 1fc6 9b3c 8d58 1a3d 74ee 82bc
00000330: 1967 873d ec76 833b f2bc 453d 64c1 e73c
00000340: be0b e73d e8d8 a33d 2821 eb3c abbc eebb
00000350: a082 503d 6f60 843d 9045 93bc 5cba 213d
00000360: 85e7 b43c a76f 283d 762e 943d 9bd0 a63d
00000370: 7578 ecbd 708e 9fbd 4762 07bd 29f7 97bc
00000380: f2ab 89bd 1cae 8cbd a91c cabc 109d a1bd
00000390: b901 83bd b051 1fbe 83ba 4c3c e29e 1d3d
000003a0: 32b3 7c3c d7ea c03c 2912 5a3d 2117 233c
000003b0: cb3a 193b 616e 813d 4d93 3e3d f164 30bd
000003c0: ea15 323c b084 953c c3c2 98bc eef3 02bc
000003d0: 5569 d83b 79f6 44bd 0935 50ba 53a2 26bd
000003e0: 66be c8bc cfc0 f5bc e83a c53d 4e79 353e
000003f0: 083f 0f3e 9216 083e 73ec d03d 44a2 3c3e

network.0.conv2.bias f4 [32]
-0.14208557 -0.046103302 0.04925127 0.00013411135 0.015570125 -0.041396994 0.25304228 -0.03619526
0.029499924 -0.0138011975 -0.05527615 0.014450434 0.04517674 0.008969561 -0.016720584 0.10576744
0.0095481 0.009776625 0.08105277 0.090754755 -0.011756121 0.21969755 0.3065667 0.008528742
0.05492707 -0.04743598 0.00328848 0.10741002 0.042575072 0.044875085 0.07409972 -0.03959772
00000000: e17e 11be d1d6 3cbd b3bb 493d 3ea0 0c39
00000010: d619 7f3c e58f 29bd c28e 813e 7b41 14bd
00000020: d3a9 f13c 6b1e 62bc 3f69 62bd 83c1 6c3c
00000030: 3f0b 393d 11f5 123c 9bf9 88bc 999c d83d
00000040: a26f 1c3c 232e 203c fffe a53d a1dd b93d
00000050: bf9c 40bc 65f8 603e 4ff6 9c3e 23bc 0b3c
00000060: 35fb 603d 3b4c 42bd 8a83 573b c9f9 db3d
00000070: 3363 2e3d f0ce 373d 98c1 973d 3831 22bd

network.0.conv2.weight_v f4 [32, 32, 10]
-0.0011457151 -0.15227844 -0.17067719 -0.029346954 0.0017683612 -0.15651712 -0.1479981 -0.15866679
-0.20398068 -0.041573808 -0.077804506 -0.0813852 0.018700663 0.0069575342 -0.12398913 -0.07512011
-0.013103189 -0.10623371 -0.10372461 0.015896948 -0.23126599 -0.12282858 -0.16793145 -0.20179008
-0.17718907 -0.16423504 -0.26180083 -0.20866893 -0.18341182 -0.1637343 -0.018982906 -0.104558714
-0.12787975 0.036739714 0.047652803 -0.10406295 -0.12812601 -0.06365848 -0.06286761 -0.02056338
-0.00918951 -0.012085432 0.103082016 -0.029955396 -0.037113678 0.0032953017 -0.008078402 0.07192699
0.08071223 0.05543957 -0.09570073 0.07786989 -0.05310684 -0.11511084 0.061089005 -0.020870721
-0.07435689 0.019003348 -0.10574622 0.062786765 -0.040099606 -0.16892621 -0.1650124 -0.1062965
-0.058865905 -0.09383993 -0.03286361 -0.12529485 -0.11796951 -0.18110447 -0.23620178 -0.18793501
-0.21431047 -0.22868307 -0.21369377 -0.2518321 -0.23819505 -0.23622562 -0.1747325 -0.09594596
-0.001665658 0.072145686 0.04785329 -0.08827969 -0.054462787 -0.075112574 -0.07796458 0.052338697
-0.067100994 -0.09545032 0.04486643 0.050133802 -0.03183516 0.027993465 0.070806086 0.045477133
0.00084603793 -0.08367712 -0.06319517 -0.045836456 -0.1473581 -0.17025858 -0.18051057 0.009290964
-0.008600167 -0.17852063 -0.18596801 0.0152170295 -0.11813362 -0.13781005 -0.12387551 -0.09465173
-0.13670024 -0.12554862 -0.1450607 -0.13070829 -0.12590046 -0.14231648 -0.024893725 -0.1533722
-0.13294075 0.027290808 -0.14369394 -0.09369106 0.0055866856 -0.09321216 -0.10915956 -0.06857613
-0.08887119 0.010258715 -0.11452394 -0.13829195 -0.13597904 -0.1200472 -0.05488935 -0.0731395
-0.1573062 -0.08179844 -0.10362527 -0.1405959 -0.020973975 -0.13417643 -0.13712911 -0.03570633
-0.006775574 -0.11472954 -0.009785357 -0.09025031 -0.07426877 -0.06031296 -0.186363 -0.1260918
-0.17088562 -0.090667374 -0.14587633 -0.17882527 -0.20784155 -0.18240958 -0.14523491 -0.1349492
0.038271043 0.16137137 0.0070081824 0.021015182 0.19931853 0.09682546 -0.009130551 0.058154956
0.025486521 0.15858865 -0.17250091 -0.07899988 -0.04229349 -0.11304436 -0.11532871 -0.08723545
0.06285823 -0.1099358 0.013232163 -0.041597154 -0.14806426 -0.16220924 -0.2395552 -0.15725698
-0.23263328 -0.21116452 -0.24686345 -0.18647552 -0.15950494 -0.15513168 0.021786368 0.04270022
-0.07081507 0.06285885 0.082105935 -0.005776752 0.106624536 0.0050071287 -0.021350646 -0.05228485
-0.117169395 -0.13343142 -0.008039825 -0.09653178 -0.1645172 -0.15134692 0.012101167 0.013978039
-0.12127183 -0.105122715 -0.08670835 -0.16476963 -0.044703163 -0.06820787 -0.15002516 -0.0036833144
-0.085734606 -0.15009063 -0.09298582 -0.11449775 0.11907205 -0.00780224 0.101724625 0.13217796
0.044598967 0.10433288 0.04453491 -0.030554606 0.09344035 0.13724095 -0.13429032 -0.09977772
-0.013257857 -0.18556865 -0.15003228 -0.17657802 -0.17423916 -0.06426768 -0.17273524 -0.03172766
0.08867499 0.017560441 0.12916853 0.13239315 0.0975862 0.10005385 0.017596526 0.03585643
0.110050336 0.10629094 -0.111259 -0.10950113 -0.13638431 -0.12662047 -0.16675304 -0.13696621
00000000: d22b 96ba e1ee 1bbe 00c6 2ebe 0669 f0bc
00000010: 5bc8 e73a 0646 20be d08c 17be 8c79 22be
00000020: 50e0 50be 4c49 2abd f857 9fbd 49ad a6bd
00000030: 2232 993c 07fc e33b 03ee fdbd 92d8 99bd
00000040: c2ae 56bc 0f91 d9bd 916d d4bd 513a 823c
00000050: fed0 6cbe 8d8d fbbd 39f6 2bbe 0fa2 4ebe
00000060: 0d71 35be 3b2d 28be c20a 86be 4fad 55be
00000070: 4fd0 3bbe f7a9 27be 0a82 9bbc e122 d6bd
00000080: e9f2 02be 627c 163d 962f 433d f51e d5bd
00000090: 7733 03be 615f 82bd bcc0 80bd 8974 a8bc
000000a0: 998f 16bc fa01 46bc aa1c d33d 0565 f5bc
000000b0: 8304 18bd fdf5 573b 465b 04bc 754e 933d
000000c0: 744c a53d 9a14 633d bffe c3bd 407a 9f3d
000000d0: 8f86 59bd 3bbf ebbd 7738 7a3d 13f9 aabc
000000e0: 6d48 98bd e9ac 9b3c 7991 d8bd 5996 803d
000000f0: 7c3f 24bd fefa 2cbe 03f9 28be fbb1 d9bd
00000100: 601d 71bd 262f c0bd fe9b 06bd 4b4d 00be
00000110: 009a f1bd 7373 39be e1de 71be 0972 40be
00000120: 3474 5bbe e52b 6abe 8ad2 5abe 23f0 80be
00000130: 67e9 73be 21e5 71be 14ed 32be 517f c4bd
00000140: 3552 daba 1ec1 933d d001 443d fbcb b4bd
00000150: 5f14 5fbd 9fd4 99bd e5ab 9fbd 1a61 563d
00000160: 3f6c 89bd 757b c3bd ddc5 373d 1a59 4d3d
00000170: 9665 02bd 8d52 e53c c802 913d 3b46 3a3d
00000180: a5c8 5d3a e95e abbd 786c 81bd 02bf 3bbd
00000190: 0be5 16be 4458 2ebe c3d7 38be 2139 183c
000001a0: b7e7 0cbc 1dce 36be 666e 3ebe d950 793c
000001b0: 0af0 f1bd 141e 0dbe 72b2 fdbd c4d8 c1bd
000001c0: 26fb 0bbe d18f 00be cb8a 14be 65d8 05be
000001d0: 0dec 00be 69bb 11be eded cbbc 9a0d 1dbe
000001e0: 9f21 08be f990 df3c 8124 13be 19e1 bfbd
000001f0: 8410 b73b 04e6 bebd 0c8f dfbd a471 8cbd
00000200: 1902 b6bd 2b14 283c 878b eabd 689c 0dbe
00000210: 173e 0bbe 4edb f5bd a8d3 60bd 2aca 95bd
00000220: e014 21be f185 a7bd 7c39 d4bd 5ff8 0fbe
00000230: 9dd1 abbc 8c65 09be 936b 0cbe cd40 12bd
00000240: a205 debb 52f7 eabd c352 20bc 28d5 b8bd
00000250: 3a1a 98bd b90a 77bd f1d5 3ebe 351e 01be
00000260: a4fc 2ebe d1af b9bd 9b60 15be f91d 37be
00000270: 6ad4 54be 94c9 3abe 76b8 14be 2030 0abe
00000280: 19c2 1c3d 893e 253e e5a4 e53b 0828 ac3c
00000290: 281a 4c3e 6d4c c63d 4e98 15bc e433 6e3d
000002a0: 1cc9 d03c 1065 223e 14a4 30be b0ca a1bd
000002b0: f03b 2dbd cd83 e7bd 7531 ecbd 80a8 b2bd
000002c0: d1bb 803d 0526 e1bd b7cb 583c c761 2abd
000002d0: 289e 17be 2e1a 26be f54d 75be f907 21be
000002e0: 6b37 6ebe 833b 58be c6c9 7cbe 70f3 3ebe
000002f0: 4355 23be d7da 1ebe 5379 b23c 6de6 2e3d
00000300: 7e07 91bd 24bc 803d 2827 a83d e84a bdbb
00000310: f75d da3d d712 a43b 8de7 aebc a428 56bd
00000320: 82f6 efbd 3fa2 08be 78b9 03bc 74b2 c5bd
00000330: 3277 28be b0fa 1abe f943 463c 2504 653c
00000340: 5d5d f8bd 944a d7bd 2694 b1bd 5fb9 28be
00000350: aa1a 37bd 91b0 8bbd 32a0 19be c363 71bb
00000360: a095 afbd 5cb1 19be 596f bebd cc7d eabd
00000370: 0cdc f33d efa9 ffbb 0055 d03d a959 073e
00000380: 68ad 363d 7aac d53d 3d6a 363d a74d fabc
00000390: a75d bf3d e488 0c3e 6783 09be 4358 ccbd
000003a0: 7c37 59bc b505 3ebe 10a2 19be ded0 34be
000003b0: c06b 32be c69e 83bd 82e1 30be ddf4 01bd
000003c0: 3c9b b53d eada 8f3c c144 043e 1292 073e
000003d0: 46db c73d 08e9 cc3d 9726 903c 31de 123d
000003e0: 1262 e13d 10af d93d c2db e3bd 2142 e0bd
000003f0: 54a8 0bbe cca8 01be 4fc1 2abe df40 0cbe

network.0.net.0.bias f4 [32]
-0.19191779 -0.01592485 -0.059834134 0.025866913 -0.20267245 -0.24657409 -0.085740596 -0.22388133
-0.08401524 -0.025463618 -0.17383832 -0.22716235 -0.070504226 -0.0949334 -0.14930727 -0.100607105
-0.15756129 -0.13701802 -0.2605265 -0.19814655 -0.10845227 -0.06513474 -0.2662174 -0.24545883
-0.21106628 -0.022985624 -0.14608149 -0.22796668 -0.21946988 -0.2886414 -0.15066127 -0.26244
00000000: 1986 44be d574 82bc a314 75bd d9e6 d33c
00000010: 5e89 4fbe eb7d 7cbe c498 afbd 2641 65be
00000020: 2f10 acbd 1499 d0bc ac02 32be 3f9d 68be
00000030: 8564 90bd 716c c2bd 01e4 18be 190b cebd
00000040: bf57 21be 744e 0cbe bb63 85be eee6 4abe
00000050: 391c debd 5d65 85bd a64d 88be 8f59 7bbe
00000060: c221 58be 594c bcbc 6396 15be 1970 69be
00000070: b6bc 60be cec8 93be f346 1abe 895e 86be

network.0.net.0.weight_v f4 [32, 52, 10]
0.04987628 0.012445811 -0.0007778166 0.041947957 0.0010270732 0.031960316 -0.014555828 0.055658896
0.05385029 0.04311359 -0.04914224 -0.04164144 0.007859118 0.0019429721 0.011957427 -0.035916943
-0.022725366 -0.056449346 -0.019685954 -0.028870923 -0.0034833942 0.0428144 0.037445076 0.04305615
0.008762326 0.0065425723 0.010714389 -0.0018712666 0.0096218325 0.060882933 -0.041338243 -0.085100666
-0.026113676 -0.07872416 -0.10168048 -0.094902545 -0.026550222 -0.09272742 -0.07088762 0.0060994974
-0.052511726 -0.0044469326 -0.081658065 -0.08738273 -0.090447746 -0.006555518 0.0035604732 0.005500858
-0.003632354 -0.046788245 0.08026445 0.057145566 0.04486044 0.024788342 -0.0027626746 -0.017942313
-0.007892243 0.0021681893 -0.08730954 -0.052476544 0.030367453 0.109012105 0.105620414 0.089885585
0.07566825 0.064155534 0.048336677 0.14094119 0.118859954 0.06211925 0.017306097 -0.0688542
-0.024391564 0.010864779 0.023441344 -0.004752918 -0.021795763 -0.0052802814 -0.02908967 -0.030911881
-0.0725508 -0.12689844 -0.030854015 -0.051147018 -0.0732853 -0.061836127 -0.09554119 -0.031149866
-0.032762665 -0.09192103 -0.076230034 -0.025234707 -0.06539099 0.0062121325 -0.056896858 -0.038527552
-0.017280357 0.00044043057 0.030779066 -0.009550957 0.011020329 0.011464686 0.033822905 0.015741358
-0.019961022 -0.088818625 -0.023046257 -0.030077381 -0.07156242 -0.08526323 0.027660752 -0.030408228
-0.0003879147 0.034465823 0.0033432818 0.036257375 0.05921037 0.07772388 0.035396405 0.04839662
-0.051784962 -0.107691295 -0.03942083 -0.046092626 -0.035628647 -0.0889635 -0.026293457 -0.014425851
-0.0033192276 0.012994105 -0.026637869 -0.122955635 -0.05494792 -0.06587161 -0.03924304 -0.065008305
-0.021652138 -0.06800017 -0.023920335 -0.07366704 -0.09325554 -0.072620206 -0.10353192 -0.12305055
-0.051842127 -0.05798189 -0.0063799866 -0.061529756 -0.023583295 -0.0036833805 -0.22971772 -0.18532294
-0.25775015 -0.19167204 -0.22548957 -0.23188227 -0.17120205 -0.17146869 -0.20357805 -0.23526105
0.10041528 0.07411619 0.07203723 0.01426199 -0.016503325 0.055449605 0.0729042 -0.03459115
-0.0039474717 0.024374515 0.10633163 0.091200665 0.08859073 0.043348603 0.055614524 0.0064148265
0.058045913 0.0628524 0.02664776 0.047504686 0.04472682 0.08130412 0.03969037 0.029862298
0.10013303 0.08680944 0.04218995 0.116527885 0.09057213 0.06524535 -0.029389083 -0.019717935
-0.059190225 -0.018766927 -0.08057859 -0.027565157 -0.0035438915 -0.041528463 -0.01980322 -0.040697243
-0.053570334 0.01901537 0.037682105 -0.015982844 0.06611461 0.0040119793 0.048275895 0.028290458
0.112815365 0.08000356 0.028702334 -0.0072856746 0.050905824 0.06463706 -0.017977506 0.039484367
0.022083053 0.041122105 0.07235424 0.08145257 -0.11546413 -0.0779084 -0.03305271 -0.018550472
-0.06722249 -0.06869146 -0.02467187 -0.078912854 -0.06396813 -0.15558505 0.01249564 0.0384816
0.015423583 0.02354948 0.053239975 0.009954245 0.002338099 0.06319881 0.046527196 -0.043065015
0.0108694825 0.018251747 -0.018647557 -0.007992728 0.0066043534 -0.048086617 -0.0007942473 -0.04068215
-0.024504852 -0.029999165 0.09630376 0.17722055 0.13988888 0.1328986 0.10201349 0.18421274
00000000: 124b 4c3d 84e9 4b3c 63e6 4bba 9fd1 2b3d
00000010: dc9e 863a d2e8 023d 917b 6ebc 95fa 633d
00000020: 1f92 5c3d e097 303d 6049 49bd 3790 2abd
00000030: 88c3 003c 53ab fe3a 15e9 433c a51d 13bd
00000040: 8c2a babc 6e37 67bd 7044 a1bc b782 ecbc
00000050: a849 64bb 275e 2f3d 0260 193d a55b 303d
00000060: dc8f 0f3c 1363 d63b 688b 2f3c 4a45 f5ba
00000070: e4a4 1d3c 6260 793d 4a52 29bd 4249 aebd
00000080: 59ec d5bc 223a a1bd db3d d0bd 445c c2bd
00000090: da7f d9bc e0e7 bdbd 872d 91bd 4bde c73b
000000a0: 8916 57bd 93b7 91bb 583c a7bd b7f5 b2bd
000000b0: ab3c b9bd accf d6bb d456 693b 8b40 b43b
000000c0: ca0c 6ebb 08a5 3fbd b061 a43d 7811 6a3d
000000d0: 95bf 373d ec10 cb3c fd0d 35bb c2fb 92bc
000000e0: 774e 01bc 2e18 0e3b 58cf b2bd a5f1 56bd
000000f0: 2ac5 f83c bd41 df3d 844f d83d ef15 b83d
00000100: f5f7 9a3d fa63 833d aefc 453d e352 103e
00000110: d96c f33d c170 7e3d 84c5 8d3c 6e03 8dbd
00000120: d1d0 c7bc 3002 323c 1008 c03c 5ebe 9bbb
00000130: 078d b2bc 3606 adbb 764d eebc ea3a fdbc
00000140: 8495 94bd aaf1 01be 8fc1 fcbc 897f 51bd
00000150: 9a16 96bd e147 7dbd 19ab c3bd 012e ffbc
00000160: 2532 06bd 1841 bcbd 7e1e 9cbd 04b9 cebc
00000170: b6eb 85bd 258f cb3b ae0c 69bd 11cf 1dbd
00000180: 898f 8dbc 97e9 e639 6124 fc3c 9e7b 1cbc
00000190: 9c8e 343c 61d6 3b3c e389 0a3d 05f4 803c
000001a0: 4c85 a3bc 8ae6 b5bd 81cb bcbc d764 f6bc
000001b0: 518f 92bd 7d9e aebd cd98 e23c ad1a f9bc
000001c0: 0861 cbb9 092c 0d3d f61a 5b3b 9d82 143d
000001d0: 9386 723d b32d 9f3d d2fb 103d 893b 463d
000001e0: 781c 54bd 418d dcbd bc77 21bd 9fcb 3cbd
000001f0: 58ef 11bd 7f32 b6bd 6065 d7bc 685a 6cbc
00000200: 6687 59bb 3ae5 543c a937 dabc 2ad0 fbbd
00000210: 1211 61bd b2e7 86bd 4fbd 20bd 1323 85bd
00000220: d35f b1bc ac43 8bbd 94f4 c3bc bfde 96bd
00000230: c3fc bebd e7b9 94bd 8b08 d4bd ed01 fcbd
00000240: 6958 54bd 6b7e 6dbd 350f d1bb a006 7cbd
00000250: c131 c1bc df64 71bb 1f3b 6bbe 4cc5 3dbe
00000260: d4f7 83be ad45 44be bde6 66be 8c72 6dbe
00000270: 974f 2fbe 7d95 2fbe c476 50be 46e8 70be
00000280: 87a6 cd3d 3bca 973d 4188 933d 1fab 693c
00000290: fb31 87bc 201f 633d cc4e 953d 73af 0dbd
000002a0: cb59 81bb 10ad c73c 66c4 d93d 6ac7 ba3d
000002b0: 0f6f b53d 4e8e 313d 0ecc 633d 7733 d23b
000002c0: 8dc1 6d3d c2b8 803d 674c da3c 4694 423d
000002d0: 7833 373d c682 a63d 5f92 223d c7a1 f43c
000002e0: 8c12 cd3d 26c9 b13d 5ecf 2c3d 2ca6 ee3d
000002f0: e27d b93d 5b9f 853d 60c1 f0bc 8287 a1bc
00000300: 7371 72bd 19bd 99bc 6306 a5bd 53d0 e1bc
00000310: a240 68bb c019 2abd 5d3a a2bc 27b2 26bd
00000320: 916c 5bbd 1fc6 9b3c 8d58 1a3d 74ee 82bc
00000330: 1967 873d ec76 833b f2bc 453d 64c1 e73c
00000340: be0b e73d e8d8 a33d 2821 eb3c abbc eebb
00000350: a082 503d 6f60 843d 9045 93bc 5cba 213d
00000360: 85e7 b43c a76f 283d 762e 943d 9bd0 a63d
00000370: 7578 ecbd 708e 9fbd 4762 07bd 29f7 97bc
00000380: f2ab 89bd 1cae 8cbd a91c cabc 109d a1bd
00000390: b901 83bd b051 1fbe 83ba 4c3c e29e 1d3d
000003a0: 32b3 7c3c d7ea c03c 2912 5a3d 2117 233c
000003b0: cb3a 193b 616e 813d 4d93 3e3d f164 30bd
000003c0: ea15 323c b084 953c c3c2 98bc eef3 02bc
000003d0: 5569 d83b 79f6 44bd 0935 50ba 53a2 26bd
000003e0: 66be c8bc cfc0 f5bc e83a c53d 4e79 353e
000003f0: 083f 0f3e 9216 083e 73ec d03d 44a2 3c3e

network.0.net.4.bias f4 [32]
-0.14208557 -0.046103302 0.04925127 0.00013411135 0.015570125 -0.041396994 0.25304228 -0.03619526
0.029499924 -0.0138011975 -0.05527615 0.014450434 0.04517674 0.008969561 -0.016720584 0.10576744
0.0095481 0.009776625 0.08105277 0.090754755 -0.011756121 0.21969755 0.3065667 0.008528742
0.05492707 -0.04743598 0.00328848 0.10741002 0.042575072 0.044875085 0.07409972 -0.03959772
00000000: e17e 11be d1d6 3cbd b3bb 493d 3ea0 0c39
00000010: d619 7f3c e58f 29bd c28e 813e 7b41 14bd
00000020: d3a9 f13c 6b1e 62bc 3f69 62bd 83c1 6c3c
00000030: 3f0b 393d 11f5 123c 9bf9 88bc 999c d83d
00000040: a26f 1c3c 232e 203c fffe a53d a1dd b93d
00000050: bf9c 40bc 65f8 603e 4ff6 9c3e 23bc 0b3c
00000060: 35fb 603d 3b4c 42bd 8a83 573b c9f9 db3d
00000070: 3363 2e3d f0ce 373d 98c1 973d 3831 22bd

network.0.net.4.weight_v f4 [32, 32, 10]
-0.0011457151 -0.15227844 -0.17067719 -0.029346954 0.0017683612 -0.15651712 -0.1479981 -0.15866679
-0.20398068 -0.041573808 -0.077804506 -0.0813852 0.018700663 0.0069575342 -0.12398913 -0.07512011
-0.013103189 -0.10623371 -0.10372461 0.015896948 -0.23126599 -0.12282858 -0.16793145 -0.20179008
-0.17718907 -0.16423504 -0.26180083 -0.20866893 -0.18341182 -0.1637343 -0.018982906 -0.104558714
-0.12787975 0.036739714 0.047652803 -0.10406295 -0.12812601 -0.06365848 -0.06286761 -0.02056338
-0.00918951 -0.012085432 0.103082016 -0.029955396 -0.037113678 0.0032953017 -0.008078402 0.07192699
0.08071223 0.05543957 -0.09570073 0.07786989 -0.05310684 -0.11511084 0.061089005 -0.020870721
-0.07435689 0.019003348 -0.10574622 0.062786765 -0.040099606 -0.16892621 -0.1650124 -0.1062965
-0.058865905 -0.09383993 -0.03286361 -0.12529485 -0.11796951 -0.18110447 -0.23620178 -0.18793501
-0.21431047 -0.22868307 -0.21369377 -0.2518321 -0.23819505 -0.23622562 -0.1747325 -0.09594596
-0.001665658 0.072145686 0.04785329 -0.08827969 -0.054462787 -0.075112574 -0.07796458 0.052338697
-0.067100994 -0.09545032 0.04486643 0.050133802 -0.03183516 0.027993465 0.070806086 0.045477133
0.00084603793 -0.08367712 -0.06319517 -0.045836456 -0.1473581 -0.17025858 -0.18051057 0.009290964
-0.008600167 -0.17852063 -0.18596801 0.0152170295 -0.11813362 -0.13781005 -0.12387551 -0.09465173
-0.13670024 -0.12554862 -0.1450607 -0.13070829 -0.12590046 -0.14231648 -0.024893725 -0.1533722
-0.13294075 0.027290808 -0.14369394 -0.09369106 0.0055866856 -0.09321216 -0.10915956 -0.06857613
-0.08887119 0.010258715 -0.11452394 -0.13829195 -0.13597904 -0.1200472 -0.05488935 -0.0731395
-0.1573062 -0.08179844 -0.10362527 -0.1405959 -0.020973975 -0.13417643 -0.13712911 -0.03570633
-0.006775574 -0.11472954 -0.009785357 -0.09025031 -0.07426877 -0.06031296 -0.186363 -0.1260918
-0.17088562 -0.090667374 -0.14587633 -0.17882527 -0.20784155 -0.18240958 -0.14523491 -0.1349492
0.038271043 0.16137137 0.0070081824 0.021015182 0.19931853 0.09682546 -0.009130551 0.058154956
0.025486521 0.15858865 -0.17250091 -0.07899988 -0.04229349 -0.11304436 -0.11532871 -0.08723545
0.06285823 -0.1099358 0.013232163 -0.041597154 -0.14806426 -0.16220924 -0.2395552 -0.15725698
-0.23263328 -0.21116452 -0.24686345 -0.18647552 -0.15950494 -0.15513168 0.021786368 0.04270022
-0.07081507 0.06285885 0.082105935 -0.005776752 0.106624536 0.0050071287 -0.021350646 -0.05228485
-0.117169395 -0.13343142 -0.008039825 -0.09653178 -0.1645172 -0.15134692 0.012101167 0.013978039
-0.12127183 -0.105122715 -0.08670835 -0.16476963 -0.044703163 -0.06820787 -0.15002516 -0.0036833144
-0.085734606 -0.15009063 -0.09298582 -0.11449775 0.11907205 -0.00780224 0.101724625 0.13217796
0.044598967 0.10433288 0.04453491 -0.030554606 0.09344035 0.13724095 -0.13429032 -0.09977772
-0.013257857 -0.18556865 -0.15003228 -0.17657802 -0.17423916 -0.06426768 -0.17273524 -0.03172766
0.08867499 0.017560441 0.12916853 0.13239315 0.0975862 0.10005385 0.017596526 0.03585643
0.110050336 0.10629094 -0.111259 -0.10950113 -0.13638431 -0.12662047 -0.16675304 -0.13696621
00000000: d22b 96ba e1ee 1bbe 00c6 2ebe 0669 f0bc
00000010: 5bc8 e73a 0646 20be d08c 17be 8c79 22be
00000020: 50e0 50be 4c49 2abd f857 9fbd 49ad a6bd
00000030: 2232 993c 07fc e33b 03ee fdbd 92d8 99bd
00000040: c2ae 56bc 0f91 d9bd 916d d4bd 513a 823c
00000050: fed0 6cbe 8d8d fbbd 39f6 2bbe 0fa2 4ebe
00000060: 0d71 35be 3b2d 28be c20a 86be 4fad 55be
00000070: 4fd0 3bbe f7a9 27be 0a82 9bbc e122 d6bd
00000080: e9f2 02be 627c 163d 962f 433d f51e d5bd
00000090: 7733 03be 615f 82bd bcc0 80bd 8974 a8bc
000000a0: 998f 16bc fa01 46bc aa1c d33d 0565 f5bc
000000b0: 8304 18bd fdf5 573b 465b 04bc 754e 933d
000000c0: 744c a53d 9a14 633d bffe c3bd 407a 9f3d
000000d0: 8f86 59bd 3bbf ebbd 7738 7a3d 13f9 aabc
000000e0: 6d48 98bd e9ac 9b3c 7991 d8bd 5996 803d
000000f0: 7c3f 24bd fefa 2cbe 03f9 28be fbb1 d9bd
00000100: 601d 71bd 262f c0bd fe9b 06bd 4b4d 00be
00000110: 009a f1bd 7373 39be e1de 71be 0972 40be
00000120: 3474 5bbe e52b 6abe 8ad2 5abe 23f0 80be
00000130: 67e9 73be 21e5 71be 14ed 32be 517f c4bd
00000140: 3552 daba 1ec1 933d d001 443d fbcb b4bd
00000150: 5f14 5fbd 9fd4 99bd e5ab 9fbd 1a61 563d
00000160: 3f6c 89bd 757b c3bd ddc5 373d 1a59 4d3d
00000170: 9665 02bd 8d52 e53c c802 913d 3b46 3a3d
00000180: a5c8 5d3a e95e abbd 786c 81bd 02bf 3bbd
00000190: 0be5 16be 4458 2ebe c3d7 38be 2139 183c
000001a0: b7e7 0cbc 1dce 36be 666e 3ebe d950 793c
000001b0: 0af0 f1bd 141e 0dbe 72b2 fdbd c4d8 c1bd
000001c0: 26fb 0bbe d18f 00be cb8a 14be 65d8 05be
000001d0: 0dec 00be 69bb 11be eded cbbc 9a0d 1dbe
000001e0: 9f21 08be f990 df3c 8124 13be 19e1 bfbd
000001f0: 8410 b73b 04e6 bebd 0c8f dfbd a471 8cbd
00000200: 1902 b6bd 2b14 283c 878b eabd 689c 0dbe
00000210: 173e 0bbe 4edb f5bd a8d3 60bd 2aca 95bd
00000220: e014 21be f185 a7bd 7c39 d4bd 5ff8 0fbe
00000230: 9dd1 abbc 8c65 09be 936b 0cbe cd40 12bd
00000240: a205 debb 52f7 eabd c352 20bc 28d5 b8bd
00000250: 3a1a 98bd b90a 77bd f1d5 3ebe 351e 01be
00000260: a4fc 2ebe d1af b9bd 9b60 15be f91d 37be
00000270: 6ad4 54be 94c9 3abe 76b8 14be 2030 0abe
00000280: 19c2 1c3d 893e 253e e5a4 e53b 0828 ac3c
00000290: 281a 4c3e 6d4c c63d 4e98 15bc e433 6e3d
000002a0: 1cc9 d03c 1065 223e 14a4 30be b0ca a1bd
000002b0: f03b 2dbd cd83 e7bd 7531 ecbd 80a8 b2bd
000002c0: d1bb 803d 0526 e1bd b7cb 583c c761 2abd
000002d0: 289e 17be 2e1a 26be f54d 75be f907 21be
000002e0: 6b37 6ebe 833b 58be c6c9 7cbe 70f3 3ebe
000002f0: 4355 23be d7da 1ebe 5379 b23c 6de6 2e3d
00000300: 7e07 91bd 24bc 803d 2827 a83d e84a bdbb
00000310: f75d da3d d712 a43b 8de7 aebc a428 56bd
00000320: 82f6 efbd 3fa2 08be 78b9 03bc 74b2 c5bd
00000330: 3277 28be b0fa 1abe f943 463c 2504 653c
00000340: 5d5d f8bd 944a d7bd 2694 b1bd 5fb9 28be
00000350: aa1a 37bd 91b0 8bbd 32a0 19be c363 71bb
00000360: a095 afbd 5cb1 19be 596f bebd cc7d eabd
00000370: 0cdc f33d efa9 ffbb 0055 d03d a959 073e
00000380: 68ad 363d 7aac d53d 3d6a 363d a74d fabc
00000390: a75d bf3d e488 0c3e 6783 09be 4358 ccbd
000003a0: 7c37 59bc b505 3ebe 10a2 19be ded0 34be
000003b0: c06b 32be c69e 83bd 82e1 30be ddf4 01bd
000003c0: 3c9b b53d eada 8f3c c144 043e 1292 073e
000003d0: 46db c73d 08e9 cc3d 9726 903c 31de 123d
000003e0: 1262 e13d 10af d93d c2db e3bd 2142 e0bd
000003f0: 54a8 0bbe cca8 01be 4fc1 2abe df40 0cbe

network.0.downsample.weight f4 [32, 52, 1]
0.0053068968 -0.004266885 0.008194627 0.013081787 -0.09963063 0.014382096 0.00043311223 0.0045730593
-0.006172679 0.00081562763 -0.0041459105 0.03646393 -0.0129968915 -0.005476344 -0.0037987574 -0.0014652289
-0.08142416 -0.016073707 -0.005071331 0.7906294 0.0024108628 -0.00614067 -0.0062063695 -0.0039639818
0.016091341 0.001709185 0.00638349 -0.00042142687 0.0016929971 -0.0019831902 0.0030227099 -0.07752559
0.008521007 -0.00963109 0.0149396965 -0.0017617616 0.12741838 -0.3583194 0.0035548 -0.004815372
-0.20701572 -9.082994e-05 0.0034989703 -0.00010356646 0.007308662 0.0038600895 -0.0056222114 0.0016132657
-0.0030452213 0.0013527231 0.0014654273 0.006482028 0.056588374 -0.12553617 0.0219825 0.04637839
0.03899776 -0.061991975 -0.023108464 -0.04944925 0.03555079 0.025917089 -0.029122012 0.09247525
-0.013584713 0.0021464245 0.019919222 0.013923765 0.031742506 -0.022129752 -0.051806558 0.17626093
0.011664853 -0.004088457 -0.038134146 -0.077153765 -0.036437374 0.047512498 -0.095729046 0.039129607
0.03197581 0.052584752 -0.024778688 -0.040482517 0.02841589 -0.0055863895 0.06666742 0.059261143
0.044608373 -0.10218348 0.025275705 -0.072551176 -0.009892293 -0.04482395 0.039060757 0.046245225
-0.023838425 0.12978308 0.022002693 0.03874364 -0.018409034 -0.09514035 0.05457663 -0.009177717
0.010567516 -0.044262573 -0.10850032 -0.067091055 -0.0034421214 0.05259467 -0.045164436 -0.00031768455
0.01711946 -0.031566255 -0.013944285 0.06036677 -0.024121065 0.025451403 0.0072223786 0.0527744
0.069317214 -0.09418089 0.040131144 0.19017325 -0.043136053 -0.034250036 -0.008835683 -0.044644173
-0.053279378 -0.04966039 -0.030633695 0.1371039 -0.01603247 -0.043138947 0.05755104 0.04503633
0.024239933 0.09815929 0.026572296 0.010720769 -0.0025140243 -0.02384464 -0.037290704 -0.016649542
-0.034849755 -0.0814743 -0.027081156 -0.049099773 -0.0339575 -0.20614444 -0.022297943 0.06298188
0.037080403 -0.015023662 0.008257826 -0.02516139 0.00039903715 -0.15972449 0.0068582864 0.035256412
0.17178798 0.058294192 0.06559658 0.13179061 0.01982089 0.0093433745 -0.0089258235 0.23996958
-0.13738263 0.017127 0.021617431 -0.022794329 -0.0804246 -0.010666438 0.01338766 0.027158886
0.022585448 -0.014305441 -0.016247239 -0.08445576 -0.029563705 0.07644892 -0.073164485 0.012837529
0.0022586742 0.024582502 0.0005370833 0.0064048087 -0.021377701 0.17338762 0.002657325 0.007188418
-0.10351539 0.15347235 -0.07626282 -0.010468857 -0.23299193 -0.016419066 0.015775332 0.03612662
0.013941634 0.035721436 0.026389014 0.017610084 -0.025364809 -0.018087449 0.0056610764 0.0022796062
0.009261413 0.015104949 -0.008866203 -0.0069770785 0.012798795 -0.04441874 -0.07150733 0.013932203
0.031979177 0.040320553 -0.0009712933 0.056839194 -0.14901365 0.0056762435 0.024315178 -0.01836442
-0.18543912 -0.0077071222 0.0066400203 0.051986217 0.010168912 0.055265054 0.064968094 -0.015827298
0.025129955 -0.0009866509 -0.03222799 0.0015389792 0.036253504 -0.061970674 -0.053955834 -0.00711079
-0.0021250455 0.022742122 0.017473647 -0.045937184 0.09465394 0.075579725 0.006861444 -0.0034418588
-0.03823164 -0.07533501 0.0038542873 -0.014728687 0.15413916 -0.0028552718 -0.037370875 0.0070113777
00000000: 7ae5 ad3b 3ad1 8bbb c242 063c fe54 563c
00000010: 250b ccbd e2a2 6b3c 5713 e339 9ad9 953b
00000020: 2f44 cabb d8cf 553a 6bda 87bb 345b 153d
00000030: eaf0 54bc e772 b3bb 93f4 78bb ec0c c0ba
00000040: b6c1 a6bd 02ad 83bc 682d a6bb b066 4a3f
00000050: 91ff 1d3b ac37 c9bb cd5e cbbb 4ae4 81bb
00000060: fdd1 833c bb06 e03a 982c d13b f5f2 dcb9
00000070: 8ee7 dd3a 69f8 01bb a818 463b bdc5 9ebd
00000080: b29b 0b3c b8cb 1dbc a1c5 743c e9ea e6ba
00000090: f779 023e a475 b7be a6f7 683b 45ca 9dbb
000000a0: eefb 53be f47b beb8 fb4e 653b d231 d9b8
000000b0: 807d ef3b 8ef9 7c3b 873a b8bb 3774 d33a
000000c0: 5692 47bb db4d b13a 9513 c03a 3167 d43b
000000d0: 36c9 673d 8e8c 00be a514 b43c 44f7 3d3d
000000e0: 1dbc 1f3d 4ceb 7dbd f64d bdbc 4c8b 4abd
000000f0: b59d 113d 1350 d43c 4991 eebc aa63 bd3d
00000100: 6b92 5ebc 07ab 0c3b a32d a33c 8120 643c
00000110: 6e04 023d 7449 b5bc 1d33 54bd bf7d 343e
00000120: f11d 3f3c 77f8 85bb 8d32 1cbd cb02 9ebd
00000130: 5b3f 15bd 779c 423d 970d c4bd 5e46 203d
00000140: 11f9 023d 1c63 573d adfc cabc ffd0 25bd
00000150: 71c8 e83c 080e b7bb ee88 883d d0bb 723d
00000160: 45b7 363d 9345 d1bd ff0e cf3c b695 94bd
00000170: 4913 22bc 5199 37bd 2cfe 1f3d a26b 3d3d
00000180: cd48 c3bc dbe5 043e fe3e b43c a7b1 1e3d
00000190: 8bce 96bc f2d8 c2bd bf8b 5f3d 235e 16bc
000001a0: 6023 2d3c ac4c 35bd 6a35 debd 0967 89bd
000001b0: 3795 61bb 826d 573d 58fe 38bd e68e a6b9
000001c0: 1c3e 8c3c 9e4b 01bd 9276 64bc 2543 773d
000001d0: 8a99 c5bc 767f d03c b4a9 ec3b f829 583d
000001e0: 2ff6 8d3d e9e1 c0bd 8e60 243d c7bc 423e
000001f0: 6eaf 30bd c449 0cbd 8ac3 10bc cfdc 36bd
00000200: 7a3b 5abd b168 4bbd 84f3 fabc f764 0c3e
00000210: 8756 83bc 77b2 30bd a4ba 6b3d 0478 383d
00000220: d392 c63c bd07 c93d 25ae d93c 2aa6 2f3c
00000230: 54c2 24bb d655 c3bc 23be 18bd 9f64 88bc
00000240: 9ebe 0ebd ffdb a6bd 4dd9 ddbc d81c 49bd
00000250: 0517 0bbd 8717 53be 2daa b6bc a5fc 803d
00000260: 9fe1 173d ce25 76bc d54b 073c 421f cebc
00000270: dc35 d139 d18e 23be 7abb e03b 0769 103d
00000280: 30e9 2f3e e4c5 6e3d 8057 863d 1ef4 063e
00000290: 6b5f a23c f414 193c 9e3d 12bc 96ba 753e
000002a0: 08ae 0cbe ec4d 8c3c 0a17 b13c 2cbb babc
000002b0: a7b5 a4bd 49c2 2ebc ea57 5b3c 507c de3c
000002c0: 1e05 b93c 5e61 6abc ee18 85bc 24f7 acbd
000002d0: 952f f2bc 4091 9c3d 43d7 95bd 8054 523c
000002e0: 4406 143b 3e61 c93c 0dcb 0c3a 6edf d13b
000002f0: 4a20 afbc 868c 313e 8426 2e3b d28c eb3b
00000300: e0ff d3bd db27 1d3e ae2f 9cbd 9285 2bbc
00000310: 7095 6ebe 4781 86bc 453b 813c 82f9 133d
00000320: 746b 643c a450 123d c62d d83c 0643 903c
00000330: dcc9 cfbc 212c 94bc 8d80 b93b 7265 153b
00000340: 2ebd 173c bf7a 773c 8d43 11bc fa9f e4bb
00000350: 09b2 513c 6df0 35bd 6f72 92bd e543 643c
00000360: 99fc 023d 2a27 253d 649e 7eba 37d0 683d
00000370: 0997 18be c8ff b93b a030 c73c fb70 96bc
00000380: c1e3 3dbe 078c fcbb 8794 d93b 80ef 543d
00000390: 829b 263c 9c5d 623d fe0d 853d 40a8 81bc
000003a0: 56dd cd3c 8352 81ba 7f01 04bd 93b7 c93a
000003b0: 8e7e 143d f6d4 7dbd cb00 5dbd a101 e9bb
000003c0: 5944 0bbb b04d ba3c e524 8f3c a128 3cbd
000003d0: edd9 c13d 8bc9 9a3d f7d5 e03b cf90 61bb
000003e0: c898 1cbd 3e49 9abd 3698 7c3b 9750 71bc
000003f0: a8d6 1d3e 831f 3bbb 3412 19bd b3bf e53b

network.0.downsample.bias f4 [32]
-0.026812427 0.08071713 -0.26921457 -0.07649091 -0.4106247 -0.15388115 -0.016538817 -0.30380544
-0.068324864 -0.27732596 -0.038634118 0.11938326 -0.010197288 -0.006962455 0.19681646 0.08318641
-0.43026876 0.07169299 0.018905723 -0.11221138 -0.40717158 -0.13890122 -0.15990765 -0.07510125
-0.30003697 -0.268076 0.05551654 0.1060761 -0.20084205 -0.16624328 -0.3198804 0.26553595
00000000: bca5 dbbc 064f a53d 7ed6 89be 44a7 9cbd
00000010: 673d d2be 0593 1dbe 6a7c 87bc 638c 9bbe
00000020: e8ed 8bbd abfd 8dbe cf3e 1ebd 367f f43d
00000030: 8712 27bc 4e25 e4bb 418a 493e a35d aa3d
00000040: 304c dcbe c6d3 923d 2de0 9a3c 14cf e5bd
00000050: cb78 d0be 1f3c 0ebe d5be 23be afce 99bd
00000060: 729e 99be 4241 89be 5065 633d 6d3e d93d
00000070: 8aa9 4dbe ae3b 2abe 5dc7 a3be 54f4 873e

network.1.conv1.bias f4 [32]
0.052758377 0.018921113 -0.24587059 -0.16557145 0.048536085 0.034240257 0.026693694 0.031769913
0.04049289 -0.14573288 0.022399323 0.040225677 0.079134054 -0.06117889 0.009572804 -0.014005738
0.05435408 -0.015635082 0.019378018 0.023540106 -0.0058498024 0.05244125 0.023918092 -0.10150139
-0.010288167 0.019591931 0.013287215 0.011208775 -0.0077962074 -0.046122976 0.0433807 -0.027531302
00000000: 2b19 583d 7300 9b3c 80c5 7bbe 908b 29be
00000010: c6cd 463d 833f 0c3d bcac da3c 2b21 023d
00000020: dfdb 253d 003b 15be c97e b73c aec3 243d
00000030: 0911 a23d b796 7abd 40d7 1c3c 5378 65bc
00000040: 62a2 5e3d 2515 80bc a6be 9e3c 2ed7 c03c
00000050: b3af bfbb a3cc 563d e0ef c33c f6df cfbd
00000060: b38f 28bc 427f a03c 9eb2 593c 03a5 373c
00000070: 5477 ffbb 72eb 3cbd f6af 313d 5389 e1bc

network.1.conv1.weight_v f4 [32, 32, 10]
0.05514965 -0.030752901 -0.016346509 0.015006698 -0.049126804 0.03492263 0.06363498 0.024201045
-0.016116206 -0.084835336 0.09711619 0.0758496 0.009566724 0.051470745 0.031361327 0.000854864
0.05265016 0.0069821062 0.05994545 -0.056173977 -0.056359492 -0.051573157 -0.07671678 -0.0549241
-0.06197663 -0.13556044 -0.058828004 -0.048573837 -0.086303204 -0.14694335 0.048811812 0.06642327
0.049563885 0.03664806 0.025792796 -0.062760025 -0.0885187 -0.054559268 -0.054495826 -0.023152776
-0.0010375063 0.005507332 -0.01700089 -0.03648631 -0.02221557 -0.023060158 -0.028245226 -0.025561195
-0.111273535 -0.12346696 -0.071201 0.0001245873 0.0036694536 -0.021586005 0.015180023 0.0038378758
-0.015886476 -0.035296384 -0.05566519 -0.0750712 -0.061703783 -0.015318995 -0.04196145 0.00680072
-0.008730997 -0.014576776 -0.085869595 -0.109888814 -0.08498671 -0.15710998 -0.031807687 -0.028881606
-0.0032170455 -0.04159668 -0.086207315 -0.06514068 -0.039600354 -0.091387816 -0.18633032 -0.19639911
0.035460997 -0.024847135 0.010844786 -0.02874852 -0.017363038 0.033545975 0.018951572 0.041879326
-0.004090952 0.011374354 0.037456095 -0.006964005 0.0033818148 0.0041689714 -0.021705141 -0.08467903
-0.08341752 -0.061339203 -0.09199543 -0.10393702 0.13961124 0.047347132 0.049208254 -0.011908801
-0.010369693 -0.021516334 0.0050226343 -0.03782758 -0.01750002 -0.10936889 0.022340436 0.026339985
0.06411733 0.022998394 0.02633926 0.063362375 0.009640889 0.026686797 0.03718445 0.004214784
0.12099782 0.07347026 0.084951796 0.04198603 -0.005220245 0.01913549 -0.042439424 0.0016152163
-0.06944096 -0.0971216 0.15103048 0.048489727 -0.008318309 0.04969604 -0.0017197881 0.00022260768
-0.026323577 -0.048696283 -0.092780985 -0.12261711 -0.025778666 0.01264832 0.0039491337 0.008945584
-0.069283105 -0.056465067 -0.025066439 -0.06413134 -0.09549983 -0.09899472 0.051106438 0.004988043
-0.024556147 -0.036227297 0.014549788 0.008446551 0.021851389 0.055829428 0.0027113582 -0.0357012
-0.13752235 -0.11171881 -0.079493225 -0.1108718 -0.07925225 -0.09454554 -0.090314835 -0.10994362
-0.18327402 -0.22260003 0.02842783 -0.020318214 0.025084637 -0.03634284 -0.049330942 -1.9548861e-05
0.0700001 0.04024341 0.014519725 0.08110641 0.039622344 0.07189911 -0.0176165 0.055867095
0.057064988 0.01471756 0.100154094 0.01115297 0.044218533 -0.024177792 -0.059394244 0.017000023
0.04281932 -0.02387361 -0.03463683 -0.0410157 0.009185729 -0.006490132 -0.04820933 -0.08156881
-0.025377113 -0.0058421125 -0.059308406 -0.042461928 -0.04597861 -0.049916934 -0.10076113 -0.13268329
-0.18807332 -0.29742518 -0.1524892 -0.069635734 -0.05997857 -0.052335747 -0.03641557 -0.0081786
0.004559799 0.024924278 0.031235639 -0.0015890215 -0.40072832 -0.29864168 -0.18802083 -0.12901625
-0.11680933 -0.102952965 -0.096619815 -0.0778107 -0.038051154 -0.076508515 0.20407978 0.094634086
0.013054413 0.031285323 0.05783032 0.048479736 0.040006362 -0.0017058566 -0.015138463 -0.031207897
0.039791152 -0.02800832 0.022502253 0.0018003734 -0.029571302 0.0073265983 -0.026197502 0.0080568595
0.027408442 -0.015344763 -0.14593457 -0.13808228 -0.12974913 -0.15215863 -0.13102902 -0.12274633
00000000: 99e4 613d 82ed fbbc 1de9 85bc a7de 753c
00000010: 3039 49bd 080b 0f3d 0e53 823d 4541 c63c
00000020: 2206 84bc 26be adbd dae4 c63d 0957 9b3d
00000030: c0bd 1c3c fdd2 523d bc74 003d f418 603a
00000040: b2a7 573d 27ca e43b 5c89 753d af16 66bd
00000050: 36d9 66bd 603e 53bd b01d 9dbd 18f8 60bd
00000060: 35db 7dbd 5bd0 0abe a2f5 70bd 5cf5 46bd
00000070: bcbf b0bd 5178 16be e5ee 473d ec08 883d
00000080: 8003 4b3d 471c 163d 6a4b d33c 5488 80bd
00000090: 4b49 b5bd 8a79 5fbd 0437 5fbd e4aa bdbc
000000a0: effc 87ba d976 b43b 7345 8bbc ab72 15bd
000000b0: 6dfd b5bc a8e8 bcbc 8862 e7bc b665 d1bc
000000c0: 61e3 e3bd 3fdc fcbd d4d1 91bd a6a3 0239
000000d0: 377b 703b 22d5 b0bc a2b5 783c df84 7b3b
000000e0: 5b24 82bc f192 10bd 2f01 64bd eebe 99bd
000000f0: 1bbd 7cbd 86fc 7abc c5df 2bbd 93d8 de3b
00000100: 750c 0fbc 6ed3 6ebc 66dc afbd 630d e1bd
00000110: 830d aebd 70e1 20be c748 02bd 1e99 ecbc
00000120: 11d5 52bb 4861 2abd 768d b0bd 7a68 85bd
00000130: fb33 22bd 8929 bbbd 60cd 3ebe d91c 49be
00000140: 8d3f 113d 388c cbbc 54ae 313c 0482 ebbc
00000150: ee3c 8ebc 8167 093d 5440 9b3c a889 2b3d
00000160: 650d 86bb 805b 3a3c 906b 193d 4f32 e4bb
00000170: 70a1 5d3b de9b 883b fbce b1bc 336c adbd
00000180: ced6 aabd d13e 7bbd 1a68 bcbd efdc d4bd
00000190: 40f6 0e3e 11ef 413d 988e 493d 221d 43bc
000001a0: a5e5 29bc 0643 b0bc e994 a43b 18f1 1abd
000001b0: 345c 8fbc ccfc dfbd 4a03 b73c f4c6 d73c
000001c0: f24f 833d 2167 bc3c 6fc5 d73c 22c4 813d
000001d0: d2f4 1d3c 459e da3c b94e 183d 2c1c 8a3b
000001e0: b4cd f73d 9377 963d 35fb ad3d 8bf9 2b3d
000001f0: 970e abbb 08c2 9c3c f6d4 2dbd aab5 d33a
00000200: 1037 8ebd b0e7 c6bd bca7 1a3e 2a9d 463d
00000210: 8449 08bc 138e 4b3d 836a e1ba cb6b 6939
00000220: 8ba4 d7bc c175 47bd f503 bebd ae1e fbbd
00000230: c82d d3bc e63a 4f3c bc67 813b 8090 123c
00000240: 4de4 8dbd ea47 67bd 2258 cdbc 4b57 83bd
00000250: 6a95 c3bd bebd cabd fc54 513d bd72 a33b
00000260: f929 c9bc 1363 14bd 3c62 6e3c 6763 0a3c
00000270: af01 b33c 66ad 643d 0bb1 313b 6c3b 12bd
00000280: a9d2 0cbe d5cc e4bd 58cd a2bd c110 e3bd
00000290: 014f a2bd 18a1 c1bd fcf6 b8bd 1f2a e1bd
000002a0: 2fac 3bbe 43f1 63be 7be1 e83c 6272 a6bc
000002b0: 4c7e cd3c 3bdc 14bd 3e0f 4abd dcfc a3b7
000002c0: 365c 8f3d 46d6 243d 24e4 6d3c 1e1b a63d
000002d0: 0a4b 223d d73f 933d 7a50 90bc e5d4 643d
000002e0: fabc 693d ec21 713c 971d cd3d f2ba 363c
000002f0: 7e1e 353d 8110 c6bc 6147 73bd a243 8b3c
00000300: 5063 2f3d 9792 c3bc 59df 0dbd 1400 28bd
00000310: bd7f 163c 2cab d4bb 2577 45bd 8c0d a7bd
00000320: aae3 cfbc 316f bfbb 5fed 72bd 8fec 2dbd
00000330: 1154 3cbd b375 4cbd da5b cebd 21de 07be
00000340: 4b96 40be 1d48 98be 2126 1cbe 2e9d 8ebd
00000350: 17ac 75bd 025e 56bd 7e28 15bd 89ff 05bc
00000360: 5e6a 953b 002e cc3c e2e1 ff3c b746 d0ba
00000370: 432c cdbe 90e7 98be 8888 40be d61c 04be
00000380: bb39 efbd 01d9 d2bd 9ce0 c5bd 375b 9fbd
00000390: 87db 1bbd 7fb0 9cbd 4afa 503e 84cf c13d
000003a0: 2de2 553c 0a25 003d 7cdf 6c3d b092 463d
000003b0: b6dd 233d 0d97 dfba 5107 78bc b4a7 ffbc
000003c0: 0cfc 223d b471 e5bc a556 b83c 82fa eb3a
000003d0: 843f f2bc f613 f03b 259c d6bc eb00 043c
000003e0: ab87 e03c 9a68 7bbc df6f 15be 7165 0dbe
000003f0: f5dc 04be 79cf 1bbe 792c 06be 6e62 fbbd

network.1.conv2.bias f4 [32]
0.03398229 0.08222313 0.076304324 0.056812443 0.063296705 0.09553115 -0.029164448 0.06988699
0.07529813 0.07128517 0.107189886 0.07630945 0.068366274 -0.16247414 0.058231063 -0.17405184
0.06567198 0.06683286 0.060941722 0.078718595 0.026400153 -0.124705836 -0.19149725 0.09608361
0.08270715 0.07236836 0.08558819 -0.22754593 0.083706945 0.07701562 0.05368695 0.06535062
00000000: 0431 0b3d 9a64 a83d 7145 9c3d 2ab4 683d
00000010: b4a1 813d d6a5 c33d 48ea eebc e920 8f3d
00000020: e835 9a3d f6fd 913d 5f86 db3d 2148 9c3d
00000030: 9e03 8c3d 9f5f 26be b283 6e3d a53a 32be
00000040: 087f 863d abdf 883d 079e 793d 3737 a13d
00000050: 2245 d83c c665 ffbd db17 44be 7cc7 c43d
00000060: 5e62 a93d dd35 943d dc48 af3d cd01 69be
00000070: 8c6e ab3d 5eba 9d3d d9e6 5b3d 8cd6 853d

network.1.conv2.weight_v f4 [32, 32, 10]
0.10257927 0.0720692 0.04725491 0.020166496 0.042059466 -0.0036869678 0.055162888 0.019656904
0.014133981 -0.024404509 -0.025684467 -0.0123028895 -0.008936112 -0.031198567 -0.008691003 0.020186638
0.07952138 0.08737427 0.15334487 0.25450835 -0.1153634 -0.09432955 -0.08780517 -0.091837496
-0.047941655 -0.05590465 -0.017660137 -0.011884057 -0.0048092594 0.010983135 -0.0017523969 -0.022237426
-0.016481422 0.0013872959 -0.008805738 -0.005513474 -0.029694369 -0.018772103 -0.05831299 -0.04052688
0.081280775 0.016419612 0.020114059 0.0068254136 0.04107158 0.08676022 0.039052848 0.06416874
0.101332024 0.05158644 -0.15792592 -0.113067776 -0.08967894 -0.07497122 -0.06597795 -0.04932641
-0.045096915 -0.08885512 -0.13583097 -0.2520076 0.063614175 -0.012477715 0.043310065 0.038087163
0.037338197 0.044372685 0.001319191 0.045810036 0.0031787667 0.05171688 -0.11894936 -0.09107488
-0.062100504 -0.06676663 -0.05693501 -0.058994666 -0.043757387 -0.06292579 -0.08646529 -0.17359422
-0.09849431 -0.08567453 -0.057452474 -0.05543402 -0.04921162 -0.033160042 -0.03261934 -0.019509427
-0.005995236 0.10972484 -0.10049671 -0.08425281 -0.0727047 -0.07206428 -0.064267285 -0.07014585
-0.079409726 -0.09539933 -0.12527256 -0.1620462 -0.11307618 -0.07195961 -0.041071814 -0.030307956
-0.0067884205 0.0015528592 0.020449124 0.006700266 -0.048548475 -0.15930298 -0.13143957 -0.10912977
-0.08253981 -0.06413225 -0.053195264 -0.059052788 -0.04969792 -0.07378055 -0.10225413 -0.13839552
-0.081687815 -0.11444373 -0.07231206 -0.088512436 -0.071853295 -0.065811455 -0.075778835 -0.041387822
-0.007881472 0.05734241 0.03753548 0.017501686 0.010705925 -0.0021001366 -0.0038706444 -0.036969334
-0.020630507 -0.009631394 0.0038390849 0.022000847 0.033433124 0.058836043 0.043641444 -0.0051333504
0.028577443 0.034861248 0.027664455 -0.0030156043 0.031904154 0.032759994 0.019819636 0.056286857
0.02893524 0.033464473 0.0002934673 0.006008252 -0.03372069 -0.06364253 -0.069575965 -0.066444375
0.08669582 0.04235962 0.03515013 0.023941856 0.0066010524 0.009946906 -0.011169997 0.0067993044
0.008500643 -0.015267884 -5.864365e-39 3.2794383e-38 3.091798e-39 -5.850369e-39 5.331084e-39 2.0333705e-38
-4.946696e-39 2.5475217e-38 5.580985e-39 -3.015963e-39 -0.057392336 -0.039008554 -0.07105866 -0.058526386
-0.045766596 0.0038490123 -0.01539932 0.037133656 0.04320942 0.19478662 0.09101296 0.04750957
0.028630529 0.039780293 0.04495698 0.0062967613 0.04927885 0.06688837 0.03167993 0.14428206
0.06336729 0.064112246 0.04689859 0.032444853 0.014424724 0.031154117 0.061529476 0.10322164
0.07961118 0.15713449 -0.051110532 -0.018138742 -0.02521725 -0.0104900235 0.008514149 0.012703925
0.0009590094 0.051951345 0.085248455 0.3556253 0.06990551 0.013976644 0.03891938 0.0259764
0.059874736 0.047247596 0.06075109 0.06319252 0.07199021 0.0155665865 0.06992303 0.081776805
0.034895875 0.018372335 0.06135917 0.03448316 0.0042445445 -0.02124197 -0.003987241 -0.05624109
-0.037618272 -0.046704542 -0.022028163 -0.025948973 -0.019417344 -0.0008928389 0.030785207 0.055854056
0.02197611 0.17905216 0.10441196 0.11039886 0.09157595 0.10410126 0.1082146 0.11168167
00000000: 1515 d23d 0499 933d 5d8e 413d 3534 a53c
00000010: 8c46 2c3d 0ea1 71bb 7bf2 613d 8407 a13c
00000020: 3792 673c f7eb c7bc 3b68 d2bc 0f92 49bc
00000030: c568 12bc 2394 ffbc b564 0ebc 735e a53c
00000040: 1bdc a23d 48f1 b23d 7006 1d3e eb4e 823e
00000050: a543 ecbd da2f c1bd 32d3 b3bd 4c15 bcbd
00000060: 785e 44bd 46fc 64bd feab 90bc 59b5 42bc
00000070: fe96 9dbb 9bf2 333c afb0 e5ba 432b b6bc
00000080: 0c04 87bc edd5 b53a f145 10bc 5faa b4bb
00000090: 9b41 f3bc f4c7 99bc 9ad9 6ebd 84ff 25bd
000000a0: 8976 a63d 6c82 863c 3dc6 a43c b8a7 df3b
000000b0: ac3a 283d 58af b13d e1f5 1f3d e66a 833d
000000c0: 2a87 cf3d 4e4c 533d 55b7 21be 1490 e7bd
000000d0: 98a9 b7bd 838a 99bd 731f 87bd 7d0a 4abd
000000e0: 8bb7 38bd acf9 b5bd 4617 0bbe 2407 81be
000000f0: 2648 823d 546f 4cbc e565 313d 4901 1c3d
00000100: f0ef 183d 22c0 353d b4e8 ac3a 4ea3 3b3d
00000110: db52 503b 14d5 533d b99b f3bd 7785 babd
00000120: 195d 7ebd f1bc 88bd af34 69bd 64a4 71bd
00000130: f23a 33bd 3ddf 80bd b714 b1bd afc2 31be
00000140: 63b7 c9bd 2176 afbd 4953 6bbd c80e 63bd
00000150: 2092 49bd d3d2 07bd db9b 05bd 3cd2 9fbc
00000160: af73 c4bb 6bb7 e03d 38d1 cdbd bd8c acbd
00000170: 34e6 94bd 7096 93bd 919e 83bd a1a8 8fbd
00000180: 91a1 a2bd b960 c3bd 7347 00be 70ef 25be
00000190: 7c94 e7bd 8f5f 93bd eb3a 28bd 6448 f8bc
000001a0: 6671 debb 4f89 cb3a ec84 a73c e88d db3b
000001b0: c4da 46bd 5220 23be 1898 06be 6e7f dfbd
000001c0: a20a a9bd c557 83bd 47e3 59bd 56e1 71bd
000001d0: 0c90 4bbd 421a 97bd 9d6a d1bd 8eb7 0dbe
000001e0: f14b a7bd 7961 eabd 5818 94bd 0246 b5bd
000001f0: d227 93bd 28c8 86bd ef31 9bbd 4786 29bd
00000200: 4a21 01bc e0df 6a3d cebe 193d b25f 8f3c
00000210: e767 2f3c 72a2 09bb a3aa 7dbb 286d 17bd
00000220: 4f01 a9bc ffcc 1dbc 2899 7b3b 1f3b b43c
00000230: 2cf1 083d 10fe 703d 5fc1 323d aa35 a8bb
00000240: 3e1b ea3c abca 0e3d 91a0 e23c 72a1 45bb
00000250: eead 023d 582f 063d ca5c a23c 0c8d 663d
00000260: 9909 ed3c 0b12 093d 84dc 9939 dfe0 c43b
00000270: b51e 0abd 0457 82bd d87d 8ebd fd13 88bd
00000280: 948d b13d 4881 2d3d 95f9 0f3d b621 c43c
00000290: a44d d83b 59f8 223c 5d02 37bc b3cc de3b
000002a0: 4846 0b3c 2626 7abc 77db 3f80 b38c 3201
000002b0: adaa 2100 73b4 3f80 e50c 3a00 196a dd00
000002c0: 60dd 3580 45b3 0a01 84c5 3c00 47d7 2080
000002d0: 3a14 6bbd 6fc7 1fbd 3487 91bd 5db9 6fbd
000002e0: c175 3bbd b63f 7c3b 6e4d 7cbc 7619 183d
000002f0: 5cfc 303d 2576 473e 0165 ba3d 6599 423d
00000300: 928a ea3c a9f0 223d cf24 383d 1055 ce3b
00000310: 9fd8 493d c5fc 883d d0c2 013d adbe 133e
00000320: b6c6 813d 484d 833d bc18 403d e5e4 043d
00000330: ad55 6c3c eb36 ff3c 5506 7c3d de65 d33d
00000340: 300b a33d dde7 203e 4759 51bd b397 94bc
00000350: 6894 cebc 59de 2bbc ee7e 0b3c 2024 503c
00000360: 0866 7b3a efca 543d be96 ae3d 8514 b63e
00000370: 9f2a 8f3d 4bfe 643c ee69 1f3d 76cc d43c
00000380: 363f 753d b286 413d 23d6 783d 146b 813d
00000390: 9a6f 933d ff0a 7f3c ce33 8f3d 997a a73d
000003a0: faee 0e3d 9481 963c c153 7b3d 373e 0d3d
000003b0: d215 8b3b a403 aebc 67a7 82bb 0f5d 66bd
000003c0: 9e15 1abd 434d 3fbd 6874 b4bc f192 d4bc
000003d0: 1f11 9fbc 680d 6aba 4231 fc3c 39c7 643d
000003e0: 3e07 b43c 7359 373e f0d5 d53d cc18 e23d
000003f0: 2c8c bb3d 0b33 d53d 9e9f dd3d 5cb9 e43d
