kf/miiv/miiv_kf_TCN_repetition_0_fold_0_model.ckpt (torch, 581853 bytes, 73 tensors)

network.0.conv1.bias f4 [33]
0	0x3cbbab1e	0.022908743
1	0xbcfc0e0d	-0.030768419
2	0xbcb7abd3	-0.0224208
3	0x3c737f62	0.014861913
4	0x3d02023d	0.031740416
5	0xbd169d78	-0.036771268
6	0xbc9cf6b6	-0.01916061
7	0x3c8a2024	0.016861029
8	0x3becf7cb	0.0072316877
9	0xbca1d192	-0.019753251
10	0xbcce10a3	-0.025154417
11	0x3ceee94e	0.029163983
12	0xbd0073dd	-0.031360496
13	0xbd05c8cb	-0.032662194
14	0xbc22dc6f	-0.009940251
15	0x3cc0853e	0.023501035
16	0x3c0ab3b5	0.008465697
17	0xbab72a4a	-0.0013974395
18	0x3b833df8	0.00400519
19	0xbc19ad6c	-0.009379726
20	0xbd1322ce	-0.035921864
21	0xbc828eb4	-0.015937187
22	0xbb902234	-0.0043986086
23	0x3ca0e730	0.019641489
24	0xbc2cb80b	-0.010541926
25	0xbb91630b	-0.0044368557
26	0x3c5ea2c4	0.013588611
27	0xbb3ac8fd	-0.0028501146
28	0xbca25724	-0.019816943
29	0xbc25c687	-0.010118133
30	0xbd0c54a1	-0.034260396
31	0xbcdfe68a	-0.02733161
32	0xbce6aa5a	-0.028157402

network.0.conv1.weight_v f4 [33, 292, 2]
0	0x3d1db0ba	0.038498618
1	0x3c0fbceb	0.008773069
2	0xbb48dacf	-0.0030647998
3	0x3d1d09db	0.038339477
4	0xb96e6435	-0.00022734779
5	0x3cd26743	0.025684005
6	0xbc8f7b29	-0.017514782
7	0x3d275d41	0.04086042
8	0x3d0a1501	0.033711437
9	0x3cae07de	0.021243986
10	0xbc225e4e	-0.009910179
11	0xbc11869e	-0.008882193
12	0x3cf0b22d	0.029381836
13	0x3cb4218e	0.021988656
14	0x3ce04de6	0.027380895
15	0xbc8e45e9	-0.01736732
16	0xbc2ccb77	-0.010546557
17	0xbd2dc87a	-0.042427517
18	0xbc9bd3f9	-0.019021975
19	0xbcf3e0bc	-0.029770248
20	0xbc845435	-0.016153434
21	0x3cadaf56	0.02120177
22	0x3c9f8c04	0.019475944
23	0x3cb07fde	0.021545347
24	0xbc1f87b4	-0.009736944
25	0xbc50e849	-0.012750694
26	0xbc5e2178	-0.013557784
27	0xbcc6b96e	-0.024258342
28	0xbc9e48fa	-0.019321907
29	0x3ca4f97e	0.020138498
30	0x3c2b7d3b	0.010466869
31	0xbcd34aa3	-0.025792425
32	0x3ca5b851	0.02022949
33	0xbcc73077	-0.024315102
34	0xbd2cad1e	-0.042157285
35	0xbd1e593b	-0.038659316
36	0x3c407765	0.011747216
37	0xbd17bf46	-0.037047647
38	0xbcf43388	-0.029809728
39	0x3ca46646	0.020068299
40	0xbc516911	-0.012781397
41	0x3d062fce	0.032760434
42	0xbd127eda	-0.035765506
43	0xbd20d0f3	-0.03926177
44	0xbd2818ee	-0.0410394
45	0x3cf2a31c	0.029618792
46	0x3d1af1ce	0.03782826
47	0x3d1ea451	0.038730923
48	0x3d01229b	0.031527143
49	0xbc541257	-0.012943826
50	0xbcc6ea2a	-0.02428158
51	0xbcfe32ac	-0.031030022
52	0xbcdbbf8e	-0.026824739
53	0xbcd8365e	-0.026393112
54	0xbcf03d86	-0.029326212
55	0xbcb7a2cd	-0.022416497
56	0x3c1e9ea5	0.0096813785
57	0x3d2452ea	0.040118136
58	0xbcc06c16	-0.02348904
59	0x3cf5ee9d	0.030021006
60	0xbd1ff8eb	-0.039055746
61	0x3cdaa13e	0.026688214
62	0x3cbe4070	0.023224086
63	0x3beeadc1	0.0072838967
64	0xbc2b13b5	-0.01044171
65	0xbcc30507	-0.023806108
66	0xbd2049d3	-0.039132904
67	0x3d2423ed	0.040073324
68	0x3ca5a568	0.020220473
69	0xbce97240	-0.028496861
70	0x3cde2727	0.027118279
71	0xbd19a6b4	-0.037512496
72	0xbc2649de	-0.010149447
73	0x3c83f0fa	0.016106118
74	0x3cd498e9	0.02595182
75	0x3ba87557	0.005140941
76	0xbc4e8e61	-0.012607188
77	0xba94d2d5	-0.0011354337
78	0xbc8aa258	-0.016923115
79	0xbc8795e7	-0.016550971
80	0x3a81e60a	0.0009910476
81	0xbd1ab177	-0.0377669
82	0x3d097c22	0.033565648
83	0x3ca62c45	0.020284781
84	0x3ad6e337	0.001639462
85	0x3bb8be2f	0.005637906
86	0xbcb358c8	-0.02189292
87	0x3cb53c21	0.022123398
88	0x3c9da55e	0.019243892
89	0xbcfed027	-0.031105114
90	0x3ba7a888	0.005116526
91	0x3d14e64f	0.036352452
92	0xbc66459e	-0.014054684
93	0x3d29e3c3	0.041476976
94	0xbcea9ca0	-0.028639138
95	0xbcbbef36	-0.022941213
96	0xbc978f07	-0.018500818
97	0xbbff4222	-0.007789866
98	0x3cc127b6	0.023578506
99	0xbc924e8c	-0.01785972
100	0x3b420ed2	0.0029610884
101	0x3be5fb7c	0.0070185047
102	0x3d10eb4f	0.035380658
103	0x3cfe1a0d	0.031018281
104	0x3c3c33c3	0.01148695
105	0xbd32bb7c	-0.04363583
106	0x3ced34b7	0.0289558
107	0x3d087a7f	0.033319946
108	0x3bd943e7	0.006630409
109	0x3bdf804d	0.0068207146
110	0x3a2e435e	0.0006647612
111	0xbd202449	-0.039097104
112	0xbc955157	-0.018227262
113	0x3b9bf1e0	0.0047590584
114	0xbcaf1ad9	-0.021375107
115	0x39473407	0.000189975
116	0x3c7a0749	0.015260526
117	0x3cda7150	0.02666536
118	0xbc03cad6	-0.008043965
119	0x3b24d227	0.0025149675
120	0x3cba1d70	0.022719115
121	0xbcee343a	-0.029077638
122	0x3cc9d6d0	0.024638563
123	0x3c65cb0c	0.014025461
124	0x3ca1fffa	0.01977538
125	0xbcf62037	-0.030044658
126	0x3c8f1a16	0.017468493
127	0x3c94de01	0.018172266
128	0x3cb715ab	0.0223492
129	0x3ceacace	0.028661158
130	0x3d292cb4	0.041302398
131	0xbd0f722d	-0.035020996
132	0x3c904481	0.01761079
133	0x3bb7bff6	0.0056076003
134	0x3cecd4c0	0.02891004
135	0x3a89b1a8	0.0010505216
136	0x3d0651f2	0.032792993
137	0xbc5c90bc	-0.013462242
138	0x3c941e1d	0.018080765
139	0xbccb1925	-0.024792263
140	0x3c86630e	0.016404655
141	0x3cff592b	0.031170448
142	0xbc1a8438	-0.0094309375
143	0xbd146869	-0.036232386
144	0x3cb5fbec	0.022214852
145	0x3b40f81d	0.0029444762
146	0x3d1a39a3	0.037652623
147	0xbcef73f9	-0.029230105
148	0xbb0d9d20	-0.0021608546
149	0x3b64972e	0.003488015
150	0x3c292fdc	0.010326352
151	0x3d20323d	0.03911041
152	0xbd0af25c	-0.03392254
153	0x3c9be734	0.019031145
154	0xbc9e8cfe	-0.01935434
155	0xbd0202d5	-0.031740982
156	0x3c9b9daa	0.018996079
157	0x3c89607a	0.016769636
158	0xbc38247d	-0.011239168
159	0xbcf746f0	-0.030185193
160	0x3cdf0a8b	0.027226707
161	0x3c11f787	0.008909113
162	0x3c0cd27a	0.008595103
163	0xbc7345ae	-0.014848156
164	0xbcf8550c	-0.030313991
165	0xba1ed9bf	-0.00060596684
166	0x3c74620d	0.014915955
167	0xbd14bb2d	-0.036311317
168	0xbc99ed59	-0.018789934
169	0xbbf17023	-0.007368104
170	0x3d02c354	0.03192456
171	0x3cf6d5fa	0.030131329
172	0x3d173a20	0.036920667
173	0xbc811365	-0.015756318
174	0x3c8b5baf	0.017011492
175	0xbd1c6d1a	-0.038189985
176	0x3cf3e5aa	0.029772598
177	0x3d00bab5	0.031428058
178	0xbce75a02	-0.028241161
179	0xbd34f4bd	-0.044178713
180	0xbc31ad73	-0.010844576
181	0x3cbcdcf2	0.023054574
182	0xbc765af3	-0.015036332
183	0xbcb491a3	-0.022042101
184	0x3d0bb0c0	0.03410411
185	0x3caf553c	0.021402948
186	0xbcb08dce	-0.021551993
187	0x3d19f8b9	0.037590716
188	0x3c5bcc8c	0.013415467
189	0xbc6b6c96	-0.014369151
190	0x3cd83e59	0.026396917
191	0x3cd74867	0.026279641
192	0xbc7171be	-0.014736591
193	0x3ce200bf	0.027588246
194	0xbcd8d798	-0.02646999
195	0x3cb26926	0.021778654
196	0x3d05eb90	0.032695353
197	0x3bd6b482	0.00655228
198	0x3cb18988	0.021672025
199	0x3c543c1c	0.012953784
200	0xbcd2ef9f	-0.025749026
201	0x3d1bf84d	0.038078595
202	0x3d2de6d8	0.042456478
203	0xbc8a9bd8	-0.016920015
204	0x3d243249	0.04008702
205	0xbd280215	-0.04101761
206	0xbc838b79	-0.016057717
207	0xbd2de6cc	-0.042456433
208	0x3d1edc62	0.038784392
209	0xbcbdd568	-0.02317305
210	0xbbacdcbc	-0.005275337
211	0xbd04160d	-0.03224759
212	0x3cdd6425	0.027025292
213	0x3d289f12	0.041167326
214	0xbd052572	-0.032506414
215	0x3cb2e3e3	0.02183718
216	0x3b9a5738	0.0047101043
217	0x3c2de2a0	0.010613114
218	0x3c998990	0.018742353
219	0x3c3a7b1b	0.01138189
220	0xbd134d29	-0.035962258
221	0xbc159d82	-0.009131791
222	0x3cae4891	0.021274837
223	0x3ca4b39a	0.020105172
224	0xbd0e792c	-0.034783527
225	0xbcebe194	-0.028794087
226	0x3cd3d490	0.025858194
227	0xbc57a6ad	-0.013162297
228	0x3cbd2232	0.023087595
229	0xbce81194	-0.028328694
230	0xbc97021b	-0.018433621
231	0x3b8b4dd6	0.004251222
232	0xbc99ae1d	-0.018759781
233	0xbc495de4	-0.012290452
234	0x3c8d9631	0.01728353
235	0xbcb811ab	-0.022469362
236	0xbcd5f417	-0.026117368
237	0x3d05763f	0.03258347
238	0x3cd932a4	0.026513405
239	0xbd234dc0	-0.03986907
240	0x3c125ae2	0.008932801
241	0x3c7db170	0.015484199
242	0xbcc93289	-0.02456023
243	0xbc368cca	-0.011141965
244	0x3c64d67b	0.013967152
245	0xbcfd1390	-0.030893117
246	0x3cdcf6c9	0.026973145
247	0xbb106db5	-0.0022038047
248	0x3cd49386	0.02594925
249	0x3d180765	0.037116427
250	0xbd1f4e46	-0.038893007
251	0x3d17f12b	0.03709523
252	0x3a92aae5	0.0011189847
253	0xbc174c73	-0.0092345355
254	0xbd0011ab	-0.03126685
255	0x3d1f283e	0.038856737

network.0.conv2.bias f4 [33]
0	0xbd86ae93	-0.06576266
1	0xbd174ef3	-0.036940526
2	0x3cd33535	0.025782207
3	0x3d94245e	0.07233499
4	0x3daa2e15	0.08309571
5	0x3da19379	0.07889456
6	0x3d26bc5c	0.040706977
7	0xbd3be088	-0.045868427
8	0xbd2d5f89	-0.042327438
9	0x3d8a1163	0.067415975
10	0xbad6e5ba	-0.0016395368
11	0xbc184e1a	-0.009295965
12	0x3d2eb0fb	0.04264925
13	0x3dc7f681	0.09763814
14	0x3cf5e014	0.030014075
15	0x3dc14c29	0.094383545
16	0x39c4fc88	0.00037572184
17	0x3c860139	0.016358005
18	0x3d4b488c	0.049629733
19	0x3c18eb79	0.009333485
20	0xbde7e489	-0.113228865
21	0xbdf6f52f	-0.12058484
22	0x3cf2a416	0.029619258
23	0xbc94b260	-0.018151462
24	0xbd313d1c	-0.04327117
25	0xbb6da503	-0.0036261685
26	0x3d65bb29	0.056086693
27	0xbc3ef35f	-0.011654704
28	0x3ccdc5e2	0.025118772
29	0xbd5dd429	-0.05415741
30	0x3d3df9f8	0.046380967
31	0xbda30c33	-0.07961311
32	0xbdea07e7	-0.114272885

network.0.conv2.weight_v f4 [33, 33, 2]
0	0xbd076730	-0.03305739
1	0xbd353ef9	-0.04424951
2	0xbdbe57fa	-0.09294124
3	0x3d04fc23	0.03246702
4	0xbdc6c8b9	-0.097062536
5	0x3d535db2	0.051603027
6	0x3cd6cce5	0.026220748
7	0x3dd25c80	0.10271549
8	0x3d8672ec	0.06564888
9	0xbdde9d1a	-0.108698085
10	0x3dc290ea	0.095002964
11	0xbdb855c4	-0.090007335
12	0x3d05c080	0.032654285
13	0x3bcd719f	0.006269648
14	0xbcae7fed	-0.021301234
15	0x3de7e55e	0.11323045
16	0xbcfc897a	-0.030827273
17	0x3cfa8195	0.030579368
18	0x3dc4516e	0.09585844
19	0xbdb39545	-0.08768705
20	0xbda079e1	-0.078357466
21	0xbd365ef8	-0.044524163
22	0xbd87da3a	-0.0663342
23	0xbde6db51	-0.112723
24	0x3d816316	0.06317727
25	0xbda8ba17	-0.08238619
26	0xbd67a3ff	-0.056552883
27	0x3dc465b5	0.095897116
28	0x3df45ebf	0.11932134
29	0xbda5ce6d	-0.08096013
30	0xbd977169	-0.07394678
31	0x3dec62ea	0.11542304
32	0xbd96e459	-0.073677726
33	0x3dc3ea8f	0.09566223
34	0x3d8196c5	0.06327585
35	0xbd8b1052	-0.06790222
36	0xbdf295a5	-0.11844949
37	0x3df38757	0.118910484
38	0xbdaae5a7	-0.08344584
39	0xbd1728b6	-0.03690406
40	0x3dbaf54f	0.0912882
41	0x3d6a37db	0.057182174
42	0x3c2b6608	0.010461338
43	0xbd3ee35e	-0.046603553
44	0xbd8231ee	-0.063571796
45	0x3db0fccf	0.086419694
46	0xbdb94641	-0.09046603
47	0x3dfdc5af	0.12391221
48	0xbcb4a605	-0.02205182
49	0x3d966de0	0.07345176
50	0x3c9d8b84	0.019231565
51	0xbd5abc78	-0.053402394
52	0xbdece927	-0.11567908
53	0x3d1fb593	0.038991522
54	0x3dde75bc	0.108623
55	0xbdade225	-0.08490399
56	0x3c7dcf4a	0.015491316
57	0x3c755265	0.014973258
58	0x3cbf0649	0.023318427
59	0xbc5c6d07	-0.0134537285
60	0x3d061635	0.032736022
61	0x3ddee8e2	0.108842626
62	0x3de5097b	0.11183449
63	0xbdb9eef9	-0.090787835
64	0x3dd1f091	0.102509625
65	0xbdf99aa2	-0.12187697
66	0xbd5c1909	-0.053734813
67	0x3dd93f33	0.106077574
68	0x3c441643	0.011968198
69	0xbdd3c098	-0.10339469
70	0xbd513248	-0.051073343
71	0x3dd03ad9	0.10167474
72	0xbdc1f436	-0.09470408
73	0xbd8ff6bc	-0.07029483
74	0xbd1d4cbe	-0.038403265
75	0x3d7457a4	0.059653893
76	0x3a9365d3	0.0011245556
77	0xbc789839	-0.015173011
78	0xbd807469	-0.062722035
79	0xbd0d6253	-0.034517597
80	0xbd5e9e7b	-0.054350358
81	0x3dee08ff	0.116228096
82	0xbcff523a	-0.031167138
83	0xbdc34829	-0.09535248
84	0x3cb2d03b	0.021827808
85	0x3ddc2bea	0.107505634
86	0x3d8ad044	0.06778005
87	0x3deb3faa	0.11486752
88	0x3dccf767	0.10008126
89	0x3dd340a4	0.103150636
90	0xbdb03a5e	-0.08604883
91	0xbdbb87af	-0.09156739
92	0x3dcc4e65	0.0997589
93	0xbda18396	-0.07886426
94	0x3bdccf5f	0.0067385877
95	0x3b4b517c	0.003102391
96	0xbd82c045	-0.06384329
97	0x3bc99d17	0.00615276
98	0x3dcdc040	0.100464344
99	0xbdf51a7e	-0.119679436
100	0x3da20053	0.07910218
101	0x3de3943b	0.11112257
102	0xbd6a5066	-0.05720558
103	0x3dc84112	0.09778036
104	0xbcdc83f8	-0.026918396
105	0xbcf3a4f8	-0.02974175
106	0x3de115f8	0.10990518
107	0xbc117fda	-0.00888058
108	0x3df22321	0.118231066
109	0xbd217ea2	-0.039427407
110	0xbdb1420c	-0.086551756
111	0xbddd5b05	-0.10808376
112	0xbb723e66	-0.0036963462
113	0xbd32ea5c	-0.043680534
114	0xbdd32835	-0.10310403
115	0x3be9595c	0.007121248
116	0x3de7d95e	0.113207564
117	0xbccdf27f	-0.025140045
118	0xbd2d8e88	-0.042372257
119	0x3dc2b566	0.09507255
120	0x3d8432a4	0.064549714
121	0xbcf44566	-0.029818248
122	0x3dee57fc	0.116378754
123	0x3c4b1311	0.0123946825
124	0xbdb42a44	-0.08797124
125	0xbd0bc199	-0.034120176
126	0xbd1fd4cb	-0.039021295
127	0xbdb7b840	-0.0897069
128	0x3ccef762	0.025264446
129	0x3c840946	0.016117703
130	0x3d6414ba	0.05568383
131	0x3bd1da49	0.0064041954
132	0x3cab359e	0.02089959
133	0xbdca2b23	-0.09871509
134	0x3df6bf9e	0.12048267
135	0xbd6995a0	-0.05702746
136	0x3de63e75	0.112423815
137	0xbc4bf1c9	-0.012447783
138	0x3c70d812	0.014699953
139	0xbc20ae1c	-0.009807136
140	0xbcf751b7	-0.030190332
141	0xbd9b6fb9	-0.07589669
142	0xbc5e9460	-0.01358518
143	0xb8c5b33f	-9.427079e-05
144	0xbd521ffc	-0.051300034
145	0x3d43d11d	0.047806848
146	0x3d383a3a	0.044977404
147	0xbdd6b722	-0.104841486
148	0x3c01cde5	0.007922624
149	0xbd559600	-0.052145004
150	0x3db33f34	0.087522894
151	0xbd7af5ae	-0.061269455
152	0xbcf3369e	-0.02968913
153	0x3d8dcaaf	0.069234245
154	0xbd8d1d84	-0.06890395
155	0xbce23881	-0.027614834
156	0xbd0cb3bc	-0.034351096
157	0xbd91b735	-0.07115022
158	0xbd486c21	-0.048931245
159	0xbdca6226	-0.098820016
160	0xbd9826a9	-0.07429249
161	0xbd52fef1	-0.051512662
162	0x3bc34b61	0.0059599136
163	0xbdec885c	-0.11549446
164	0x3d2df812	0.042472906
165	0xbd621353	-0.05519421
166	0x3c0c4ed1	0.008563713
167	0x3d7ca958	0.061684936
168	0xbd9a2838	-0.07527202
169	0xbca03061	-0.019554319
170	0xbde4e190	-0.11175835
171	0x3c212bb9	0.009837084
172	0x3c03de67	0.00804863
173	0xbdb5f057	-0.08883732
174	0xbd83cb1f	-0.06435227
175	0x3c113169	0.008861878
176	0xbde19a14	-0.11015716
177	0xbca86d0d	-0.020559812
178	0xbcd46a30	-0.02592954
179	0x3cfec220	0.031098425
180	0xbde92aa8	-0.11385089
181	0xbdb7a649	-0.08967263
182	0xbd4b8c1e	-0.049694173
183	0x3da4bad3	0.080434464
184	0x3c3a828c	0.011383664
185	0xbd80fd9f	-0.062983744
186	0x3d93dacc	0.072194666
187	0xbd10ae8b	-0.035322707
188	0x3de21348	0.11038834
189	0x3d080211	0.033205096
190	0xbdf2eb51	-0.11861289
191	0xbdecaed0	-0.1155678
192	0xbdf79681	-0.12089253
193	0x3cf21332	0.029550169
194	0xbd9a9073	-0.07547083
195	0xbd512743	-0.051062834
196	0x3c89b065	0.016807744
197	0x3d81a94a	0.063311175
198	0xbdf23df4	-0.11828223
199	0x3d366db5	0.04453822
200	0xba14387c	-0.0005654169
201	0x3bb35a2b	0.0054733953
202	0x3db42c89	0.08797557
203	0xbd9adb6a	-0.07561381
204	0x3c619a7b	0.013769741
205	0x3ca34623	0.019930905
206	0xbcf3c9fd	-0.029759401
207	0xbda7deba	-0.081967786
208	0x3ddeb65f	0.10874628
209	0x3c5a000d	0.013305676
210	0xbc80e986	-0.015736353
211	0xbd6faf6e	-0.058516912
212	0xbc848335	-0.016175846
213	0x3cf2debf	0.02964723
214	0xbbbebecb	-0.005821084
215	0xbdca48fd	-0.09877203
216	0xbde6e5f3	-0.11274328
217	0x3d39db0a	0.045374908
218	0x3deba176	0.115054056
219	0xbd90f86b	-0.07078632
220	0xbddf983e	-0.1091771
221	0x3c04c5ba	0.008103782
222	0xbc1ff722	-0.009763511
223	0xbd3cec50	-0.046123803
224	0x3d41e2d1	0.04733545
225	0xbc7c038e	-0.015381707
226	0xbd4370cf	-0.047715005
227	0xb97c399c	-0.00024054054
228	0x3cd07ada	0.025449205
229	0x3be7e6cc	0.0070770737
230	0xbd775fe8	-0.060394198
231	0x3df90a7f	0.12160205
232	0x3ddf7ce9	0.109124966
233	0x3d1cab7a	0.03824947
234	0xbdc611e1	-0.09671379
235	0x3c8cc0f4	0.017181851
236	0x3ddf4ad1	0.10902942
237	0xbdb739ad	-0.08946548
238	0x3b13ef61	0.00225731
239	0x3dbcd7da	0.09220858
240	0x3cd0ae14	0.025473632
241	0x3da0c9c5	0.078509845
242	0xbdccbcbe	-0.09996937
243	0x3dc4d6ff	0.0961132
244	0xbd2087e6	-0.039192103
245	0x3b288909	0.0025716445
246	0xbdd4637b	-0.10370537
247	0xbdfd172a	-0.12357934
248	0xbd7cbb70	-0.06170219
249	0x3cfdeb5d	0.030996019
250	0xbb67b3e5	-0.0035355028
251	0x3d63dafe	0.05562877
252	0xbdce1352	-0.10062279
253	0x3d62db38	0.055384845
254	0xbdea71a3	-0.11447456
255	0x3dc70a82	0.09718801

network.0.net.0.bias f4 [33]
0	0x3cbbab1e	0.022908743
1	0xbcfc0e0d	-0.030768419
2	0xbcb7abd3	-0.0224208
3	0x3c737f62	0.014861913
4	0x3d02023d	0.031740416
5	0xbd169d78	-0.036771268
6	0xbc9cf6b6	-0.01916061
7	0x3c8a2024	0.016861029
8	0x3becf7cb	0.0072316877
9	0xbca1d192	-0.019753251
10	0xbcce10a3	-0.025154417
11	0x3ceee94e	0.029163983
12	0xbd0073dd	-0.031360496
13	0xbd05c8cb	-0.032662194
14	0xbc22dc6f	-0.009940251
15	0x3cc0853e	0.023501035
16	0x3c0ab3b5	0.008465697
17	0xbab72a4a	-0.0013974395
18	0x3b833df8	0.00400519
19	0xbc19ad6c	-0.009379726
20	0xbd1322ce	-0.035921864
21	0xbc828eb4	-0.015937187
22	0xbb902234	-0.0043986086
23	0x3ca0e730	0.019641489
24	0xbc2cb80b	-0.010541926
25	0xbb91630b	-0.0044368557
26	0x3c5ea2c4	0.013588611
27	0xbb3ac8fd	-0.0028501146
28	0xbca25724	-0.019816943
29	0xbc25c687	-0.010118133
30	0xbd0c54a1	-0.034260396
31	0xbcdfe68a	-0.02733161
32	0xbce6aa5a	-0.028157402

network.0.net.0.weight_v f4 [33, 292, 2]
0	0x3d1db0ba	0.038498618
1	0x3c0fbceb	0.008773069
2	0xbb48dacf	-0.0030647998
3	0x3d1d09db	0.038339477
4	0xb96e6435	-0.00022734779
5	0x3cd26743	0.025684005
6	0xbc8f7b29	-0.017514782
7	0x3d275d41	0.04086042
8	0x3d0a1501	0.033711437
9	0x3cae07de	0.021243986
10	0xbc225e4e	-0.009910179
11	0xbc11869e	-0.008882193
12	0x3cf0b22d	0.029381836
13	0x3cb4218e	0.021988656
14	0x3ce04de6	0.027380895
15	0xbc8e45e9	-0.01736732
16	0xbc2ccb77	-0.010546557
17	0xbd2dc87a	-0.042427517
18	0xbc9bd3f9	-0.019021975
19	0xbcf3e0bc	-0.029770248
20	0xbc845435	-0.016153434
21	0x3cadaf56	0.02120177
22	0x3c9f8c04	0.019475944
23	0x3cb07fde	0.021545347
24	0xbc1f87b4	-0.009736944
25	0xbc50e849	-0.012750694
26	0xbc5e2178	-0.013557784
27	0xbcc6b96e	-0.024258342
28	0xbc9e48fa	-0.019321907
29	0x3ca4f97e	0.020138498
30	0x3c2b7d3b	0.010466869
31	0xbcd34aa3	-0.025792425
32	0x3ca5b851	0.02022949
33	0xbcc73077	-0.024315102
34	0xbd2cad1e	-0.042157285
35	0xbd1e593b	-0.038659316
36	0x3c407765	0.011747216
37	0xbd17bf46	-0.037047647
38	0xbcf43388	-0.029809728
39	0x3ca46646	0.020068299
40	0xbc516911	-0.012781397
41	0x3d062fce	0.032760434
42	0xbd127eda	-0.035765506
43	0xbd20d0f3	-0.03926177
44	0xbd2818ee	-0.0410394
45	0x3cf2a31c	0.029618792
46	0x3d1af1ce	0.03782826
47	0x3d1ea451	0.038730923
48	0x3d01229b	0.031527143
49	0xbc541257	-0.012943826
50	0xbcc6ea2a	-0.02428158
51	0xbcfe32ac	-0.031030022
52	0xbcdbbf8e	-0.026824739
53	0xbcd8365e	-0.026393112
54	0xbcf03d86	-0.029326212
55	0xbcb7a2cd	-0.022416497
56	0x3c1e9ea5	0.0096813785
57	0x3d2452ea	0.040118136
58	0xbcc06c16	-0.02348904
59	0x3cf5ee9d	0.030021006
60	0xbd1ff8eb	-0.039055746
61	0x3cdaa13e	0.026688214
62	0x3cbe4070	0.023224086
63	0x3beeadc1	0.0072838967
64	0xbc2b13b5	-0.01044171
65	0xbcc30507	-0.023806108
66	0xbd2049d3	-0.039132904
67	0x3d2423ed	0.040073324
68	0x3ca5a568	0.020220473
69	0xbce97240	-0.028496861
70	0x3cde2727	0.027118279
71	0xbd19a6b4	-0.037512496
72	0xbc2649de	-0.010149447
73	0x3c83f0fa	0.016106118
74	0x3cd498e9	0.02595182
75	0x3ba87557	0.005140941
76	0xbc4e8e61	-0.012607188
77	0xba94d2d5	-0.0011354337
78	0xbc8aa258	-0.016923115
79	0xbc8795e7	-0.016550971
80	0x3a81e60a	0.0009910476
81	0xbd1ab177	-0.0377669
82	0x3d097c22	0.033565648
83	0x3ca62c45	0.020284781
84	0x3ad6e337	0.001639462
85	0x3bb8be2f	0.005637906
86	0xbcb358c8	-0.02189292
87	0x3cb53c21	0.022123398
88	0x3c9da55e	0.019243892
89	0xbcfed027	-0.031105114
90	0x3ba7a888	0.005116526
91	0x3d14e64f	0.036352452
92	0xbc66459e	-0.014054684
93	0x3d29e3c3	0.041476976
94	0xbcea9ca0	-0.028639138
95	0xbcbbef36	-0.022941213
96	0xbc978f07	-0.018500818
97	0xbbff4222	-0.007789866
98	0x3cc127b6	0.023578506
99	0xbc924e8c	-0.01785972
100	0x3b420ed2	0.0029610884
101	0x3be5fb7c	0.0070185047
102	0x3d10eb4f	0.035380658
103	0x3cfe1a0d	0.031018281
104	0x3c3c33c3	0.01148695
105	0xbd32bb7c	-0.04363583
106	0x3ced34b7	0.0289558
107	0x3d087a7f	0.033319946
108	0x3bd943e7	0.006630409
109	0x3bdf804d	0.0068207146
110	0x3a2e435e	0.0006647612
111	0xbd202449	-0.039097104
112	0xbc955157	-0.018227262
113	0x3b9bf1e0	0.0047590584
114	0xbcaf1ad9	-0.021375107
115	0x39473407	0.000189975
116	0x3c7a0749	0.015260526
117	0x3cda7150	0.02666536
118	0xbc03cad6	-0.008043965
119	0x3b24d227	0.0025149675
120	0x3cba1d70	0.022719115
121	0xbcee343a	-0.029077638
122	0x3cc9d6d0	0.024638563
123	0x3c65cb0c	0.014025461
124	0x3ca1fffa	0.01977538
125	0xbcf62037	-0.030044658
126	0x3c8f1a16	0.017468493
127	0x3c94de01	0.018172266
128	0x3cb715ab	0.0223492
129	0x3ceacace	0.028661158
130	0x3d292cb4	0.041302398
131	0xbd0f722d	-0.035020996
132	0x3c904481	0.01761079
133	0x3bb7bff6	0.0056076003
134	0x3cecd4c0	0.02891004
135	0x3a89b1a8	0.0010505216
136	0x3d0651f2	0.032792993
137	0xbc5c90bc	-0.013462242
138	0x3c941e1d	0.018080765
139	0xbccb1925	-0.024792263
140	0x3c86630e	0.016404655
141	0x3cff592b	0.031170448
142	0xbc1a8438	-0.0094309375
143	0xbd146869	-0.036232386
144	0x3cb5fbec	0.022214852
145	0x3b40f81d	0.0029444762
146	0x3d1a39a3	0.037652623
147	0xbcef73f9	-0.029230105
148	0xbb0d9d20	-0.0021608546
149	0x3b64972e	0.003488015
150	0x3c292fdc	0.010326352
151	0x3d20323d	0.03911041
152	0xbd0af25c	-0.03392254
153	0x3c9be734	0.019031145
154	0xbc9e8cfe	-0.01935434
155	0xbd0202d5	-0.031740982
156	0x3c9b9daa	0.018996079
157	0x3c89607a	0.016769636
158	0xbc38247d	-0.011239168
159	0xbcf746f0	-0.030185193
160	0x3cdf0a8b	0.027226707
161	0x3c11f787	0.008909113
162	0x3c0cd27a	0.008595103
163	0xbc7345ae	-0.014848156
164	0xbcf8550c	-0.030313991
165	0xba1ed9bf	-0.00060596684
166	0x3c74620d	0.014915955
167	0xbd14bb2d	-0.036311317
168	0xbc99ed59	-0.018789934
169	0xbbf17023	-0.007368104
170	0x3d02c354	0.03192456
171	0x3cf6d5fa	0.030131329
172	0x3d173a20	0.036920667
173	0xbc811365	-0.015756318
174	0x3c8b5baf	0.017011492
175	0xbd1c6d1a	-0.038189985
176	0x3cf3e5aa	0.029772598
177	0x3d00bab5	0.031428058
178	0xbce75a02	-0.028241161
179	0xbd34f4bd	-0.044178713
180	0xbc31ad73	-0.010844576
181	0x3cbcdcf2	0.023054574
182	0xbc765af3	-0.015036332
183	0xbcb491a3	-0.022042101
184	0x3d0bb0c0	0.03410411
185	0x3caf553c	0.021402948
186	0xbcb08dce	-0.021551993
187	0x3d19f8b9	0.037590716
188	0x3c5bcc8c	0.013415467
189	0xbc6b6c96	-0.014369151
190	0x3cd83e59	0.026396917
191	0x3cd74867	0.026279641
192	0xbc7171be	-0.014736591
193	0x3ce200bf	0.027588246
194	0xbcd8d798	-0.02646999
195	0x3cb26926	0.021778654
196	0x3d05eb90	0.032695353
197	0x3bd6b482	0.00655228
198	0x3cb18988	0.021672025
199	0x3c543c1c	0.012953784
200	0xbcd2ef9f	-0.025749026
201	0x3d1bf84d	0.038078595
202	0x3d2de6d8	0.042456478
203	0xbc8a9bd8	-0.016920015
204	0x3d243249	0.04008702
205	0xbd280215	-0.04101761
206	0xbc838b79	-0.016057717
207	0xbd2de6cc	-0.042456433
208	0x3d1edc62	0.038784392
209	0xbcbdd568	-0.02317305
210	0xbbacdcbc	-0.005275337
211	0xbd04160d	-0.03224759
212	0x3cdd6425	0.027025292
213	0x3d289f12	0.041167326
214	0xbd052572	-0.032506414
215	0x3cb2e3e3	0.02183718
216	0x3b9a5738	0.0047101043
217	0x3c2de2a0	0.010613114
218	0x3c998990	0.018742353
219	0x3c3a7b1b	0.01138189
220	0xbd134d29	-0.035962258
221	0xbc159d82	-0.009131791
222	0x3cae4891	0.021274837
223	0x3ca4b39a	0.020105172
224	0xbd0e792c	-0.034783527
225	0xbcebe194	-0.028794087
226	0x3cd3d490	0.025858194
227	0xbc57a6ad	-0.013162297
228	0x3cbd2232	0.023087595
229	0xbce81194	-0.028328694
230	0xbc97021b	-0.018433621
231	0x3b8b4dd6	0.004251222
232	0xbc99ae1d	-0.018759781
233	0xbc495de4	-0.012290452
234	0x3c8d9631	0.01728353
235	0xbcb811ab	-0.022469362
236	0xbcd5f417	-0.026117368
237	0x3d05763f	0.03258347
238	0x3cd932a4	0.026513405
239	0xbd234dc0	-0.03986907
240	0x3c125ae2	0.008932801
241	0x3c7db170	0.015484199
242	0xbcc93289	-0.02456023
243	0xbc368cca	-0.011141965
244	0x3c64d67b	0.013967152
245	0xbcfd1390	-0.030893117
246	0x3cdcf6c9	0.026973145
247	0xbb106db5	-0.0022038047
248	0x3cd49386	0.02594925
249	0x3d180765	0.037116427
250	0xbd1f4e46	-0.038893007
251	0x3d17f12b	0.03709523
252	0x3a92aae5	0.0011189847
253	0xbc174c73	-0.0092345355
254	0xbd0011ab	-0.03126685
255	0x3d1f283e	0.038856737

network.0.net.4.bias f4 [33]
0	0xbd86ae93	-0.06576266
1	0xbd174ef3	-0.036940526
2	0x3cd33535	0.025782207
3	0x3d94245e	0.07233499
4	0x3daa2e15	0.08309571
5	0x3da19379	0.07889456
6	0x3d26bc5c	0.040706977
7	0xbd3be088	-0.045868427
8	0xbd2d5f89	-0.042327438
9	0x3d8a1163	0.067415975
10	0xbad6e5ba	-0.0016395368
11	0xbc184e1a	-0.009295965
12	0x3d2eb0fb	0.04264925
13	0x3dc7f681	0.09763814
14	0x3cf5e014	0.030014075
15	0x3dc14c29	0.094383545
16	0x39c4fc88	0.00037572184
17	0x3c860139	0.016358005
18	0x3d4b488c	0.049629733
19	0x3c18eb79	0.009333485
20	0xbde7e489	-0.113228865
21	0xbdf6f52f	-0.12058484
22	0x3cf2a416	0.029619258
23	0xbc94b260	-0.018151462
24	0xbd313d1c	-0.04327117
25	0xbb6da503	-0.0036261685
26	0x3d65bb29	0.056086693
27	0xbc3ef35f	-0.011654704
28	0x3ccdc5e2	0.025118772
29	0xbd5dd429	-0.05415741
30	0x3d3df9f8	0.046380967
31	0xbda30c33	-0.07961311
32	0xbdea07e7	-0.114272885

network.0.net.4.weight_v f4 [33, 33, 2]
0	0xbd076730	-0.03305739
1	0xbd353ef9	-0.04424951
2	0xbdbe57fa	-0.09294124
3	0x3d04fc23	0.03246702
4	0xbdc6c8b9	-0.097062536
5	0x3d535db2	0.051603027
6	0x3cd6cce5	0.026220748
7	0x3dd25c80	0.10271549
8	0x3d8672ec	0.06564888
9	0xbdde9d1a	-0.108698085
10	0x3dc290ea	0.095002964
11	0xbdb855c4	-0.090007335
12	0x3d05c080	0.032654285
13	0x3bcd719f	0.006269648
14	0xbcae7fed	-0.021301234
15	0x3de7e55e	0.11323045
16	0xbcfc897a	-0.030827273
17	0x3cfa8195	0.030579368
18	0x3dc4516e	0.09585844
19	0xbdb39545	-0.08768705
20	0xbda079e1	-0.078357466
21	0xbd365ef8	-0.044524163
22	0xbd87da3a	-0.0663342
23	0xbde6db51	-0.112723
24	0x3d816316	0.06317727
25	0xbda8ba17	-0.08238619
26	0xbd67a3ff	-0.056552883
27	0x3dc465b5	0.095897116
28	0x3df45ebf	0.11932134
29	0xbda5ce6d	-0.08096013
30	0xbd977169	-0.07394678
31	0x3dec62ea	0.11542304
32	0xbd96e459	-0.073677726
33	0x3dc3ea8f	0.09566223
34	0x3d8196c5	0.06327585
35	0xbd8b1052	-0.06790222
36	0xbdf295a5	-0.11844949
37	0x3df38757	0.118910484
38	0xbdaae5a7	-0.08344584
39	0xbd1728b6	-0.03690406
40	0x3dbaf54f	0.0912882
41	0x3d6a37db	0.057182174
42	0x3c2b6608	0.010461338
43	0xbd3ee35e	-0.046603553
44	0xbd8231ee	-0.063571796
45	0x3db0fccf	0.086419694
46	0xbdb94641	-0.09046603
47	0x3dfdc5af	0.12391221
48	0xbcb4a605	-0.02205182
49	0x3d966de0	0.07345176
50	0x3c9d8b84	0.019231565
51	0xbd5abc78	-0.053402394
52	0xbdece927	-0.11567908
53	0x3d1fb593	0.038991522
54	0x3dde75bc	0.108623
55	0xbdade225	-0.08490399
56	0x3c7dcf4a	0.015491316
57	0x3c755265	0.014973258
58	0x3cbf0649	0.023318427
59	0xbc5c6d07	-0.0134537285
60	0x3d061635	0.032736022
61	0x3ddee8e2	0.108842626
62	0x3de5097b	0.11183449
63	0xbdb9eef9	-0.090787835
64	0x3dd1f091	0.102509625
65	0xbdf99aa2	-0.12187697
66	0xbd5c1909	-0.053734813
67	0x3dd93f33	0.106077574
68	0x3c441643	0.011968198
69	0xbdd3c098	-0.10339469
70	0xbd513248	-0.051073343
71	0x3dd03ad9	0.10167474
72	0xbdc1f436	-0.09470408
73	0xbd8ff6bc	-0.07029483
74	0xbd1d4cbe	-0.038403265
75	0x3d7457a4	0.059653893
76	0x3a9365d3	0.0011245556
77	0xbc789839	-0.015173011
78	0xbd807469	-0.062722035
79	0xbd0d6253	-0.034517597
80	0xbd5e9e7b	-0.054350358
81	0x3dee08ff	0.116228096
82	0xbcff523a	-0.031167138
83	0xbdc34829	-0.09535248
84	0x3cb2d03b	0.021827808
85	0x3ddc2bea	0.107505634
86	0x3d8ad044	0.06778005
87	0x3deb3faa	0.11486752
88	0x3dccf767	0.10008126
89	0x3dd340a4	0.103150636
90	0xbdb03a5e	-0.08604883
91	0xbdbb87af	-0.09156739
92	0x3dcc4e65	0.0997589
93	0xbda18396	-0.07886426
94	0x3bdccf5f	0.0067385877
95	0x3b4b517c	0.003102391
96	0xbd82c045	-0.06384329
97	0x3bc99d17	0.00615276
98	0x3dcdc040	0.100464344
99	0xbdf51a7e	-0.119679436
100	0x3da20053	0.07910218
101	0x3de3943b	0.11112257
102	0xbd6a5066	-0.05720558
103	0x3dc84112	0.09778036
104	0xbcdc83f8	-0.026918396
105	0xbcf3a4f8	-0.02974175
106	0x3de115f8	0.10990518
107	0xbc117fda	-0.00888058
108	0x3df22321	0.118231066
109	0xbd217ea2	-0.039427407
110	0xbdb1420c	-0.086551756
111	0xbddd5b05	-0.10808376
112	0xbb723e66	-0.0036963462
113	0xbd32ea5c	-0.043680534
114	0xbdd32835	-0.10310403
115	0x3be9595c	0.007121248
116	0x3de7d95e	0.113207564
117	0xbccdf27f	-0.025140045
118	0xbd2d8e88	-0.042372257
119	0x3dc2b566	0.09507255
120	0x3d8432a4	0.064549714
121	0xbcf44566	-0.029818248
122	0x3dee57fc	0.116378754
123	0x3c4b1311	0.0123946825
124	0xbdb42a44	-0.08797124
125	0xbd0bc199	-0.034120176
126	0xbd1fd4cb	-0.039021295
127	0xbdb7b840	-0.0897069
128	0x3ccef762	0.025264446
129	0x3c840946	0.016117703
130	0x3d6414ba	0.05568383
131	0x3bd1da49	0.0064041954
132	0x3cab359e	0.02089959
133	0xbdca2b23	-0.09871509
134	0x3df6bf9e	0.12048267
135	0xbd6995a0	-0.05702746
136	0x3de63e75	0.112423815
137	0xbc4bf1c9	-0.012447783
138	0x3c70d812	0.014699953
139	0xbc20ae1c	-0.009807136
140	0xbcf751b7	-0.030190332
141	0xbd9b6fb9	-0.07589669
142	0xbc5e9460	-0.01358518
143	0xb8c5b33f	-9.427079e-05
144	0xbd521ffc	-0.051300034
145	0x3d43d11d	0.047806848
146	0x3d383a3a	0.044977404
147	0xbdd6b722	-0.104841486
148	0x3c01cde5	0.007922624
149	0xbd559600	-0.052145004
150	0x3db33f34	0.087522894
151	0xbd7af5ae	-0.061269455
152	0xbcf3369e	-0.02968913
153	0x3d8dcaaf	0.069234245
154	0xbd8d1d84	-0.06890395
155	0xbce23881	-0.027614834
156	0xbd0cb3bc	-0.034351096
157	0xbd91b735	-0.07115022
158	0xbd486c21	-0.048931245
159	0xbdca6226	-0.098820016
160	0xbd9826a9	-0.07429249
161	0xbd52fef1	-0.051512662
162	0x3bc34b61	0.0059599136
163	0xbdec885c	-0.11549446
164	0x3d2df812	0.042472906
165	0xbd621353	-0.05519421
166	0x3c0c4ed1	0.008563713
167	0x3d7ca958	0.061684936
168	0xbd9a2838	-0.07527202
169	0xbca03061	-0.019554319
170	0xbde4e190	-0.11175835
171	0x3c212bb9	0.009837084
172	0x3c03de67	0.00804863
173	0xbdb5f057	-0.08883732
174	0xbd83cb1f	-0.06435227
175	0x3c113169	0.008861878
176	0xbde19a14	-0.11015716
177	0xbca86d0d	-0.020559812
178	0xbcd46a30	-0.02592954
179	0x3cfec220	0.031098425
180	0xbde92aa8	-0.11385089
181	0xbdb7a649	-0.08967263
182	0xbd4b8c1e	-0.049694173
183	0x3da4bad3	0.080434464
184	0x3c3a828c	0.011383664
185	0xbd80fd9f	-0.062983744
186	0x3d93dacc	0.072194666
187	0xbd10ae8b	-0.035322707
188	0x3de21348	0.11038834
189	0x3d080211	0.033205096
190	0xbdf2eb51	-0.11861289
191	0xbdecaed0	-0.1155678
192	0xbdf79681	-0.12089253
193	0x3cf21332	0.029550169
194	0xbd9a9073	-0.07547083
195	0xbd512743	-0.051062834
196	0x3c89b065	0.016807744
197	0x3d81a94a	0.063311175
198	0xbdf23df4	-0.11828223
199	0x3d366db5	0.04453822
200	0xba14387c	-0.0005654169
201	0x3bb35a2b	0.0054733953
202	0x3db42c89	0.08797557
203	0xbd9adb6a	-0.07561381
204	0x3c619a7b	0.013769741
205	0x3ca34623	0.019930905
206	0xbcf3c9fd	-0.029759401
207	0xbda7deba	-0.081967786
208	0x3ddeb65f	0.10874628
209	0x3c5a000d	0.013305676
210	0xbc80e986	-0.015736353
211	0xbd6faf6e	-0.058516912
212	0xbc848335	-0.016175846
213	0x3cf2debf	0.02964723
214	0xbbbebecb	-0.005821084
215	0xbdca48fd	-0.09877203
216	0xbde6e5f3	-0.11274328
217	0x3d39db0a	0.045374908
218	0x3deba176	0.115054056
219	0xbd90f86b	-0.07078632
220	0xbddf983e	-0.1091771
221	0x3c04c5ba	0.008103782
222	0xbc1ff722	-0.009763511
223	0xbd3cec50	-0.046123803
224	0x3d41e2d1	0.04733545
225	0xbc7c038e	-0.015381707
226	0xbd4370cf	-0.047715005
227	0xb97c399c	-0.00024054054
228	0x3cd07ada	0.025449205
229	0x3be7e6cc	0.0070770737
230	0xbd775fe8	-0.060394198
231	0x3df90a7f	0.12160205
232	0x3ddf7ce9	0.109124966
233	0x3d1cab7a	0.03824947
234	0xbdc611e1	-0.09671379
235	0x3c8cc0f4	0.017181851
236	0x3ddf4ad1	0.10902942
237	0xbdb739ad	-0.08946548
238	0x3b13ef61	0.00225731
239	0x3dbcd7da	0.09220858
240	0x3cd0ae14	0.025473632
241	0x3da0c9c5	0.078509845
242	0xbdccbcbe	-0.09996937
243	0x3dc4d6ff	0.0961132
244	0xbd2087e6	-0.039192103
245	0x3b288909	0.0025716445
246	0xbdd4637b	-0.10370537
247	0xbdfd172a	-0.12357934
248	0xbd7cbb70	-0.06170219
249	0x3cfdeb5d	0.030996019
250	0xbb67b3e5	-0.0035355028
251	0x3d63dafe	0.05562877
252	0xbdce1352	-0.10062279
253	0x3d62db38	0.055384845
254	0xbdea71a3	-0.11447456
255	0x3dc70a82	0.09718801

network.0.downsample.weight f4 [33, 292, 1]
0	0xb9a4a008	-0.0003139975
1	0x3c2afd51	0.010436372
2	0x3b25f24d	0.0025321424
3	0x3b6e9404	0.0036404142
4	0xbaf55fe0	-0.001872059
5	0xbb9b3d7a	-0.004737553
6	0x3bcda0a1	0.006275252
7	0x3b9952c4	0.004679056
8	0xbb893956	-0.004187743
9	0x3c27e182	0.010246636
10	0xba9280b4	-0.0011177273
11	0x3c950580	0.0181911
12	0x3c44edd9	0.012019598
13	0xb9ac84a5	-0.00032905224
14	0xbccde2ca	-0.025132556
15	0xbc21d21d	-0.009876755
16	0x3be6c9a3	0.00704308
17	0x3c93ec0a	0.018056888
18	0xbc5d46d5	-0.013505657
19	0xbbe90c23	-0.0071120425
20	0xbc9f4317	-0.01944117
21	0x3cb05614	0.02152542
22	0xbbcd6c33	-0.006269002
23	0xbbfd6cfa	-0.0077339383
24	0x3b1f8103	0.0024338372
25	0x3c08fed3	0.008361536
26	0x3c051752	0.008123236
27	0x3c48b2fb	0.0122497035
28	0xbb4ae90e	-0.0030961665
29	0x3a0e61c7	0.000543144
30	0x3b76ecf3	0.0037677854
31	0xbbd3f17d	-0.0064679966
32	0xbc5ae0a7	-0.013359225
33	0xbc91e535	-0.01780949
34	0xbc53050a	-0.012879619
35	0x3c457e93	0.012054103
36	0x3bb68d23	0.005571024
37	0x3c53cebc	0.012927707
38	0xbc1bd150	-0.009510353
39	0x3bbc8920	0.0057536513
40	0x3aad8f7c	0.0013241614
41	0x3b87cff6	0.004144664
42	0xbb4b5414	-0.0031025456
43	0x3c8069c1	0.015675427
44	0x3bac3435	0.005255247
45	0x3b46a43e	0.0030310298
46	0xbcaa0677	-0.020755036
47	0xbc18f58b	-0.009335886
48	0xbc867b6a	-0.01641627
49	0xb909b7d9	-0.00013133827
50	0x3b9a4f5f	0.004709169
51	0xbbee8dd7	-0.007280092
52	0x3c8eb811	0.017421754
53	0xbc91fc9b	-0.017820647
54	0xbbd3e30b	-0.0064662746
55	0x3b45e133	0.0030194044
56	0xbc666818	-0.014062904
57	0xbb99c820	-0.004693046
58	0x3b8a95b9	0.004229274
59	0x3c8f003d	0.017456168
60	0x3c838bba	0.016057838
61	0x3b3d7cea	0.0028913566
62	0x3b58c2c1	0.0033075067
63	0x3b2870c7	0.0025701986
64	0x3b7c5ac7	0.0038506256
65	0xbb27424b	-0.0025521691
66	0x3c55c66a	0.013047794
67	0x3bbb6c35	0.0057196864
68	0xbc1c7365	-0.009548997
69	0xbc70c093	-0.014694351
70	0x3cab1dda	0.020888258
71	0xbc7cf686	-0.015439635
72	0x3a827a95	0.0009954745
73	0xb9fd25ab	-0.00048283985
74	0x3b88a008	0.004169468
75	0x3c67f8ae	0.014158411
76	0x3bbee164	0.0058252085
77	0x3bc341d9	0.0059587774
78	0xbbea6d79	-0.0071541634
79	0xbb7aa8d4	-0.0038247602
80	0xbc23131e	-0.009953288
81	0x3c96a5d1	0.018389614
82	0xbc954f3b	-0.018226257
83	0xbc498491	-0.012299673
84	0x3b5215bf	0.0032056419
85	0xbc85d5e7	-0.016337348
86	0x3c0953a0	0.008381754
87	0x3c66881f	0.01407054
88	0xbc0fc634	-0.008775283
89	0xb9819116	-0.00024712895
90	0xbb8d5c3a	-0.004313973
91	0x3aff9b94	0.0019501322
92	0x3afa696d	0.0019104906
93	0xbbfb47d1	-0.0076684733
94	0x3c97282f	0.018451778
95	0xbab9ba5e	-0.0014169922
96	0xbcc92b21	-0.024556698
97	0xbcbf560b	-0.023356458
98	0x3b3a2dae	0.0028408575
99	0x3c9cdc4b	0.019148013
100	0x3c375c98	0.01119151
101	0xbb6a139c	-0.0035717255
102	0x3c561498	0.013066433
103	0x3b5ff47c	0.0034172824
104	0x3b9b34f3	0.0047365366
105	0x3b7e3e90	0.0038794614
106	0x3940f211	0.00018400724
107	0x3c27fb50	0.010252789
108	0x3ca7b2df	0.020471035
109	0xb96e9a3c	-0.00022754906
110	0xbc636850	-0.0138798505
111	0xbad1f222	-0.0016017596
112	0x3c919a98	0.017773911
113	0xbadc87b0	-0.0016825106
114	0xbc8d4116	-0.01724295
115	0x3c35f80c	0.011106502
116	0xbc228646	-0.009919709
117	0x3bcc8987	0.0062419805
118	0xbc0024c8	-0.007821269
119	0x3c45b106	0.012066131
120	0x3c29c41b	0.010361697
121	0x3c0390c0	0.008030117
122	0x3b046561	0.0020202028
123	0x3c7b61db	0.015343155
124	0xbc65fb91	-0.014037029
125	0x392b83f0	0.00016356981
126	0x3c0e4c78	0.008685224
127	0x3ba280f9	0.0049592224
128	0x3c783491	0.015149252
129	0xbc21cbee	-0.009875281
130	0xbb804300	-0.003914237
131	0x3b71de98	0.0036906358
132	0x3c7ec164	0.015549038
133	0xbb997b23	-0.0046838685
134	0xbc40ef12	-0.011775749
135	0xbbba5332	-0.005686187
136	0x3ad0e06b	0.0015936022
137	0x3b90a030	0.004413627
138	0xbba84be7	-0.0051360014
139	0x3b3f3a1b	0.002917892
140	0x3c96f19a	0.018425751
141	0xbbdc723e	-0.006727486
142	0xbc0c225e	-0.008553116
143	0x3b4f6f51	0.0031652043
144	0xbb8d048f	-0.004303522
145	0xbc47ab60	-0.012186855
146	0xbbc08e3c	-0.0058763307
147	0xbbba2a90	-0.0056813434
148	0xbbc77256	-0.006086628
149	0xbbd80153	-0.0065919547
150	0x3c1565fc	0.009118553
151	0xbbe19b63	-0.0068849786
152	0x3ac09c4a	0.0014695015
153	0x3bf6faaa	0.0075372057
154	0xbb6550e3	-0.003499084
155	0x3bd37d98	0.006454181
156	0x3bfeb23f	0.0077727134
157	0x3b8ed73b	0.0043591536
158	0xbc493120	-0.012279779
159	0x3c4cd28d	0.012501371
160	0xbcad5e01	-0.021162989
161	0xbbc6ce1a	-0.0060670497
162	0xb917f18b	-0.00014490464
163	0x3c6715ac	0.014104288
164	0xbaea0257	-0.001785348
165	0x3ba7c941	0.005120427
166	0x3b8288cc	0.0039835926
167	0xbce58f04	-0.028022297
168	0xbc42b300	-0.011883497
169	0xbb733f3b	-0.0037116546
170	0x3a0e14c8	0.0005419967
171	0xbc26aa64	-0.01017246
172	0x3ae13cb0	0.0017184224
173	0xbc292cd6	-0.010325631
174	0x3bef3c80	0.0073009133
175	0x3b48ba49	0.0030628613
176	0xbc484a19	-0.0122246975
177	0xbc75907b	-0.01498806
178	0xbc027607	-0.00796271
179	0x3a9872ab	0.0011630853
180	0x3a9bad0d	0.0011877135
181	0xbc743dbe	-0.014907299
182	0xbbac19ce	-0.0052520996
183	0x3b860da0	0.0040909797
184	0xbbb43498	-0.0054994337
185	0x3c7d6d5d	0.015467969
186	0x3a3a3f2c	0.000710475
187	0x3ca59d98	0.020216748
188	0x39d8cc53	0.00041350964
189	0xbc942e6c	-0.018088542
190	0xbc021909	-0.007940539
191	0xbbddd607	-0.006769899
192	0x3bdff1c1	0.0068342392
193	0x3c1413ee	0.009037955
194	0xbb528a36	-0.0032125837
195	0xbc4ac080	-0.012374997
196	0xba684cf9	-0.00088615675
197	0xbc69f90f	-0.014280572
198	0x39db68d4	0.00041849038
199	0xb9870334	-0.00025751593
200	0xbb9095b8	-0.004412379
201	0x3b2ab3af	0.0026047041
202	0x3c2af019	0.01043322
203	0xbc32387a	-0.010877723
204	0xbbfcf901	-0.0077201133
205	0xbbb23409	-0.005438332
206	0xbb8f8b99	-0.004380655
207	0xbc337289	-0.0109526
208	0xbc5988be	-0.013277231
209	0xbbbdebfa	-0.005795953
210	0x3b941b04	0.004519822
211	0x3b4483f6	0.0029985881
212	0x3c33f5bc	0.010983881
213	0xbb36f109	-0.0027914664
214	0xbb4948b3	-0.0030713498
215	0xbc27fa44	-0.010252539
216	0xbc7f374c	-0.015577149
217	0x3c62455d	0.013810483
218	0xbb76a053	-0.0037632182
219	0x3b85dc28	0.0040850826
220	0xbcd4bbb3	-0.025968408
221	0xbc19f341	-0.009396375
222	0x3c049349	0.008091756
223	0x3c066dad	0.00820486
224	0x3bf26c3b	0.007398156
225	0x3befd287	0.007318798
226	0xbb86c02e	-0.004112265
227	0xbc213a62	-0.00984058
228	0xbba683fc	-0.0050816517
229	0x3beb1e85	0.007175269
230	0xbb21a6a3	-0.0024665974
231	0xbb3465e5	-0.0027526554
232	0x3c7362ad	0.014855069
233	0xbbc96a4b	-0.0061467043
234	0x3c84072e	0.016116705
235	0x3a5b18f8	0.00083579076
236	0x3bca4271	0.006172471
237	0x3c1e009d	0.009643701
238	0xbba9bd36	-0.0051800264
239	0xbc0c5b87	-0.008566744
240	0xbca7f7e1	-0.02050394
241	0xbb0d9a5f	-0.0021606905
242	0xba8775a6	-0.0010334745
243	0xbb02269b	-0.0019859436
244	0x3ba04898	0.0048914663
245	0x3c71ad85	0.014750843
246	0xbb2ae131	-0.0026074166
247	0x3b611ea0	0.003435053
248	0x3c26ad8d	0.010173214
249	0x3c956ed0	0.018241316
250	0x3bf8f658	0.007597726
251	0xbcb4d726	-0.022075247
252	0xbc17a267	-0.009255028
253	0x3be95c5d	0.0071216063
254	0x3c2a5bd2	0.010397868
255	0xbbb96fe3	-0.00565909

network.0.downsample.bias f4 [33]
0	0x3d34e952	0.044167824
1	0xbd299159	-0.04139838
2	0xbd2fd77b	-0.042930108
3	0xbceb3db5	-0.028715948
4	0xbd1ad6c0	-0.037802458
5	0xbbf460b2	-0.007457816
6	0xbc0f686f	-0.008752926
7	0x3d60d0e5	0.054886717
8	0xbc83e6f6	-0.016101342
9	0x3c061f43	0.008186164
10	0x3ce9d526	0.02854402
11	0xbd0bb532	-0.03410835
12	0x3d096dbb	0.033551913
13	0x3d62686c	0.055275366
14	0x3d1b0fe8	0.037856966
15	0xbbd5857b	-0.0065161563
16	0xbd18e726	-0.037329815
17	0x3b1b7443	0.002372042
18	0xbaa76807	-0.0012772091
19	0xbd448143	-0.047974836
20	0xbc3d7010	-0.011562362
21	0x3d2124be	0.03934168
22	0xbcc79667	-0.02436371
23	0xbcef6aec	-0.029225789
24	0x3cf32ff1	0.029685946
25	0x3d3034fb	0.043019276
26	0x3d34543c	0.044025645
27	0xbcdf5af3	-0.027265048
28	0x3cec6b3b	0.028859725
29	0xbd37c084	-0.04486133
30	0x3d3b47e8	0.045722872
31	0x3c511add	0.012762752
32	0xbc3e9f5e	-0.011634676

network.1.conv1.bias f4 [33]
0	0xbb83e545	-0.004025134
1	0x3da9f8a5	0.08299378
2	0x3d9eeb16	0.07759683
3	0xbd458043	-0.048218023
4	0x3cba93a2	0.022775475
5	0xbc4efe8c	-0.012633931
6	0xbd3440bb	-0.044007044
7	0xbd873522	-0.06601931
8	0xbdb4e798	-0.088332355
9	0xbdb723f0	-0.089424014
10	0x3d3d7714	0.04625614
11	0xbd60d6b5	-0.05489226
12	0x3cff8060	0.031189144
13	0x3de347db	0.1109769
14	0xbd249a2c	-0.040186092
15	0x3de6a6a3	0.11262252
16	0xbd82e210	-0.06390774
17	0xbe04d9f7	-0.12973772
18	0x3d062025	0.0327455
19	0xbd807c75	-0.06273738
20	0x3d668aa9	0.05628458
21	0xbdc3ac88	-0.09554392
22	0x3dad2e3b	0.084560834
23	0xbc7b771d	-0.015348223
24	0x3df8917c	0.12137124
25	0x3dc699af	0.096972816
26	0x3d25729c	0.040392503
27	0x3d852400	0.06501007
28	0x3db61c42	0.088921085
29	0x3da69801	0.08134461
30	0xbd97ab22	-0.07405688
31	0xbd9252f9	-0.07144732
32	0xbd4e55c1	-0.05037475

network.1.conv1.weight_v f4 [33, 33, 2]
0	0x3ce1c6fe	0.027560707
1	0x3d6c71e6	0.05772581
2	0xbde95ffc	-0.11395261
3	0xbbf1409f	-0.0073624398
4	0x3de724c0	0.112863064
5	0xbd824363	-0.06360509
6	0x3deb2b8c	0.11482915
7	0xbdf044ec	-0.11731896
8	0x3d4606b5	0.04834624
9	0xbd896a4c	-0.06709728
10	0x3d543b64	0.05181445
11	0xbc99c38f	-0.018770007
12	0x3d8bf4b3	0.06833782
13	0xbc862e29	-0.016379433
14	0xbd292125	-0.041291375
15	0x3d9432e0	0.07236266
16	0x3dfab479	0.12241454
17	0x3dd81310	0.10550511
18	0xbcfc57c5	-0.03080357
19	0x3c9a00b8	0.01879917
20	0x3dc79c27	0.097465806
21	0xbccf5313	-0.025308168
22	0x3dd47cb8	0.10375351
23	0xbd5942c6	-0.053042196
24	0xbda59339	-0.08084721
25	0x3d5866ad	0.052832294
26	0x3c843e88	0.016143098
27	0xbd10a70b	-0.035315555
28	0x3d843c91	0.064568646
29	0xbc0eb9c7	-0.008711285
30	0x3df95af6	0.121755525
31	0xbb70713a	-0.0036688582
32	0xbddffced	-0.10936914
33	0x3ddc3a0f	0.10753261
34	0x3c365ad3	0.011130053
35	0xbc93ad66	-0.018027019
36	0xbd8f7c68	-0.070061505
37	0x3dc14e45	0.09438757
38	0xbd269673	-0.040670823
39	0xbdacfca8	-0.08446628
40	0x3ddef4b6	0.10886519
41	0xbdf42a8b	-0.11922177
42	0x3dc1ed9e	0.0946915
43	0xbdf4c6aa	-0.11951955
44	0xbc4f2694	-0.012643475
45	0x3d573149	0.052537236
46	0x3d0df474	0.034656957
47	0x3d7c025b	0.061525684
48	0x3db8c4db	0.09021922
49	0xbdc7f509	-0.097635336
50	0xbdedc1e2	-0.11609246
51	0x3dbfd35b	0.09366485
52	0x3dc81eb0	0.09771478
53	0xbdbdb862	-0.09263684
54	0xbafd5959	-0.0019328996
55	0x3dd4976c	0.10380444
56	0xbcd306a0	-0.025759995
57	0xbc811457	-0.01575677
58	0x3c591ed5	0.01325198
59	0xbded0ffe	-0.11575316
60	0x3db0d663	0.08634641
61	0xbde80ff1	-0.113311656
62	0x3d05db53	0.032679867
63	0xbd829b2c	-0.06377253
64	0x3d0a1dc8	0.033719808
65	0xbdfa538d	-0.12222967
66	0x3d432bdb	0.047649246
67	0x3d0cdba0	0.03438914
68	0xbd71e02c	-0.059051678
69	0xbdb0b3ad	-0.086280204
70	0xbdbb4281	-0.09143544
71	0xbda064c8	-0.078317225
72	0x3d36b355	0.044604618
73	0xbdc75dff	-0.09734725
74	0x3b29d83c	0.002591624
75	0x3de3cdb3	0.111232184
76	0x3dc28460	0.09497905
77	0xb87b9ba1	-5.9988004e-05
78	0xbd6af11a	-0.05735884
79	0x3d91097d	0.07081888
80	0xbde7db6a	-0.11321147
81	0x3d03d1b9	0.03218243
82	0x3dcaab5a	0.09895964
83	0x3dbf74c4	0.09348443
84	0x3d4aeb2a	0.049540676
85	0xbdddadb2	-0.108241454
86	0xbcbf17f3	-0.02332685
87	0x3dc2b4ae	0.09507118
88	0xbd6e11a4	-0.058122292
89	0x3ba67b5c	0.0050806236
90	0x3da80c6c	0.08205494
91	0xbdb34739	-0.08753819
92	0x3c80e3cc	0.015733622
93	0x3dd4e9d8	0.10396165
94	0x3dd7dbae	0.105399475
95	0xbbe5235d	-0.006992741
96	0xbdb91c5d	-0.09038613
97	0xbda15199	-0.07876892
98	0x3df567e4	0.11982706
99	0x3df0b210	0.11752713
100	0x3d4d26ca	0.05008582
101	0xbda8841d	-0.082283236
102	0xbc7a846d	-0.015290362
103	0x3befc19d	0.0073167817
104	0xbd492b7e	-0.049113743
105	0xbdbde344	-0.09271863
106	0xbd682db7	-0.056684222
107	0x3a4138f5	0.0007370853
108	0xbd2ede93	-0.042692732
109	0xbc856989	-0.016285675
110	0x3d61afdf	0.055099364
111	0x3da01900	0.07817268
112	0x3cef4e4e	0.029212143
113	0xbded1715	-0.11576668
114	0xbcff9229	-0.031197624
115	0xbdd3f1f1	-0.10348881
116	0xbdd75da4	-0.105159074
117	0xbcbe1b09	-0.02320625
118	0xbdaf6996	-0.08565061
119	0x3cb3ed61	0.021963777
120	0x3df5574f	0.119795434
121	0x3d4cf676	0.05003973
122	0xbd7c40df	-0.061585303
123	0x3c52b3d5	0.012860258
124	0xbce3658e	-0.027758386
125	0x3db72782	0.089430824
126	0x3d3cb83a	0.04607413
127	0x3d60bcf5	0.054867703
128	0xbcef614d	-0.029221201
129	0xbde9cdbf	-0.11416196
130	0xbdac7b62	-0.08421971
131	0x3d5e67a8	0.054298073
132	0x3dcd2d25	0.10018376
133	0x3da59d3f	0.08086633
134	0xbdf3bd23	-0.11901309
135	0xbdf925ae	-0.1216539
136	0xbdcc17cb	-0.09965476
137	0xbd82345e	-0.063576445
138	0xbd34eeb1	-0.044172946
139	0xba67cef2	-0.0008842788
140	0x3d4a9a24	0.049463406
141	0x3c22179a	0.009893322
142	0xbdf615ed	-0.12015901
143	0x3de1b68e	0.11021148
144	0xbb8b880a	-0.0042581605
145	0xbc86baf3	-0.016446566
146	0x3cca4304	0.024690159
147	0xbde60a0a	-0.112323835
148	0xbd6f9877	-0.05849501
149	0xbdf2aa3a	-0.118488744
150	0xbcde06b7	-0.027102811
151	0x3cf3324a	0.029687066
152	0x3d458f8c	0.0482326
153	0x3d2f294a	0.042763986
154	0x3da2174c	0.079146
155	0xbde407ab	-0.11134275
156	0x3dd015c7	0.10160404
157	0x3db85d51	0.09002174
158	0x3dcad8d1	0.09904636
159	0xbd68f6bd	-0.056875933
160	0xbbbd261e	-0.005772366
161	0xbcb63bec	-0.02224537
162	0x3d5a906a	0.05336038
163	0xbb85e7d0	-0.004086472
164	0x3d5f3218	0.054491132
165	0x3d5c628d	0.053804923
166	0x3db67e0a	0.08910759
167	0xbd4e7ed0	-0.050413907
168	0x3d3c59e3	0.04598416
169	0xbd81f79d	-0.063460566
170	0x3c8886f5	0.016665915
171	0x3cd25a3d	0.025677795
172	0xbe05b10c	-0.1305582
173	0xbdbc2239	-0.09186215
174	0xbcc344cc	-0.023836516
175	0xbdea6fe5	-0.114471234
176	0x3ddf9443	0.109169506
177	0xbdaab10f	-0.083345525
178	0x3d52601e	0.051361196
179	0x3df0bfbf	0.11755323
180	0xbd4e81cc	-0.050416753
181	0xbd12ce49	-0.03584126
182	0x3db432d2	0.08798756
183	0xbdeee76e	-0.116652355
184	0xbadd3c2f	-0.0016878898
185	0xbd986c31	-0.07442511
186	0x3d59bcad	0.05315845
187	0xbd142973	-0.03617234
188	0x3dc2405d	0.094849326
189	0xbd48bb05	-0.04900648
190	0xbd841ed8	-0.064511955
191	0xba6e164e	-0.0009082303
192	0xbd300826	-0.04297652
193	0xbddc617d	-0.10760782
194	0xbde80df0	-0.11330783
195	0xbc97cf6f	-0.01853153
196	0x3d0b8da5	0.03407063
197	0x3deab052	0.11459412
198	0xba2a7ee2	-0.00065038924
199	0x3d58bdbb	0.052915316
200	0x3de0c753	0.10975518
201	0x3d01e8bd	0.031716097
202	0x3d831064	0.06399611
203	0xbdf29c4f	-0.1184622
204	0xbd522438	-0.051304072
205	0xbdca827b	-0.098881684
206	0xbbf1ee43	-0.0073831393
207	0xbd71b259	-0.059007976
208	0x3d463ddc	0.048398837
209	0x3def0246	0.116703555
210	0x3c2e6509	0.010644206
211	0x3ca5df57	0.020248098
212	0xbd83a95a	-0.064287856
213	0x3cded2b5	0.027200082
214	0xbc3afe5f	-0.011413186
215	0xbd355dd0	-0.04427892
216	0x3c4ac9fe	0.01237726
217	0x3caed9cb	0.021344086
218	0x3d07b952	0.03313572
219	0xbd862e78	-0.06551832
220	0x3d5a49ba	0.053292967
221	0xbd985ef7	-0.07439988
222	0xbd61e12b	-0.055146378
223	0xbde9b071	-0.11410607
224	0xbdd547ce	-0.10414086
225	0xbd63713f	-0.05552792
226	0x3da30444	0.07959798
227	0x3d3e8728	0.046515614
228	0x3ddc539f	0.10758137
229	0xbcefaf49	-0.029258387
230	0x3c9dc4fa	0.019258965
231	0xbd4f615f	-0.05062997
232	0xbcd6bda1	-0.026213469
233	0x3d4db1d7	0.05021843
234	0x3ddf5920	0.10905671
235	0xbdd72bcf	-0.10506403
236	0xbd146da3	-0.03623737
237	0xbdc95e81	-0.09832478
238	0x3d676ad9	0.056498382
239	0x3dd97bb5	0.10619298
240	0xbd08cac5	-0.0333965
241	0xbdbbbaba	-0.09166475
242	0x3d1292b3	0.035784435
243	0xbd4e8b08	-0.05042556
244	0xbdf72743	-0.120680355
245	0xbd03c910	-0.03217417
246	0xbcca5faf	-0.024703829
247	0x3d75d5cb	0.060018342
248	0xbdf72582	-0.12067701
249	0x3dd0dcc4	0.10198358
250	0xbc9642aa	-0.018342335
251	0xbc706db3	-0.014674592
252	0x3d3a4b58	0.04548201
253	0xbdcea2fa	-0.10089679
254	0xbda2cb24	-0.07948902
255	0x3da722d0	0.08160937

network.1.conv2.bias f4 [33]
0	0xbcaf748b	-0.021417877
1	0x3d4bf4d5	0.049794037
2	0x3db1e830	0.086868644
3	0x3d4479af	0.04796761
4	0xbce3d000	-0.027809143
5	0x3c9b1ebb	0.018935552
6	0xbd6f5811	-0.058433596
7	0xbdafddf2	-0.085872546
8	0x3d832cb4	0.06405011
9	0x3d824cff	0.06362342
10	0xbd041808	-0.03224948
11	0x3dac97f3	0.084274195
12	0x3db00b1c	0.08595869
13	0x3d9d2873	0.07673731
14	0x3d9e0a53	0.07716813
15	0x3c830d94	0.015997685
16	0xbb2c4d23	-0.0026291094
17	0x3d6c3d2a	0.057675518
18	0xbca6e667	-0.020373536
19	0xbddc834c	-0.107672304
20	0xbd832576	-0.064036295
21	0x3dbbfd26	0.091791436
22	0xbdd26f09	-0.102750845
23	0x3d6c2c96	0.057659708
24	0x3daa4112	0.083131924
25	0xbd7a7756	-0.061148964
26	0xbdb0567f	-0.08610248
27	0xbd8a05c5	-0.06739382
28	0x3c8de73f	0.01732218
29	0xbdee17e0	-0.116256475
30	0xbd82ba9f	-0.063832514
31	0xbbb27b47	-0.0054468247
32	0x3d172a0c	0.036905333
