los/aumc/aumc_los_TCN_repetition_0_fold_0_model-v1.ckpt (torch, 276445 bytes, 73 tensors)

network.0.conv1.bias f4 [32]
000000 e0 c6 ce bc c8 21 34 bc d6 a3 89 3d b8 41 c5 bc
       -0.025241315 -0.010994382 0.06720702 -0.024079189
000010 f6 36 8b bd ff ea 27 3c 2e 99 fd bd aa f8 ee bd
       -0.06797592 0.0102488985 -0.12382732 -0.11668523
000020 4c 25 f1 bd 4f 96 60 bd 2c 10 d6 3b 76 3e c1 bd
       -0.11774692 -0.054830845 0.0065326896 -0.094357416
000030 c1 c2 92 3c 08 03 8f bd 34 1a 2d 3d 37 cc 26 3b
       0.017915132 -0.06983 0.042261317 0.0025451311
000040 fd 02 17 bc 0e 6c 28 bd dc ce 2c bd e3 99 81 bd
       -0.009217021 -0.041118674 -0.042189464 -0.0632818
000050 54 4f 7f 3c 10 39 d6 bd 4b c3 6a 3c 76 b8 cb bc
       0.015582878 -0.104601026 0.014328788 -0.024868231
000060 bc 2d 26 bd 3a db e0 3c 6a 05 f3 3c 6f ef ea bd
       -0.04057096 0.027448285 0.029665668 -0.114714496
000070 df 53 13 3c ff be 1d 3c 41 e4 d9 bd b9 71 c0 bb
       0.008992164 0.009628057 -0.10639239 -0.005872932

network.0.conv1.weight_v f4 [32, 52, 2]
000000 cf 58 01 3e 3d 67 44 3d 83 57 b0 3c b7 6a f1 3d
       0.12631534 0.04795002 0.021526104 0.11787932
000010 a4 3c dc bc b7 88 fa 3c 7f d1 9d bd b4 3b 56 3d
       -0.026884384 0.030582769 -0.07705974 0.05230303
000020 b0 81 8e 3d c6 dd 3b 3d 22 50 84 bc 71 75 0f bb
       0.0695833 0.045865797 -0.016151492 -0.002189007
000030 e6 a1 1b 3d 04 d7 b3 3c 68 80 87 3d 2f ba 1a bd
       0.037996195 0.021953113 0.066162884 -0.037775215
000040 82 a3 cc bd ef cd 2b be ca 0b 4a bd 25 85 87 bd
       -0.09992124 -0.16777776 -0.04932765 -0.06617192
000050 cb a8 91 bd d6 c9 2e 3c 8c 56 86 ba cd d2 7b 3b
       -0.07112273 0.010668239 -0.0010249182 0.0038425208
000060 3b b1 8e bc 36 1b cf bc 1e 3b 14 bd 1b 72 80 bd
       -0.017418494 -0.02528153 -0.03618919 -0.06271764
000070 2d ff 1b 3b b2 75 c2 3d 58 7d af 3c 0d 90 4d bd
       0.002380322 0.09495105 0.021422073 -0.050186206
000080 4a e3 f6 3c 61 b1 89 bd dd c9 72 bd 9c 39 27 bd
       0.030137677 -0.067232855 -0.059274543 -0.040826425
000090 3b cb 64 bd 1e ec 2b be 75 a9 02 be 22 aa 42 3d
       -0.05585788 -0.1678929 -0.12759955 0.047525533
0000a0 94 3d 69 bd 8b 93 25 3d 45 42 78 bd 4c de 95 bd
       -0.05694349 0.04042391 -0.060610075 -0.073177904
0000b0 6a 2b b5 bd 39 98 a3 3d 66 d2 6f 3d 50 e0 57 3d
       -0.08846171 0.079880185 0.05855026 0.052704155
0000c0 28 c9 82 3d e6 d0 a0 bc 7e 75 63 bd 3f 4b a6 bd
       0.06386024 -0.01963086 -0.05553197 -0.08119821
0000d0 02 57 d0 bd 00 8c db bd de 31 d4 bc 7e d7 0e 3d
       -0.101728454 -0.10720062 -0.025902685 0.034873478
0000e0 b2 b0 3d 3d b3 96 f6 3d 9a b1 a1 bd d2 c4 2c 3d
       0.046311088 0.12040462 -0.07895203 0.04217989
0000f0 d9 42 b0 bd 6b 26 8d 3d b3 44 a6 3d 2c fd 28 3d
       -0.086065 0.06892093 0.08118572 0.04125707
000100 d5 61 9a 3c 07 06 7a bc 61 f2 c7 bd 4d aa be 3d
       0.018845478 -0.015260226 -0.09763027 0.09309826
000110 00 a7 b1 3d ab 8c a2 bc 66 a6 b8 3d e7 d4 50 bc
       0.08674431 -0.019842466 0.09016113 -0.012746072
000120 65 ef 7b 39 72 2c a3 3d 7a e8 90 3c 75 a3 3b bd
       0.00024026407 0.07967462 0.017688978 -0.04581018
000130 71 95 5c bd 82 7d c6 bc 22 a1 c3 bd dc f3 be bd
       -0.053853456 -0.024229769 -0.09552218 -0.09323856
000140 f9 08 92 3c 85 43 63 bd 40 45 60 3d a5 c4 52 3c
       0.017826544 -0.055484314 0.054753542 0.0128642665
000150 52 4c 95 3c 89 7a 88 3c 37 69 b7 bc 6a 88 d1 3d
       0.018224869 0.016659992 -0.022389038 0.10231097
000160 cf fe 20 3d 70 be 83 bd 90 46 72 3b b6 db 9f 3d
       0.039305504 -0.064328074 0.0036968328 0.078055784
000170 f4 23 95 bd b7 23 2b 3d 13 14 4d 3b 38 72 9e 3c
       -0.07282248 0.041782107 0.0031292483 0.019341573
000180 c7 ac 5d bd 89 e7 da bc 86 4e 73 bc ca 2a b2 bd
       -0.05411985 -0.026721733 -0.014850264 -0.086995676
000190 9e fc 20 3d d8 55 61 3d 2f 23 66 3d 56 c2 45 3d
       0.039303415 0.055013508 0.056185897 0.048281036
0001a0 4f 01 ae bc 5a 20 13 be d8 dd ca 3d 50 de eb 3d
       -0.021240858 -0.1436781 0.099055946 0.11517012
0001b0 4e 2c 9e 3d a3 6f a9 3d a7 19 1e 3d 11 0a 56 bd
       0.07723294 0.08273246 0.038598683 -0.052255694
0001c0 76 98 57 bc 3a ce 05 3d 3e 86 a4 bc 2a e6 a4 3c
       -0.013158908 0.032667376 -0.020083543 0.020129282
0001d0 17 20 73 3d 3c 72 af 3d 4a 2d 43 bd c6 e0 0c bd
       0.059356775 0.0856671 -0.047650613 -0.03439405
0001e0 b5 f7 57 3d 21 53 66 bd b5 ba a4 3d 9a ba 7f 3d
       0.052726466 -0.05623162 0.08043424 0.062433816
0001f0 db c8 80 3d 16 4d 46 bd 08 74 ee 3c e1 19 21 3d
       0.0628831 -0.04841336 0.029108062 0.03933132
000200 97 ae 57 3d c4 6a 8a 3d 7f 8e 88 3d 8c f1 dd bd
       0.052656736 0.06758645 0.06667804 -0.10837087
000210 7a 39 fb 3c 7a 96 0a 3c 03 21 82 3d 0f f1 0f 3c
       0.030667055 0.008458728 0.06353953 0.0087855
000220 a0 8f cb 3d 81 87 dd 3b ad 2a 97 3c d8 85 5f bd
       0.09939504 0.006760538 0.018452967 -0.054571003
000230 7f 46 91 3d d6 08 d5 3d 70 f0 92 3d 77 ae 0a bd
       0.07093524 0.10402076 0.07174766 -0.03385779
000240 5e e2 94 3c 18 c4 b6 bc 6a 04 b4 3d 74 e9 88 bd
       0.018174347 -0.022310302 0.087899044 -0.06685153
000250 ec 21 a7 b9 4c e8 c5 3a c8 1c 89 bd a1 f8 6a bb
       -0.00031877996 0.0015099137 -0.06694943 -0.003585376
000260 23 53 b2 bd 2e bb 84 3c f0 9a 69 bd 04 d7 b2 bd
       -0.08707263 0.016202535 -0.057032526 -0.08732417
000270 3a 6c 8d 3d 1c 91 84 3d 3e 3f 33 bd 9e be 9e bd
       0.06905408 0.0647299 -0.043761484 -0.07751201
000280 d9 31 ea 3d 32 16 96 3d 3c 58 fb ba 97 7e 4f bd
       0.11435289 0.07328452 -0.0019176076 -0.050657835
000290 4f 11 4b 3c cb ae a7 3d 9b 39 c8 3c d5 19 ba bd
       0.012394263 0.08187636 0.02444153 -0.09086958
0002a0 1f 3f 7a bc 7d 0f 4a 3c 66 a6 c6 3d 80 f3 c9 3d
       -0.015273838 0.012332794 0.09699707 0.09860897
0002b0 ad 0f 99 3d df 0c 13 bd 44 b8 1f 3d 9a c4 80 bd
       0.07473693 -0.035900947 0.03899409 -0.06287499
0002c0 e4 f4 9b 3d 88 a1 97 3d 1b 2c a2 bc 4d 69 5c bd
       0.076150686 0.074038565 -0.019796422 -0.05381136
0002d0 e0 04 3d bd 75 60 97 3c 3b fc 52 bc 7c 28 02 bd
       -0.046147227 0.018478611 -0.012877519 -0.03177689
0002e0 11 06 b9 3c dc 67 e6 bc d7 6b ed bc 6a e7 b6 3d
       0.0225859 -0.028125696 -0.028982086 0.089308575
0002f0 7d 13 ad 3c e9 99 5f 3b bd b3 74 3d 84 5e 5c 3d
       0.021127457 0.0034118837 0.059741724 0.053801075
000300 97 91 55 bc be 9b 37 3d 84 86 88 bd b0 8a 2d 3d
       -0.0130352 0.04482626 -0.06666282 0.04236859
000310 fc c7 d6 3c c1 3d 60 3c 89 67 a5 3c 40 40 10 3b
       0.026218407 0.013686598 0.020190971 0.0022010952
000320 d1 7d 7c bd cd 7e ab 3d a7 23 a7 3d 65 76 4f bd
       -0.061643425 0.08373795 0.08161097 -0.05065002
000330 dc 6f 8b 3d b3 58 ed bd d0 9a ef 3a 96 40 78 bd
       0.06808445 -0.11589184 0.0018280391 -0.06060847
000340 ef 28 49 3d 98 d7 aa bd 04 04 54 bd ef 84 ea bd
       0.049111303 -0.083419025 -0.051761642 -0.11451136
000350 63 d5 94 3d b8 66 d8 3d 17 ad 79 bd a7 42 74 3d
       0.07267263 0.10566467 -0.060956087 0.059633877
000360 ec 34 f9 bb 2b bc 9f 3b 6d 91 ed 3c e4 0f 19 3c
       -0.0076051857 0.0048747263 0.029000008 0.0093421675
000370 31 b2 6e bd 84 5a b2 3b 60 9b 34 3c d6 b2 ec 3b
       -0.058275405 0.005442919 0.011023372 0.0072234673
000380 40 a2 d2 bd 4c dd b0 bd 83 cf 78 3d 52 53 83 bc
       -0.10284853 -0.08635959 0.060744774 -0.016030941
000390 fc a3 5f 3d cb 7e 4b bd 1a 14 6b bd e8 95 07 bc
       0.054599747 -0.049681466 -0.057392217 -0.0082754865
0003a0 99 eb 01 bd 6d 0c 95 bc 21 cf 83 3d 94 cb 9f bc
       -0.031718824 -0.018194402 0.06435991 -0.019506253
0003b0 2b 78 73 bd ff 88 91 3d d0 b3 c4 3d be a1 3a bd
       -0.059440773 0.07106208 0.09604609 -0.045564406
0003c0 5c 93 76 3c 7c 74 04 3d cf 06 23 bd b1 a7 3d bc
       0.015049782 0.03233765 -0.039801415 -0.011575625
0003d0 b3 4f 8e 3d bc 79 04 bd 80 79 03 3c 4b 94 84 bd
       0.06948795 -0.032342657 0.008024573 -0.06473597
0003e0 ff ad 44 bb a3 3a 00 3d 32 a7 a5 bd 3a b6 c4 3d
       -0.0030010936 0.03130592 -0.080885306 0.096050695
0003f0 a7 fe fd 3b d8 c2 fa 3b b4 32 37 bd b1 db e3 3d
       0.007751304 0.0076526217 -0.04472609 0.11125887

network.0.conv2.bias f4 [32]
000000 ab 16 a7 bd 41 1a 25 3c 97 af 24 3d 85 d6 ec bc
       -0.081586204 0.01007706 0.040206518 -0.028910885
000010 15 03 f4 bd e0 c3 79 3d 0b 93 bd bd da 55 14 3d
       -0.1191465 0.060977817 -0.09256562 0.036214687
000020 50 90 8b 3b e7 6e 27 3d d2 70 00 bc 5c db b9 3b
       0.0042591467 0.04087725 -0.007839398 0.0056719016
000030 b1 63 9c bd 80 89 dc 3c c8 fe 0b be e2 51 92 bd
       -0.07636202 0.026921034 -0.1367141 -0.07144524
000040 48 ad 13 3d 55 b7 16 3d dd 94 0c bc 49 ee 33 bd
       0.036053926 0.036795933 -0.008580414 -0.04392842
000050 a3 72 fb 3d f5 83 01 bd 57 5e f4 bb 43 40 25 bc
       0.122777246 -0.031619985 -0.0074575352 -0.010086122
000060 7d a9 95 3d 60 8b 4c bc 92 84 06 be e0 61 4e bd
       0.07307718 -0.012484401 -0.13136509 -0.05038631
000070 12 47 a7 bd 17 45 ee bd 34 13 a4 3c f9 37 6d bd
       -0.081678525 -0.116342716 0.020028688 -0.057914708

network.0.conv2.weight_v f4 [32, 32, 2]
000000 9a 94 8b bd b9 c1 0f 3d ec 03 b4 bd a3 1d e1 bc
       -0.06815453 0.035096858 -0.087898105 -0.027479952
000010 d1 46 d1 3d 83 bf a1 3d e7 11 05 bd 3f 77 f1 bd
       0.10218585 0.07897856 -0.032487776 -0.117903225
000020 27 a3 20 bc f1 7a c2 bd 41 c1 e2 3c 5a 4b d1 bd
       -0.009804524 -0.094961055 0.027680041 -0.1021945
000030 29 1d 79 3d 58 bb 26 3e fd 7a 5d 3d 61 ec c9 3d
       0.060818825 0.16282403 0.05407237 0.09859539
000040 66 b8 6b bd 21 4a 95 bd 3a 46 b6 bc 7f 9e fb bb
       -0.057548903 -0.072895296 -0.022250284 -0.0076788063
000050 63 96 c0 bd 25 1d 2b 3d 56 32 46 bc 5a 99 08 be
       -0.09403684 0.04177584 -0.012096962 -0.13339749
000060 6f 56 b7 bd 8d 24 92 3d 7b bd ad bd 22 08 d0 bb
       -0.08952033 0.07135878 -0.08483406 -0.0063486258
000070 4f 77 00 be b0 c8 01 be 43 33 75 3d b0 f2 0d bd
       -0.12545513 -0.12674212 0.05986334 -0.034655273
000080 0f e7 04 3e f4 84 08 bd 4b 7a 07 be 0b f9 0e be
       0.12978767 -0.03332992 -0.13230245 -0.1396219
000090 b0 dd 3e bd 01 29 60 3d 1e 85 12 3a fa 95 59 b9
       -0.046598136 0.054726604 0.0005589294 -0.00020750603
0000a0 e5 c9 84 3d 1e 47 d5 bd 50 d0 04 be 2a ec cd bd
       0.06483821 -0.10413955 -0.1297009 -0.1005481
0000b0 c8 1a a1 3d 65 23 bd bd 31 bd 87 bd 21 c7 52 3d
       0.07866436 -0.092352666 -0.06627882 0.051459435
0000c0 f2 aa 92 bc 84 47 74 3d 68 a5 bf 3d 67 1d a2 bc
       -0.017903779 0.059638515 0.093577206 -0.01978941
0000d0 25 16 97 bc f3 ca 01 3e 91 53 4d 3d 6b df 08 3d
       -0.018443177 0.12675075 0.050128523 0.033416193
0000e0 dd 62 1c bd 53 70 d0 bd 0e 47 8d bd c2 b1 32 bd
       -0.03818022 -0.10177674 -0.06898318 -0.043626554
0000f0 55 db fe 3c 61 3e 9c 3d 36 cc 31 3d 05 e8 2e 3d
       0.031110445 0.07629085 0.04340764 0.04270174
000100 6a 25 04 bd 9e eb 8d 3d 39 44 17 bd 2d c9 72 3d
       -0.032262243 0.06929706 -0.036930297 0.059273887
000110 be e7 61 bd db 47 2b bc dd 4b ff 3d 9f 1f f5 3c
       -0.055152647 -0.010454143 0.12465642 0.029922305
000120 58 13 91 bb de 97 92 3c f7 b6 9b bc b2 d1 9a 3d
       -0.004427355 0.017894682 -0.019008143 0.075595275
000130 8a 5d e0 bd 8b d9 1c bd a0 54 f4 3c ea bc 8a bd
       -0.10955341 -0.038293403 0.029825509 -0.06774314
000140 45 04 c2 bd 06 05 3b bd 0c ea 89 3d 8d 14 05 3e
       -0.094734706 -0.045659088 0.06734094 0.12996121
000150 f5 3e e3 bd 73 e7 7b 3d 7c 14 ae bd af 81 06 be
       -0.110959925 0.061500024 -0.08500001 -0.13135408
000160 57 a2 2e be 53 9e dd 3c d1 68 e8 3d 0b b0 99 3d
       -0.17054115 0.027053034 0.11348117 0.07504281
000170 cb 81 96 3d fb 20 33 3d 56 1e 03 be 25 a6 1e 3c
       0.07348975 0.043732625 -0.12804541 0.009683167
000180 3b 93 86 3c 75 34 8a bd 2d d0 be bd 45 58 6b bd
       0.016427627 -0.06748287 -0.0931705 -0.057457227
000190 d6 b5 1e bd 26 00 6a 3d 92 aa cc 3d 8b d6 14 bd
       -0.03874763 0.057129048 0.09993471 -0.036337417
0001a0 1e 6d 55 bd 52 41 62 bd 06 3b 1d bd a9 60 93 3d
       -0.052106015 -0.055238076 -0.038386367 0.07196171
0001b0 ec 16 d5 bc a1 49 01 3d b7 65 ed bc 95 40 8a 3c
       -0.026011907 0.03156436 -0.028979165 0.016876498
0001c0 51 8f 06 bd 7b d5 83 bd 3e 1a e3 bc 21 c4 ae 3d
       -0.03285152 -0.064372025 -0.027722474 0.08533502
0001d0 c0 42 31 3c 10 59 d2 bc a1 3d ad 3d c1 b3 e4 3d
       0.010819137 -0.025677234 0.084590204 0.11167098
0001e0 f4 88 ad 3d a7 f6 53 3b 4a 35 ca 3d b1 f2 87 bd
       0.08473387 0.0032343061 0.09873445 -0.066380866
0001f0 75 f4 19 3d df 4f 95 3d f1 fb 1a 3d 21 5f 13 bd
       0.037586648 0.07290625 0.037837926 -0.035979394
000200 d2 68 d8 bd 2a b7 4c bc e3 5b 0c be 63 22 46 bd
       -0.10566868 -0.012494842 -0.13706927 -0.048372637
000210 e2 19 79 bd 0e 06 86 3d 66 40 29 3d 01 31 8a bd
       -0.0608157 0.065441236 0.04132118 -0.06747628
000220 c0 32 65 bc e4 8b c5 bd 6e bf 68 3d d3 77 69 bc
       -0.0139891505 -0.09645823 0.056823187 -0.01424976
000230 ca 64 5b bd 71 f7 fd bd 7b a8 64 bd c0 7f 2d bd
       -0.053562917 -0.12400711 -0.055824738 -0.04235816
000240 9a ae 7c bd 76 b7 86 3c a4 c1 cc 3b d4 85 7b 3d
       -0.06168995 0.016444903 0.0062486697 0.061406925
000250 53 b6 14 bd 93 b5 58 bd 11 8a ce bd 05 e4 bf bd
       -0.03630669 -0.052907538 -0.10084928 -0.09369663
000260 19 d2 f3 3d 77 60 6d 3c 7b c8 0a be e0 83 12 be
       0.11905307 0.014488331 -0.1355304 -0.14308119
000270 2e 6f cf 3c 16 bb bf bd 08 a0 04 3d 68 76 94 3d
       0.02532157 -0.09361856 0.03237918 0.07249147
000280 a1 c3 ec bd b1 1f 5b 3d 4e 38 ab bd 20 b6 c2 bb
       -0.11560751 0.05349702 -0.08360349 -0.005942121
000290 a0 da c5 3d c4 d2 ee 3d 5d 90 ca bd dd 87 a9 3d
       0.0966084 0.11661294 -0.09890816 0.08277867
0002a0 57 e4 be bd cc 9c df bd da 94 17 3d 03 f3 49 bd
       -0.09320896 -0.109185785 0.03700719 -0.04930402
0002b0 4a 8f 83 3d ca 8c 96 bd da 94 a0 3d be 82 e5 3c
       0.064238146 -0.07351072 0.07840891 0.028016444
0002c0 c9 94 55 bd 56 a0 0c be a0 e1 4d 3d 1f c7 b2 3c
       -0.052143846 -0.13733038 0.050264 0.021823464
0002d0 36 b6 d6 bc 95 2b 0d be a8 5d bb bd 39 54 96 bd
       -0.026209932 -0.13786156 -0.09148723 -0.07340283
0002e0 06 d3 bf 3d df 9e a3 3d b9 66 b3 bd 5c a6 60 3c
       0.093664214 0.07989287 -0.08759827 0.013711538
0002f0 24 4e b3 3d 69 d1 0e 3d 57 e3 e1 bb d5 90 06 be
       0.087551385 0.034867678 -0.006893556 -0.13141187
000300 1e d1 3a 3d 48 2d 5e 3c b5 c5 ff bd af a3 84 bd
       0.045609586 0.013560601 -0.124888815 -0.06476533
000310 e0 98 65 3d 27 bb 02 3e 81 1f 80 3d c6 6c a8 bd
       0.056053996 0.12766705 0.06256009 -0.08223872
000320 8d a8 89 3b 2e ad 94 3d a8 49 e4 3c 9d 28 ba 3d
       0.004201001 0.07259594 0.027867153 0.090897776
000330 d9 b7 19 be e5 78 15 be d2 4f b3 bd 99 95 42 be
       -0.15011539 -0.14596899 -0.08755459 -0.1900238
000340 4e b8 98 bd 4b 3b 91 bd 8f 13 af bd 10 fa 17 3d
       -0.07457028 -0.07091387 -0.085486524 0.037103713
000350 14 d9 c1 3d d4 c4 26 3e d4 53 54 bc 4b ae e0 bd
       0.094652325 0.16286021 -0.012959439 -0.10970744
000360 93 75 b2 bd 9d d6 8b bd a8 a0 80 bd e6 d6 85 3d
       -0.08713832 -0.068280436 -0.06280643 0.06535129
000370 64 df ae 3d 32 81 5a bc 5a f8 6f bd f5 ed 03 3d
       0.08538702 -0.013336467 -0.058586456 0.032209355
000380 c1 1b 05 be ad 58 dc bd c4 b7 1b 3e 81 28 81 bc
       -0.12998869 -0.10759101 0.1520682 -0.015766384
000390 f7 1a c2 3d cb ae e9 ba b5 1a 98 bd b9 e4 53 bc
       0.094777994 -0.0017828582 -0.07426969 -0.01293295
0003a0 58 1c a0 3d 1a e4 57 3d 64 f8 8c 3c c0 3c 87 3d
       0.07817906 0.05270777 0.017208286 0.06603384
0003b0 97 05 db 3b 34 3e e3 3c d9 d3 1b be 9e e8 e3 bd
       0.006684016 0.027739622 -0.15217532 -0.111283526
0003c0 35 42 90 3c ae a8 d7 bd 39 d8 26 3d 2f 5d ee 3c
       0.017609695 -0.1053022 0.04073355 0.029097168
0003d0 ff ff 46 be aa 86 9c bd de d6 9e bd 94 23 fa 3b
       -0.19433592 -0.07642873 -0.077558264 0.007633636
0003e0 18 cc d6 bd c6 60 bb bd 3d b0 8e 3c 4a 69 ba 3d
       -0.104881465 -0.091493174 0.017418021 0.091021135
0003f0 40 50 94 bd 96 94 83 bd 0e b3 cb bd 90 d7 10 be
       -0.07241869 -0.06424825 -0.09946261 -0.1414473

network.0.net.0.bias f4 [32]
000000 e0 c6 ce bc c8 21 34 bc d6 a3 89 3d b8 41 c5 bc
       -0.025241315 -0.010994382 0.06720702 -0.024079189
000010 f6 36 8b bd ff ea 27 3c 2e 99 fd bd aa f8 ee bd
       -0.06797592 0.0102488985 -0.12382732 -0.11668523
000020 4c 25 f1 bd 4f 96 60 bd 2c 10 d6 3b 76 3e c1 bd
       -0.11774692 -0.054830845 0.0065326896 -0.094357416
000030 c1 c2 92 3c 08 03 8f bd 34 1a 2d 3d 37 cc 26 3b
       0.017915132 -0.06983 0.042261317 0.0025451311
000040 fd 02 17 bc 0e 6c 28 bd dc ce 2c bd e3 99 81 bd
       -0.009217021 -0.041118674 -0.042189464 -0.0632818
000050 54 4f 7f 3c 10 39 d6 bd 4b c3 6a 3c 76 b8 cb bc
       0.015582878 -0.104601026 0.014328788 -0.024868231
000060 bc 2d 26 bd 3a db e0 3c 6a 05 f3 3c 6f ef ea bd
       -0.04057096 0.027448285 0.029665668 -0.114714496
000070 df 53 13 3c ff be 1d 3c 41 e4 d9 bd b9 71 c0 bb
       0.008992164 0.009628057 -0.10639239 -0.005872932

network.0.net.0.weight_v f4 [32, 52, 2]
000000 cf 58 01 3e 3d 67 44 3d 83 57 b0 3c b7 6a f1 3d
       0.12631534 0.04795002 0.021526104 0.11787932
000010 a4 3c dc bc b7 88 fa 3c 7f d1 9d bd b4 3b 56 3d
       -0.026884384 0.030582769 -0.07705974 0.05230303
000020 b0 81 8e 3d c6 dd 3b 3d 22 50 84 bc 71 75 0f bb
       0.0695833 0.045865797 -0.016151492 -0.002189007
000030 e6 a1 1b 3d 04 d7 b3 3c 68 80 87 3d 2f ba 1a bd
       0.037996195 0.021953113 0.066162884 -0.037775215
000040 82 a3 cc bd ef cd 2b be ca 0b 4a bd 25 85 87 bd
       -0.09992124 -0.16777776 -0.04932765 -0.06617192
000050 cb a8 91 bd d6 c9 2e 3c 8c 56 86 ba cd d2 7b 3b
       -0.07112273 0.010668239 -0.0010249182 0.0038425208
000060 3b b1 8e bc 36 1b cf bc 1e 3b 14 bd 1b 72 80 bd
       -0.017418494 -0.02528153 -0.03618919 -0.06271764
000070 2d ff 1b 3b b2 75 c2 3d 58 7d af 3c 0d 90 4d bd
       0.002380322 0.09495105 0.021422073 -0.050186206
000080 4a e3 f6 3c 61 b1 89 bd dd c9 72 bd 9c 39 27 bd
       0.030137677 -0.067232855 -0.059274543 -0.040826425
000090 3b cb 64 bd 1e ec 2b be 75 a9 02 be 22 aa 42 3d
       -0.05585788 -0.1678929 -0.12759955 0.047525533
0000a0 94 3d 69 bd 8b 93 25 3d 45 42 78 bd 4c de 95 bd
       -0.05694349 0.04042391 -0.060610075 -0.073177904
0000b0 6a 2b b5 bd 39 98 a3 3d 66 d2 6f 3d 50 e0 57 3d
       -0.08846171 0.079880185 0.05855026 0.052704155
0000c0 28 c9 82 3d e6 d0 a0 bc 7e 75 63 bd 3f 4b a6 bd
       0.06386024 -0.01963086 -0.05553197 -0.08119821
0000d0 02 57 d0 bd 00 8c db bd de 31 d4 bc 7e d7 0e 3d
       -0.101728454 -0.10720062 -0.025902685 0.034873478
0000e0 b2 b0 3d 3d b3 96 f6 3d 9a b1 a1 bd d2 c4 2c 3d
       0.046311088 0.12040462 -0.07895203 0.04217989
0000f0 d9 42 b0 bd 6b 26 8d 3d b3 44 a6 3d 2c fd 28 3d
       -0.086065 0.06892093 0.08118572 0.04125707
000100 d5 61 9a 3c 07 06 7a bc 61 f2 c7 bd 4d aa be 3d
       0.018845478 -0.015260226 -0.09763027 0.09309826
000110 00 a7 b1 3d ab 8c a2 bc 66 a6 b8 3d e7 d4 50 bc
       0.08674431 -0.019842466 0.09016113 -0.012746072
000120 65 ef 7b 39 72 2c a3 3d 7a e8 90 3c 75 a3 3b bd
       0.00024026407 0.07967462 0.017688978 -0.04581018
000130 71 95 5c bd 82 7d c6 bc 22 a1 c3 bd dc f3 be bd
       -0.053853456 -0.024229769 -0.09552218 -0.09323856
000140 f9 08 92 3c 85 43 63 bd 40 45 60 3d a5 c4 52 3c
       0.017826544 -0.055484314 0.054753542 0.0128642665
000150 52 4c 95 3c 89 7a 88 3c 37 69 b7 bc 6a 88 d1 3d
       0.018224869 0.016659992 -0.022389038 0.10231097
000160 cf fe 20 3d 70 be 83 bd 90 46 72 3b b6 db 9f 3d
       0.039305504 -0.064328074 0.0036968328 0.078055784
000170 f4 23 95 bd b7 23 2b 3d 13 14 4d 3b 38 72 9e 3c
       -0.07282248 0.041782107 0.0031292483 0.019341573
000180 c7 ac 5d bd 89 e7 da bc 86 4e 73 bc ca 2a b2 bd
       -0.05411985 -0.026721733 -0.014850264 -0.086995676
000190 9e fc 20 3d d8 55 61 3d 2f 23 66 3d 56 c2 45 3d
       0.039303415 0.055013508 0.056185897 0.048281036
0001a0 4f 01 ae bc 5a 20 13 be d8 dd ca 3d 50 de eb 3d
       -0.021240858 -0.1436781 0.099055946 0.11517012
0001b0 4e 2c 9e 3d a3 6f a9 3d a7 19 1e 3d 11 0a 56 bd
       0.07723294 0.08273246 0.038598683 -0.052255694
0001c0 76 98 57 bc 3a ce 05 3d 3e 86 a4 bc 2a e6 a4 3c
       -0.013158908 0.032667376 -0.020083543 0.020129282
0001d0 17 20 73 3d 3c 72 af 3d 4a 2d 43 bd c6 e0 0c bd
       0.059356775 0.0856671 -0.047650613 -0.03439405
0001e0 b5 f7 57 3d 21 53 66 bd b5 ba a4 3d 9a ba 7f 3d
       0.052726466 -0.05623162 0.08043424 0.062433816
0001f0 db c8 80 3d 16 4d 46 bd 08 74 ee 3c e1 19 21 3d
       0.0628831 -0.04841336 0.029108062 0.03933132
000200 97 ae 57 3d c4 6a 8a 3d 7f 8e 88 3d 8c f1 dd bd
       0.052656736 0.06758645 0.06667804 -0.10837087
000210 7a 39 fb 3c 7a 96 0a 3c 03 21 82 3d 0f f1 0f 3c
       0.030667055 0.008458728 0.06353953 0.0087855
000220 a0 8f cb 3d 81 87 dd 3b ad 2a 97 3c d8 85 5f bd
       0.09939504 0.006760538 0.018452967 -0.054571003
000230 7f 46 91 3d d6 08 d5 3d 70 f0 92 3d 77 ae 0a bd
       0.07093524 0.10402076 0.07174766 -0.03385779
000240 5e e2 94 3c 18 c4 b6 bc 6a 04 b4 3d 74 e9 88 bd
       0.018174347 -0.022310302 0.087899044 -0.06685153
000250 ec 21 a7 b9 4c e8 c5 3a c8 1c 89 bd a1 f8 6a bb
       -0.00031877996 0.0015099137 -0.06694943 -0.003585376
000260 23 53 b2 bd 2e bb 84 3c f0 9a 69 bd 04 d7 b2 bd
       -0.08707263 0.016202535 -0.057032526 -0.08732417
000270 3a 6c 8d 3d 1c 91 84 3d 3e 3f 33 bd 9e be 9e bd
       0.06905408 0.0647299 -0.043761484 -0.07751201
000280 d9 31 ea 3d 32 16 96 3d 3c 58 fb ba 97 7e 4f bd
       0.11435289 0.07328452 -0.0019176076 -0.050657835
000290 4f 11 4b 3c cb ae a7 3d 9b 39 c8 3c d5 19 ba bd
       0.012394263 0.08187636 0.02444153 -0.09086958
0002a0 1f 3f 7a bc 7d 0f 4a 3c 66 a6 c6 3d 80 f3 c9 3d
       -0.015273838 0.012332794 0.09699707 0.09860897
0002b0 ad 0f 99 3d df 0c 13 bd 44 b8 1f 3d 9a c4 80 bd
       0.07473693 -0.035900947 0.03899409 -0.06287499
0002c0 e4 f4 9b 3d 88 a1 97 3d 1b 2c a2 bc 4d 69 5c bd
       0.076150686 0.074038565 -0.019796422 -0.05381136
0002d0 e0 04 3d bd 75 60 97 3c 3b fc 52 bc 7c 28 02 bd
       -0.046147227 0.018478611 -0.012877519 -0.03177689
0002e0 11 06 b9 3c dc 67 e6 bc d7 6b ed bc 6a e7 b6 3d
       0.0225859 -0.028125696 -0.028982086 0.089308575
0002f0 7d 13 ad 3c e9 99 5f 3b bd b3 74 3d 84 5e 5c 3d
       0.021127457 0.0034118837 0.059741724 0.053801075
000300 97 91 55 bc be 9b 37 3d 84 86 88 bd b0 8a 2d 3d
       -0.0130352 0.04482626 -0.06666282 0.04236859
000310 fc c7 d6 3c c1 3d 60 3c 89 67 a5 3c 40 40 10 3b
       0.026218407 0.013686598 0.020190971 0.0022010952
000320 d1 7d 7c bd cd 7e ab 3d a7 23 a7 3d 65 76 4f bd
       -0.061643425 0.08373795 0.08161097 -0.05065002
000330 dc 6f 8b 3d b3 58 ed bd d0 9a ef 3a 96 40 78 bd
       0.06808445 -0.11589184 0.0018280391 -0.06060847
000340 ef 28 49 3d 98 d7 aa bd 04 04 54 bd ef 84 ea bd
       0.049111303 -0.083419025 -0.051761642 -0.11451136
000350 63 d5 94 3d b8 66 d8 3d 17 ad 79 bd a7 42 74 3d
       0.07267263 0.10566467 -0.060956087 0.059633877
000360 ec 34 f9 bb 2b bc 9f 3b 6d 91 ed 3c e4 0f 19 3c
       -0.0076051857 0.0048747263 0.029000008 0.0093421675
000370 31 b2 6e bd 84 5a b2 3b 60 9b 34 3c d6 b2 ec 3b
       -0.058275405 0.005442919 0.011023372 0.0072234673
000380 40 a2 d2 bd 4c dd b0 bd 83 cf 78 3d 52 53 83 bc
       -0.10284853 -0.08635959 0.060744774 -0.016030941
000390 fc a3 5f 3d cb 7e 4b bd 1a 14 6b bd e8 95 07 bc
       0.054599747 -0.049681466 -0.057392217 -0.0082754865
0003a0 99 eb 01 bd 6d 0c 95 bc 21 cf 83 3d 94 cb 9f bc
       -0.031718824 -0.018194402 0.06435991 -0.019506253
0003b0 2b 78 73 bd ff 88 91 3d d0 b3 c4 3d be a1 3a bd
       -0.059440773 0.07106208 0.09604609 -0.045564406
0003c0 5c 93 76 3c 7c 74 04 3d cf 06 23 bd b1 a7 3d bc
       0.015049782 0.03233765 -0.039801415 -0.011575625
0003d0 b3 4f 8e 3d bc 79 04 bd 80 79 03 3c 4b 94 84 bd
       0.06948795 -0.032342657 0.008024573 -0.06473597
0003e0 ff ad 44 bb a3 3a 00 3d 32 a7 a5 bd 3a b6 c4 3d
       -0.0030010936 0.03130592 -0.080885306 0.096050695
0003f0 a7 fe fd 3b d8 c2 fa 3b b4 32 37 bd b1 db e3 3d
       0.007751304 0.0076526217 -0.04472609 0.11125887

network.0.net.4.bias f4 [32]
000000 ab 16 a7 bd 41 1a 25 3c 97 af 24 3d 85 d6 ec bc
       -0.081586204 0.01007706 0.040206518 -0.028910885
000010 15 03 f4 bd e0 c3 79 3d 0b 93 bd bd da 55 14 3d
       -0.1191465 0.060977817 -0.09256562 0.036214687
000020 50 90 8b 3b e7 6e 27 3d d2 70 00 bc 5c db b9 3b
       0.0042591467 0.04087725 -0.007839398 0.0056719016
000030 b1 63 9c bd 80 89 dc 3c c8 fe 0b be e2 51 92 bd
       -0.07636202 0.026921034 -0.1367141 -0.07144524
000040 48 ad 13 3d 55 b7 16 3d dd 94 0c bc 49 ee 33 bd
       0.036053926 0.036795933 -0.008580414 -0.04392842
000050 a3 72 fb 3d f5 83 01 bd 57 5e f4 bb 43 40 25 bc
       0.122777246 -0.031619985 -0.0074575352 -0.010086122
000060 7d a9 95 3d 60 8b 4c bc 92 84 06 be e0 61 4e bd
       0.07307718 -0.012484401 -0.13136509 -0.05038631
000070 12 47 a7 bd 17 45 ee bd 34 13 a4 3c f9 37 6d bd
       -0.081678525 -0.116342716 0.020028688 -0.057914708

network.0.net.4.weight_v f4 [32, 32, 2]
000000 9a 94 8b bd b9 c1 0f 3d ec 03 b4 bd a3 1d e1 bc
       -0.06815453 0.035096858 -0.087898105 -0.027479952
000010 d1 46 d1 3d 83 bf a1 3d e7 11 05 bd 3f 77 f1 bd
       0.10218585 0.07897856 -0.032487776 -0.117903225
000020 27 a3 20 bc f1 7a c2 bd 41 c1 e2 3c 5a 4b d1 bd
       -0.009804524 -0.094961055 0.027680041 -0.1021945
000030 29 1d 79 3d 58 bb 26 3e fd 7a 5d 3d 61 ec c9 3d
       0.060818825 0.16282403 0.05407237 0.09859539
000040 66 b8 6b bd 21 4a 95 bd 3a 46 b6 bc 7f 9e fb bb
       -0.057548903 -0.072895296 -0.022250284 -0.0076788063
000050 63 96 c0 bd 25 1d 2b 3d 56 32 46 bc 5a 99 08 be
       -0.09403684 0.04177584 -0.012096962 -0.13339749
000060 6f 56 b7 bd 8d 24 92 3d 7b bd ad bd 22 08 d0 bb
       -0.08952033 0.07135878 -0.08483406 -0.0063486258
000070 4f 77 00 be b0 c8 01 be 43 33 75 3d b0 f2 0d bd
       -0.12545513 -0.12674212 0.05986334 -0.034655273
000080 0f e7 04 3e f4 84 08 bd 4b 7a 07 be 0b f9 0e be
       0.12978767 -0.03332992 -0.13230245 -0.1396219
000090 b0 dd 3e bd 01 29 60 3d 1e 85 12 3a fa 95 59 b9
       -0.046598136 0.054726604 0.0005589294 -0.00020750603
0000a0 e5 c9 84 3d 1e 47 d5 bd 50 d0 04 be 2a ec cd bd
       0.06483821 -0.10413955 -0.1297009 -0.1005481
0000b0 c8 1a a1 3d 65 23 bd bd 31 bd 87 bd 21 c7 52 3d
       0.07866436 -0.092352666 -0.06627882 0.051459435
0000c0 f2 aa 92 bc 84 47 74 3d 68 a5 bf 3d 67 1d a2 bc
       -0.017903779 0.059638515 0.093577206 -0.01978941
0000d0 25 16 97 bc f3 ca 01 3e 91 53 4d 3d 6b df 08 3d
       -0.018443177 0.12675075 0.050128523 0.033416193
0000e0 dd 62 1c bd 53 70 d0 bd 0e 47 8d bd c2 b1 32 bd
       -0.03818022 -0.10177674 -0.06898318 -0.043626554
0000f0 55 db fe 3c 61 3e 9c 3d 36 cc 31 3d 05 e8 2e 3d
       0.031110445 0.07629085 0.04340764 0.04270174
000100 6a 25 04 bd 9e eb 8d 3d 39 44 17 bd 2d c9 72 3d
       -0.032262243 0.06929706 -0.036930297 0.059273887
000110 be e7 61 bd db 47 2b bc dd 4b ff 3d 9f 1f f5 3c
       -0.055152647 -0.010454143 0.12465642 0.029922305
000120 58 13 91 bb de 97 92 3c f7 b6 9b bc b2 d1 9a 3d
       -0.004427355 0.017894682 -0.019008143 0.075595275
000130 8a 5d e0 bd 8b d9 1c bd a0 54 f4 3c ea bc 8a bd
       -0.10955341 -0.038293403 0.029825509 -0.06774314
000140 45 04 c2 bd 06 05 3b bd 0c ea 89 3d 8d 14 05 3e
       -0.094734706 -0.045659088 0.06734094 0.12996121
000150 f5 3e e3 bd 73 e7 7b 3d 7c 14 ae bd af 81 06 be
       -0.110959925 0.061500024 -0.08500001 -0.13135408
000160 57 a2 2e be 53 9e dd 3c d1 68 e8 3d 0b b0 99 3d
       -0.17054115 0.027053034 0.11348117 0.07504281
000170 cb 81 96 3d fb 20 33 3d 56 1e 03 be 25 a6 1e 3c
       0.07348975 0.043732625 -0.12804541 0.009683167
000180 3b 93 86 3c 75 34 8a bd 2d d0 be bd 45 58 6b bd
       0.016427627 -0.06748287 -0.0931705 -0.057457227
000190 d6 b5 1e bd 26 00 6a 3d 92 aa cc 3d 8b d6 14 bd
       -0.03874763 0.057129048 0.09993471 -0.036337417
0001a0 1e 6d 55 bd 52 41 62 bd 06 3b 1d bd a9 60 93 3d
       -0.052106015 -0.055238076 -0.038386367 0.07196171
0001b0 ec 16 d5 bc a1 49 01 3d b7 65 ed bc 95 40 8a 3c
       -0.026011907 0.03156436 -0.028979165 0.016876498
0001c0 51 8f 06 bd 7b d5 83 bd 3e 1a e3 bc 21 c4 ae 3d
       -0.03285152 -0.064372025 -0.027722474 0.08533502
0001d0 c0 42 31 3c 10 59 d2 bc a1 3d ad 3d c1 b3 e4 3d
       0.010819137 -0.025677234 0.084590204 0.11167098
0001e0 f4 88 ad 3d a7 f6 53 3b 4a 35 ca 3d b1 f2 87 bd
       0.08473387 0.0032343061 0.09873445 -0.066380866
0001f0 75 f4 19 3d df 4f 95 3d f1 fb 1a 3d 21 5f 13 bd
       0.037586648 0.07290625 0.037837926 -0.035979394
000200 d2 68 d8 bd 2a b7 4c bc e3 5b 0c be 63 22 46 bd
       -0.10566868 -0.012494842 -0.13706927 -0.048372637
000210 e2 19 79 bd 0e 06 86 3d 66 40 29 3d 01 31 8a bd
       -0.0608157 0.065441236 0.04132118 -0.06747628
000220 c0 32 65 bc e4 8b c5 bd 6e bf 68 3d d3 77 69 bc
       -0.0139891505 -0.09645823 0.056823187 -0.01424976
000230 ca 64 5b bd 71 f7 fd bd 7b a8 64 bd c0 7f 2d bd
       -0.053562917 -0.12400711 -0.055824738 -0.04235816
000240 9a ae 7c bd 76 b7 86 3c a4 c1 cc 3b d4 85 7b 3d
       -0.06168995 0.016444903 0.0062486697 0.061406925
000250 53 b6 14 bd 93 b5 58 bd 11 8a ce bd 05 e4 bf bd
       -0.03630669 -0.052907538 -0.10084928 -0.09369663
000260 19 d2 f3 3d 77 60 6d 3c 7b c8 0a be e0 83 12 be
       0.11905307 0.014488331 -0.1355304 -0.14308119
000270 2e 6f cf 3c 16 bb bf bd 08 a0 04 3d 68 76 94 3d
       0.02532157 -0.09361856 0.03237918 0.07249147
000280 a1 c3 ec bd b1 1f 5b 3d 4e 38 ab bd 20 b6 c2 bb
       -0.11560751 0.05349702 -0.08360349 -0.005942121
000290 a0 da c5 3d c4 d2 ee 3d 5d 90 ca bd dd 87 a9 3d
       0.0966084 0.11661294 -0.09890816 0.08277867
0002a0 57 e4 be bd cc 9c df bd da 94 17 3d 03 f3 49 bd
       -0.09320896 -0.109185785 0.03700719 -0.04930402
0002b0 4a 8f 83 3d ca 8c 96 bd da 94 a0 3d be 82 e5 3c
       0.064238146 -0.07351072 0.07840891 0.028016444
0002c0 c9 94 55 bd 56 a0 0c be a0 e1 4d 3d 1f c7 b2 3c
       -0.052143846 -0.13733038 0.050264 0.021823464
0002d0 36 b6 d6 bc 95 2b 0d be a8 5d bb bd 39 54 96 bd
       -0.026209932 -0.13786156 -0.09148723 -0.07340283
0002e0 06 d3 bf 3d df 9e a3 3d b9 66 b3 bd 5c a6 60 3c
       0.093664214 0.07989287 -0.08759827 0.013711538
0002f0 24 4e b3 3d 69 d1 0e 3d 57 e3 e1 bb d5 90 06 be
       0.087551385 0.034867678 -0.006893556 -0.13141187
000300 1e d1 3a 3d 48 2d 5e 3c b5 c5 ff bd af a3 84 bd
       0.045609586 0.013560601 -0.124888815 -0.06476533
000310 e0 98 65 3d 27 bb 02 3e 81 1f 80 3d c6 6c a8 bd
       0.056053996 0.12766705 0.06256009 -0.08223872
000320 8d a8 89 3b 2e ad 94 3d a8 49 e4 3c 9d 28 ba 3d
       0.004201001 0.07259594 0.027867153 0.090897776
000330 d9 b7 19 be e5 78 15 be d2 4f b3 bd 99 95 42 be
       -0.15011539 -0.14596899 -0.08755459 -0.1900238
000340 4e b8 98 bd 4b 3b 91 bd 8f 13 af bd 10 fa 17 3d
       -0.07457028 -0.07091387 -0.085486524 0.037103713
000350 14 d9 c1 3d d4 c4 26 3e d4 53 54 bc 4b ae e0 bd
       0.094652325 0.16286021 -0.012959439 -0.10970744
000360 93 75 b2 bd 9d d6 8b bd a8 a0 80 bd e6 d6 85 3d
       -0.08713832 -0.068280436 -0.06280643 0.06535129
000370 64 df ae 3d 32 81 5a bc 5a f8 6f bd f5 ed 03 3d
       0.08538702 -0.013336467 -0.058586456 0.032209355
000380 c1 1b 05 be ad 58 dc bd c4 b7 1b 3e 81 28 81 bc
       -0.12998869 -0.10759101 0.1520682 -0.015766384
000390 f7 1a c2 3d cb ae e9 ba b5 1a 98 bd b9 e4 53 bc
       0.094777994 -0.0017828582 -0.07426969 -0.01293295
0003a0 58 1c a0 3d 1a e4 57 3d 64 f8 8c 3c c0 3c 87 3d
       0.07817906 0.05270777 0.017208286 0.06603384
0003b0 97 05 db 3b 34 3e e3 3c d9 d3 1b be 9e e8 e3 bd
       0.006684016 0.027739622 -0.15217532 -0.111283526
0003c0 35 42 90 3c ae a8 d7 bd 39 d8 26 3d 2f 5d ee 3c
       0.017609695 -0.1053022 0.04073355 0.029097168
0003d0 ff ff 46 be aa 86 9c bd de d6 9e bd 94 23 fa 3b
       -0.19433592 -0.07642873 -0.077558264 0.007633636
0003e0 18 cc d6 bd c6 60 bb bd 3d b0 8e 3c 4a 69 ba 3d
       -0.104881465 -0.091493174 0.017418021 0.091021135
0003f0 40 50 94 bd 96 94 83 bd 0e b3 cb bd 90 d7 10 be
       -0.07241869 -0.06424825 -0.09946261 -0.1414473

network.0.downsample.weight f4 [32, 52, 1]
000000 32 ff 52 bd 9d 0d da 3c 19 95 28 bb 0b be d9 bc
       -0.051512904 0.02661782 -0.0025723635 -0.026579877
000010 5b ef 19 3d 63 57 2d 3c d1 a7 6c 3b 3d 87 f2 3c
       0.037581783 0.010579917 0.0036110769 0.029605502
000020 3c 75 67 bc 97 4b 2b 3d d7 f3 28 3d 22 51 0d bd
       -0.014127072 0.041820135 0.04124817 -0.034501202
000030 92 96 65 3c b3 3b 72 bd 36 34 21 bd c2 4e d9 3c
       0.01401295 -0.059138965 -0.039356433 0.026526812
000040 f8 d6 00 bc 42 ed dd bb 63 7d 47 bc 68 2e e1 3c
       -0.007863753 -0.006772668 -0.012175891 0.027487949
000050 12 2a aa 3c 94 c8 89 bc 81 c6 ec 3c ab f2 51 3b
       0.020772014 -0.016819276 0.028903248 0.003203551
000060 dd 02 d4 3c f6 e9 e6 3c e0 d6 0f bc f3 a0 82 bb
       0.025880272 0.028187733 -0.008779258 -0.003986472
000070 a8 6e c4 bc f8 5b a3 bb ca b2 23 3c 80 00 81 3c
       -0.023978546 -0.0049853288 0.009991357 0.015747309
000080 28 ae 93 3c f4 ce fd 3c 57 1c 87 3c 23 75 43 bc
       0.01802738 0.030982472 0.016493006 -0.011929783
000090 f1 2f 2f bb 02 47 04 3d a6 09 a1 bc 11 6a 13 bc
       -0.0026731456 0.03229428 -0.019657921 -0.008997456
0000a0 f3 49 f0 bc 53 4c d1 bb 49 51 0d 3d 6b 65 c2 3c
       -0.029332137 -0.0063872724 0.034501348 0.02373
0000b0 1d 7f 14 3d 2f 4b 08 bd 6f 5f 45 bc 00 e0 c5 3c
       0.036254037 -0.033274826 -0.012046679 0.024154663
0000c0 ae 64 f0 3c 6c 17 b6 3c 7a 2c b6 bc bc 52 a3 3b
       0.029344883 0.022227965 -0.022238005 0.004984228
0000d0 1f cb fe bc 68 83 ce bc 4d 3a 04 3d d8 4a bb 3c
       -0.031102715 -0.025209144 0.032282162 0.022862837
0000e0 d7 ed 8c bd 6b 93 c9 bc ac 1c 61 3d d0 6f e9 bc
       -0.06881302 -0.024606427 0.054958984 -0.0284957
0000f0 df e3 5f 3c 87 25 dd 3c d5 38 12 3d f0 a4 08 bd
       0.013665169 0.026995433 0.03569873 -0.03336042
000100 47 58 24 3d 82 0a 00 3c a2 82 17 bd 9a d1 f4 3c
       0.04012325 0.007815005 -0.036989816 0.029885102
000110 93 0f f8 3c d7 74 e1 3c 81 60 07 3d 77 17 b5 3c
       0.030280864 0.027521534 0.033051018 0.022105915
000120 e4 1b 9b bc f6 86 f9 3c 9b 1c 6c 3c 2c b5 05 3c
       -0.018934198 0.030459862 0.014411117 0.0081608705
000130 f2 f2 66 bc af 5e d2 3d c0 5f a1 bc 12 3d e5 bc
       -0.014096009 0.10271966 -0.019698977 -0.027983222
000140 7b 98 8f bc 53 77 22 bd d6 29 b4 3a 3b 2b 34 3b
       -0.017528763 -0.039664578 0.0013745378 0.0027491588
000150 45 57 59 3c e1 55 c0 3c ce cd 8f 3c a2 e5 86 bc
       0.013265436 0.02347845 0.01755419 -0.01646692
000160 17 b1 26 bd 12 6d e0 bc 63 da b1 3b 7b ca 2b bd
       -0.04069623 -0.027395759 0.005427645 -0.041941147
000170 3a 45 80 3c ae 11 be 3c d9 6d 09 3c 61 c4 3f bd
       0.01565801 0.02320179 0.008388006 -0.04681814
000180 e7 e6 8f bd 79 8c 1b 3d 55 ce cf bd 0e e2 af 3a
       -0.07026463 0.037975762 -0.101467766 0.001341881
000190 39 56 89 3c 6c 32 63 bb db 40 0f bc 15 44 b0 3c
       0.016764747 -0.0034667505 -0.00874349 0.021516839
0001a0 47 22 a0 ba fa 7f 81 3b 18 a4 17 3d be 40 ab 3c
       -0.0012217247 0.0039520236 0.037021726 0.020904895
0001b0 53 0a 5e 3c fc 25 b7 3c 5f 4d 17 3d f3 fa cf 3b
       0.013552266 0.02235698 0.03693902 0.006347054
0001c0 57 f6 42 bd 44 20 c8 3c 69 2e 55 3d 41 24 02 bc
       -0.04759821 0.024429448 0.052046213 -0.007943214
0001d0 75 d4 47 3a 49 a2 32 3d c4 c7 3a 3c 8d e4 a2 bc
       0.0007622906 0.0436118 0.011400167 -0.019884372
0001e0 30 53 c4 bc 7f bb 0e 3d 12 8e af bc a1 c3 c5 b9
       -0.023965448 0.03484678 -0.02143005 -0.00037720523
0001f0 27 f7 c6 3c 1c a9 7c bc 3b 09 c7 3c 2a 5a 65 3c
       0.024287773 -0.015421178 0.024296394 0.013998548
000200 50 c5 0f 3d 34 2c fc 3c 10 76 36 3c 75 11 ad bb
       0.03510028 0.030782796 0.011136547 -0.005281622
000210 cc e7 17 3d 80 fc bb 3c 56 ca c2 3c 83 dc 17 bc
       0.037086293 0.02294755 0.023778122 -0.009268883
000220 bb 18 37 bc 4a cb d3 3b d5 c4 86 3b 29 dc 26 bd
       -0.01117533 0.006463443 0.0041128197 -0.040737305
000230 ae 4a 85 3d f8 b3 d0 bc b0 3a ac 3b f3 a7 e8 3a
       0.06508385 -0.02547644 0.0052560195 0.0017750248
000240 bf 4f 99 bd f0 92 ac 3c 3a 51 98 3c 1f 1e 46 bd
       -0.074859135 0.021066159 0.01859342 -0.04836857
000250 5c 46 3e 3b 12 91 04 3d 0c 47 a5 ba 3a 21 c7 3a
       0.0029033637 0.032364912 -0.0012609675 0.0015192397
000260 61 24 c0 3d 5d 7b 02 bd f2 51 25 3d e0 ab 12 3c
       0.09381939 -0.03185593 0.040361352 0.008952111
000270 e6 7e 5b bd 3b 40 65 3c a6 ab ce 3c 6d a8 83 3c
       -0.053587817 0.0139923645 0.025228333 0.016071523
000280 22 91 8f 3c 33 fb 39 bb 38 08 a8 3c 16 f2 31 3d
       0.01752526 -0.0028378486 0.020511732 0.04344376
000290 7e 9c 5e 3a f8 1d 2f 3b d6 d4 3c bc fa 8d fb 3b
       0.0008491947 0.0026720744 -0.011525353 0.007676837
0002a0 43 a0 43 3c fa e6 e3 bb 0c eb c8 3c 3c f9 e4 3c
       0.011940065 -0.006955025 0.024526142 0.027950875
0002b0 7f c4 96 3c ff 75 88 bb c6 15 11 3d f8 87 07 3d
       0.018404244 -0.004164457 0.035421155 0.033088654
0002c0 ac d1 8f bb fc e1 99 3c 58 bb 26 bd c8 00 1f 3d
       -0.0043890085 0.018784516 -0.04070601 0.038819104
0002d0 d5 d2 dc bb f1 48 3c 3d cf 1e 83 3b 10 0c e5 bb
       -0.0067390003 0.045968 0.0040014754 -0.0069899634
0002e0 17 0d 1c bc 7e 7e 8d 3d 87 49 8e 3c 7e 20 8e 3d
       -0.009524605 0.06908892 0.017369045 0.06939791
0002f0 a0 2d 8c 3c 9d 79 01 3c 55 99 13 3d 62 61 be bc
       0.0171116 0.00790253 0.0360349 -0.023239795
000300 37 21 f6 3c 11 57 2c bd 63 b0 95 3b 59 04 03 bd
       0.030045135 -0.04207522 0.004568146 -0.031986568
000310 dc 32 a0 bc ba 6f d3 b9 86 ac 6f ba 49 c9 a8 3c
       -0.019555502 -0.000403283 -0.00091428345 0.020603793
000320 f7 e7 de 3c fc 89 96 3c 13 6d f6 ba bd 55 02 3d
       0.027210219 0.018376343 -0.0018800817 0.031820048
000330 a1 aa a9 bb 2f 19 84 bd 4e 85 9a bb b8 44 cc 3b
       -0.0051778113 -0.06450116 -0.004715598 0.006233778
000340 5d 21 22 3d b9 fb 56 3d c8 09 2a bc 27 58 56 bc
       0.0395826 0.052486155 -0.010378309 -0.013082541
000350 ac bf df bc cd 03 5e bc d6 61 9c bc 93 d5 02 bc
       -0.027313076 -0.013550711 -0.01908962 -0.00798549
000360 33 8c 1b bc f4 83 ba 3c 0f 04 89 3c 69 a0 db bc
       -0.009493875 0.022767998 0.016725568 -0.026809888
000370 34 37 82 3b b1 07 98 bc d1 95 05 3c e0 1d 4d 3c
       0.003973866 -0.018558355 0.008153395 0.01251933
000380 1c 35 e7 3c 12 40 f4 3c 65 90 a1 bd b9 69 9b 3d
       0.028223567 0.029815707 -0.07888869 0.07588524
000390 39 c4 91 bc f3 d9 68 bb 07 e9 e2 3c 89 0f b7 3a
       -0.017793762 -0.0035530298 0.027699007 0.0013966422
0003a0 72 a0 0d 3b bd 39 ec 3c 66 16 86 3b b6 d1 81 bc
       0.0021610525 0.028836126 0.0040920256 -0.015847068
0003b0 7f 0e b9 bc 01 d8 ec 3b 6b 4e a5 bc c0 98 bc 3c
       -0.02258992 0.007227898 -0.020178994 0.023022056
0003c0 fc f0 40 bd d1 72 3c bd ed 14 cc 3c 59 a2 19 bd
       -0.04710482 -0.046007935 0.024912322 -0.037508342
0003d0 f3 17 9d bc 03 bc f2 bb 1e 2f cf 3b 2a 7c 03 3a
       -0.019176459 -0.0074076666 0.0063227555 0.00050157553
0003e0 70 62 7d 3c ce 6a 1a bc bf 53 8b 3c 12 67 89 bd
       0.015465364 -0.009424878 0.017007707 -0.06709112
0003f0 c9 94 0a 3c 56 ae 34 3c f9 c5 a6 3c fc fa f9 3c
       0.008458325 0.011027893 0.020358073 0.030515186

network.0.downsample.bias f4 [32]
000000 20 17 f5 3d 67 19 31 bd 4f f5 58 be 52 01 d3 3d
       0.11967301 -0.043237116 -0.21187328 0.10302986
000010 07 12 7f bd dc ee 2d be 29 3b 29 be 7f 15 2e 3e
       -0.06227305 -0.16985649 -0.16526474 0.17000388
000020 8c 63 fe 3b e7 21 82 be 0e 27 e8 bc 76 d1 9b 3d
       0.0077633318 -0.2541649 -0.028338935 0.07608311
000030 c3 cb 6a bd c7 9d 86 3c 75 46 0f bd f2 af 0a be
       -0.05732323 0.016432656 -0.034979302 -0.1354368
000040 39 02 bd 3d 43 73 43 3d c8 85 12 3c 79 6e 5f 3c
       0.092289396 0.047717344 0.008943029 0.013637179
000050 9c 86 08 3b ec 09 04 3b 35 56 06 bd 00 f5 af bc
       0.0020832187 0.0020147515 -0.032797057 -0.02147913
000060 a4 c9 30 3e db e2 00 be 25 dd a3 bd 42 97 d6 3c
       0.1726442 -0.12586538 -0.08001164 0.026195172
000070 45 0f d1 b9 93 23 26 bc c3 7e 1c 3d 7e dc 92 bd
       -0.00039874963 -0.0101403175 0.038206827 -0.07170962

network.1.conv1.bias f4 [32]
000000 ae e9 63 3d ff e9 9c ba 59 f7 41 be 17 0b 25 3d
       0.055642776 -0.0011971592 -0.18942012 0.04029378
000010 ad 24 95 bd 58 2f 94 bd a7 b1 0a 3c e6 48 cf 3b
       -0.07282386 -0.072355926 0.008465207 0.006325829
000020 96 a7 73 bd d0 be 44 bd 09 8c a0 bd 54 d6 a2 bb
       -0.059485994 -0.048033535 -0.078392096 -0.0049693976
000030 2b 19 73 3a 22 6e 73 bd 3d 5e 80 bd 1f 39 0d 3d
       0.00092734647 -0.059431203 -0.062679745 0.034478303
000040 c8 4f 8d 3c 56 40 98 3c c1 07 2f 3d 5e f2 98 3d
       0.017249957 0.018585365 0.042732004 0.07468103
000050 29 23 08 3d 0c 8e 3d bd 72 22 ad 3c cc 62 84 bd
       0.033236656 -0.046278045 0.021134589 -0.064641565
000060 f4 5f 32 bd d1 5f 3c be 07 d7 01 bd 47 99 f9 bd
       -0.04354854 -0.18395926 -0.031699207 -0.121874385
000070 5e ee 15 bd cd b1 5a 3d 9c 94 c3 3c ec e7 e7 bc
       -0.036604278 0.05339222 0.023874573 -0.028308831

network.1.conv1.weight_v f4 [32, 32, 2]
000000 8f 59 51 bd e9 26 b2 3d 71 60 88 3d 89 0e 0e 3d
       -0.0511108 0.08698828 0.0665902 0.03468183
000010 7f e7 b7 3c 5f de 8f bd 95 ea e2 3d 4f d4 92 3d
       0.022449253 -0.07024836 0.11079899 0.07169401
000020 2b d9 f4 bc 10 f2 04 bd c9 eb 16 bc d0 46 ee bc
       -0.02988871 -0.03245741 -0.009211489 -0.0290865
000030 a0 62 93 3c f1 7d 65 bd 62 d3 94 bc dc a3 d4 bd
       0.017991364 -0.05602831 -0.018167201 -0.10382816
000040 1e 5f bf bd c2 28 b6 3d c5 06 9e bd 6d 6c 9b bd
       -0.09344314 0.08894493 -0.07716135 -0.0758904
000050 be 82 3b bd 08 10 0b 3e 2b 54 ae bd 92 ed c7 3c
       -0.045778982 0.13580334 -0.085121475 0.024405275
000060 6a e2 19 be a4 99 d8 bd 70 bb f3 bc ba 5c da 3d
       -0.15027776 -0.105761796 -0.029752463 0.106622174
000070 19 9f b4 bd eb df fc b8 31 94 44 bd bd c6 eb bd
       -0.08819408 -0.00012058004 -0.04799289 -0.11512516
000080 b8 d0 44 bd 4c 51 e5 3d 33 dd 90 bd 13 b3 50 bd
       -0.048050612 0.11197147 -0.070734404 -0.05095203
000090 bb 47 bb 3c 07 92 67 3d c8 24 b0 bd 4c aa 5a 3d
       0.022861352 0.056535747 -0.086007655 0.053385064
0000a0 79 50 e8 3c ee 1a 27 3b 2d 3a 83 3d bc e1 bd bd
       0.028358685 0.002549823 0.064075805 -0.09271571
0000b0 92 d3 b6 ba 7a ca 38 bd fb 84 a1 bd 2d 7e 84 3d
       -0.0013948551 -0.04511497 -0.07886692 0.064693786
0000c0 c5 5f da bd 77 c8 41 bd fa b3 fd 3b 9e 7a a0 bd
       -0.10662798 -0.04731032 0.007742402 -0.07835887
0000d0 5a 20 55 bd 1b 33 f8 bc 11 a8 b6 bd 5c 8a d1 bc
       -0.052032806 -0.030297806 -0.08918775 -0.02557867
0000e0 db 20 e9 3b 8d 35 83 3c 53 b5 fc bd e9 2c 58 3c
       0.0071145124 0.016016746 -0.12339272 0.013194301
0000f0 f6 e3 93 3d 8a 1c 34 bd 54 84 e1 bd 7a c2 4e 3d
       0.072212145 -0.04397253 -0.11011568 0.050478436
000100 e4 90 9f bc c5 77 b6 bd 81 f0 bf 3d 55 ea 1b 3e
       -0.019478269 -0.08909563 0.09372044 0.1522611
000110 99 b8 11 bd 65 85 a3 3c 4e 8a 5c 3c fe 6e 8c 3c
       -0.035576437 0.019961068 0.013460709 0.017142769
000120 1e cd 03 3d 7d a6 17 be f0 cb cc bd 11 67 e2 bd
       0.032178037 -0.14809604 -0.099998355 -0.110548146
000130 1f c7 2a be 8e 74 1c be 95 26 e3 bd 1c 9e ec bd
       -0.16677521 -0.15278837 -0.11091343 -0.115535945
000140 37 97 b9 3d 95 f9 24 be 77 08 5c 3b 6a 25 4b 3c
       0.09062045 -0.16110833 0.0033574381 0.012399057
000150 2e 42 f6 3d 28 a6 4c 3d c9 59 b6 bd 72 53 40 3c
       0.120243415 0.049963146 -0.08903844 0.011738645
000160 21 19 c5 3d 6e 2d 35 3d de 06 24 3c 58 6f 0b 3d
       0.096239336 0.04423278 0.010011403 0.034041733
000170 e1 ee a5 bd 50 b0 77 bd 4f 60 a5 3d 73 cb fd 3d
       -0.08102203 -0.06047088 0.0807501 0.123923205
000180 fb eb 4f 3d c3 43 2e bd 43 f5 da 3d 93 79 ae 3d
       0.050762158 -0.04254509 0.10691311 0.08519282
000190 3b bf a1 bd f9 6c 61 bd df e3 6f 3c ff e2 b7 3d
       -0.078978024 -0.055035565 0.014641731 0.08978843
0001a0 79 ce 28 bc 63 aa 08 be fd 5d df 3d 9f 8f e3 3c
       -0.010303133 -0.13346247 0.10906599 0.027778445
0001b0 d5 31 fd 3d 10 c8 b0 3d b5 18 3a 3e d3 4e 06 bd
       0.1236302 0.08631909 0.18173487 -0.032790016
0001c0 d8 91 b2 3d f1 20 71 3d 5c af b5 bd be 71 38 be
       0.08719224 0.058869306 -0.08871338 -0.18012139
0001d0 4f 3a 04 be b2 69 db bd 26 e1 01 3d aa 62 ee 3d
       -0.12912868 -0.10713519 0.03170886 0.116399124
0001e0 cf b2 f4 bd 28 47 21 be 72 dc 00 be 54 43 1a be
       -0.119481675 -0.157498 -0.12584093 -0.15064746
0001f0 0e e6 81 bc 19 2f 5c 3d 18 68 c6 bc 59 ee f1 bd
       -0.015856769 0.053755853 -0.024219558 -0.11813039
000200 c4 4f 5a 3c 01 86 ae 3c 5b c2 d9 3c f7 36 c6 3d
       0.013324682 0.021304132 0.026581934 0.096784525
000210 80 b8 27 3e cd a1 7e 3d ba f8 19 bd f0 c8 3b 3d
       0.16378975 0.062166024 -0.03759072 0.045845926
000220 b7 65 12 3d b2 16 a3 3d 23 92 bf 3d 27 aa 16 3e
       0.035741534 0.07963313 0.09354045 0.14713345
000230 6b 24 92 3c 7e 89 1d 3e c8 70 eb bc 25 68 15 be
       0.017839631 0.1538448 -0.028740302 -0.14590509
000240 c6 3d 18 bd 5d c6 8f 3d 01 0a 45 bd 9a 5b 32 3e
       -0.037168287 0.07020257 -0.048105244 0.17417756
000250 85 65 cf bd ff 57 cb 3d ed 15 3f bd e0 e8 ae 3d
       -0.10126785 0.09928893 -0.04665177 0.08540511
000260 f3 a6 37 3d eb cb e1 3d f2 4f bf 3d f9 3f fd bc
       0.04483695 0.110252224 0.0934142 -0.030914294
000270 36 09 41 bd 46 79 39 3c 09 fc a0 bd 58 43 82 bd
       -0.047127925 0.011320418 -0.07860572 -0.06360501
000280 94 af 54 bc d9 33 96 bd 97 5b 6b bb cc c3 90 bd
       -0.012981314 -0.07334108 -0.0035912746 -0.07068595
000290 76 99 51 ba 4b 57 e4 3d 49 25 04 3e ed d1 a1 ba
       -0.0007995585 0.11149462 0.12904848 -0.0012345888
0002a0 8a 8a 4b 3d c8 14 d3 bd ff 68 7a bd 2b bd 84 3d
       0.049692668 -0.10306698 -0.06113529 0.064813934
0002b0 47 d5 bd 3c 6f 2d 37 3d ca 89 bb 3d d2 5b c2 bd
       0.023172988 0.044721063 0.091571406 -0.094901696
0002c0 b9 11 9a 3d e5 9e e1 3d b5 a2 6c bd 65 0e 10 3e
       0.075229116 0.11016635 -0.057772357 0.14067991
0002d0 3f cd e8 3d 8a 8e 46 bd 3c 9b 81 bc 2b d9 e6 3d
       0.113672726 -0.04847578 -0.015821092 0.1127189
0002e0 04 d9 47 bd e1 40 9c 3d 71 42 cf bd 68 5e 0a 3e
       -0.048790947 0.07629562 -0.101200946 0.13512576
0002f0 33 99 97 bd 1e ff 55 3d 89 8d 8b bc 84 5a a1 3d
       -0.07402267 0.05224525 -0.017035263 0.078785926
000300 e0 ca ef bc 71 80 27 3d 31 42 8e 3d b7 3a 5c 3d
       -0.029271543 0.040893976 0.06946219 0.053766932
000310 e3 4a 2b 3d d1 33 28 be df e5 2f 3d dd 63 e6 bd
       0.041819464 -0.16426016 0.04294383 -0.11249516
000320 d7 3d 77 bd 87 45 b3 3b 32 9b fc bd 00 6e 8b bd
       -0.06036171 0.005470935 -0.12334289 -0.0680809
000330 53 5a 36 be 77 e5 d8 bd ae 7d ec 3c c5 0e 91 bd
       -0.17807893 -0.10590642 0.028868522 -0.07082895
000340 25 c6 ea bc db ab 82 3d c1 bd 16 be e4 66 94 bd
       -0.028658936 0.06380435 -0.14720823 -0.07246187
000350 75 65 97 bc 68 3d c8 3b 64 f0 76 3d fc c1 c9 bd
       -0.018480996 0.006110836 0.060287848 -0.09851453
000360 f6 49 f7 bc 16 cd d5 3c d3 67 8e 3c d4 b8 ab 3d
       -0.030186635 0.02609877 0.017383492 0.083848625
000370 4a c1 26 be e8 6b 80 bd a2 8b 01 3e 8d 4a 2e 3e
       -0.16284671 -0.062705815 0.12650922 0.17020626
000380 2f a1 17 bd da fe 44 3d ef b7 e7 3c 0a d9 c3 3c
       -0.03701895 0.048094608 0.028285949 0.023907203
000390 93 85 95 3d cf 6a c9 bc fd ae e5 3c f4 b5 7a 3d
       0.07300868 -0.024587063 0.028037542 0.06120868
0003a0 28 86 c3 bd 3c 37 2d bd a8 0d b2 3a 5b e2 2d bc
       -0.09547073 -0.042289004 0.0013584392 -0.010613049
0003b0 82 50 ff 3c b3 43 44 3d 4f 13 8d 3d 5c ef 05 3e
       0.031166319 0.047916126 0.068884484 0.1307959
0003c0 de ea a7 3d 87 0b d7 bd 4e e7 9b bb c5 f7 1e be
       0.08199094 -0.105002455 -0.0047577983 -0.15524204
0003d0 2b 1b d0 3c d5 c5 12 be 43 32 75 bd 14 fe eb 3b
       0.02540358 -0.1433328 -0.059862386 0.0072019193
0003e0 2a 00 0f bd d8 bc f3 bd b2 a2 e2 bd 2c 63 1a 3d
       -0.034912266 -0.119012535 -0.11066188 0.037692234
0003f0 a7 96 16 3c ce 44 63 3d d0 a8 05 be 22 de c1 bd
       0.009191192 0.05548554 -0.13052678 -0.094661966

network.1.conv2.bias f4 [32]
000000 70 b4 e5 3d cc 7c e8 3c 77 22 25 3c b7 e0 e7 bd
       0.11216056 0.02837982 0.010079018 -0.11322158
000010 05 fe dd 3c 79 ae 47 bd ec 01 ed bd 13 64 d2 3d
       0.027098665 -0.048750374 -0.11572632 0.10272994
000020 7a 80 21 bd 00 8a 37 bd 40 f1 c0 bd 9e d8 c8 bc
       -0.039429165 -0.04480934 -0.09421015 -0.024517354
000030 a5 31 26 bd 79 a3 88 3d b0 78 c9 3d 55 14 23 bc
       -0.04057469 0.06671805 0.098374724 -0.009953578
000040 9b c6 f3 3c b2 51 ab 3d f3 bf 64 3d cf ca dd bd
       0.029757788 0.083651915 0.05584712 -0.10829698
000050 ad 5c 86 bd d4 7f 1a 3d ab 5a 04 3d e6 68 a0 bc
       -0.06560645 0.037719563 0.03231303 -0.01958127
000060 e6 1e 93 3c 44 a0 31 bd a1 a4 7f bd 61 62 0f bd
       0.01795907 -0.04336573 -0.06241286 -0.03500593
000070 bc f1 9b 3d 4b fd e3 bd 3d b8 56 3d 6e 09 cd bc
       0.076144665 -0.11132296 0.052421797 -0.02502891
