los/aumc/aumc_los_LSTM_repetition_0_fold_0_model-v1.ckpt (torch, 356448 bytes, 15 tensors)

rnn.weight_ih_l0 f4 [248, 52]
000000 b3 b4 bd 3d 76 4b 2d bd 95 1b 1e 3c cc cf 12 3e
       0.09262981 -0.042308293 0.009650131 0.1433708
000010 7d 5a c6 bc 52 f9 22 3d 9c 04 09 bd f0 cb e0 3d
       -0.02421307 0.03978855 -0.03345166 0.10976398
000020 3d 8c dc 3d d1 81 92 3d 87 f5 66 bd 3e 3a cf bc
       0.10768936 0.07153667 -0.056386497 -0.025296327
000030 8d 1a e8 3d 2c 5f 88 3d a3 47 cc 3d 12 5a 01 bd
       0.11333189 0.066587776 0.09974601 -0.03158004
000040 cf 33 a5 3c 4d 21 fb bd 57 c9 c6 bc 94 87 4f bd
       0.020166306 -0.12262211 -0.024265928 -0.050666407
000050 fe 23 03 bd b0 b4 a7 3d e7 b6 ba 3d c3 17 82 3d
       -0.032016747 0.0818876 0.09116917 0.063521884
000060 a5 4a e2 bc e9 94 cd 3c 48 69 5f bb a3 a3 a1 bd
       -0.027623484 0.02509542 -0.0034089852 -0.07892539
000070 a6 48 46 bd f4 15 86 3d 6d 8b fd 3c df 5e 19 bd
       -0.048409127 0.06547156 0.030950272 -0.03744399
000080 58 3f 44 3d 1c 56 60 bd 6f b3 de bd a0 76 21 be
       0.04791197 -0.05476962 -0.10874068 -0.15767908
000090 6c 52 07 bc 19 29 c9 bd b5 e9 ca bd 82 df a3 3d
       -0.008259397 -0.09822292 -0.09907857 0.08001615
0000a0 62 0d af bc e5 e2 cb 3d 0d 9d e9 bd 33 39 13 be
       -0.021368686 0.09955386 -0.11406908 -0.14377289
0000b0 79 ce 89 bd 91 57 c4 3d 21 b6 11 3e 98 ae 10 3e
       -0.06728835 0.095870145 0.14229633 0.14129102
0000c0 4c d4 a4 3d ea 9c 7c bc 2d 09 ba bd 6e 22 d9 bd
       0.08048305 -0.015418271 -0.090837814 -0.1060227
0000d0 77 db 48 bd 38 6a e6 bd 74 89 8e bd 1e bd f1 bc
       -0.049037423 -0.11250728 -0.06959811 -0.029509123
0000e0 2c bc b5 3c ef 71 da 3d 48 40 ae bd bb 6a d1 3d
       0.022184454 0.10666262 -0.085083544 0.10225435
0000f0 40 6b c9 bd 4e 26 7f 3c 0e b6 50 3d 58 de 33 ba
       -0.098349094 0.015573097 0.05095487 -0.000686144
000100 e3 d2 54 bd 34 18 19 be 35 ff d5 bd 53 4c fe 3d
       -0.05195893 -0.14950639 -0.104490675 0.124169014
000110 8a 81 04 3d 61 f7 b4 bd ae 70 e4 3d a8 af cd bd
       0.0323501 -0.08836246 0.111543044 -0.100432694
000120 48 57 2d 3c 63 d9 67 3d 09 28 71 3d 3a 62 61 3b
       0.0105798915 0.0566038 0.05887607 0.0034390823
000130 2b b6 90 bd a8 9b a1 3b 75 f4 c3 b8 a4 38 46 bd
       -0.07065996 0.0049318857 -9.343858e-05 -0.04839386
000140 d7 4f 0a 3d 13 17 e7 bd f0 be 00 3e a4 5f 94 3d
       0.033767547 -0.11283698 0.12572837 0.072448045
000150 5e 53 b5 bc 8f 3d 36 3d 68 c2 3b bd 35 2d 51 3d
       -0.02213448 0.0444923 -0.045839697 0.051068503
000160 8f dc 15 3d db 44 a6 bd c3 76 10 3c 40 ed d6 3d
       0.036587294 -0.08118602 0.0088173775 0.104944706
000170 3c 43 3d bd 3b 9d 07 3e e0 1d 11 be dc 6d ae bd
       -0.046206698 0.13243572 -0.14171553 -0.08517048
000180 75 cf 72 bd c8 10 bb ba 64 5a cf 3d 4d 4c 46 bd
       -0.059279878 -0.0014271969 0.101246625 -0.04841261
000190 92 01 23 bd 49 c5 35 3b 1d b9 9b 3d b2 fe 58 3d
       -0.03979642 0.0027736 0.07603667 0.05297727
0001a0 03 87 47 3d 3f a6 e5 bd a5 17 88 3d b5 6e be 3d
       0.04871274 -0.112133496 0.06645135 0.092984594
0001b0 b7 b9 c0 3c 3e fe 06 3d 6a d7 22 3c 10 87 f1 bc
       0.023526056 0.032957308 0.009939054 -0.029483348
0001c0 16 f9 dc bd 50 43 a8 3c 8e 14 a7 bc 0d c0 24 3c
       -0.10789697 0.02053991 -0.020395543 0.010055554
0001d0 91 ab 8b 3c 0b 61 22 3e 54 b2 92 bd f8 55 39 3c
       0.017049583 0.15857331 -0.0716292 0.011312
0001e0 3c 83 2c 3d e0 51 eb bd f0 c8 92 3d 2b 23 29 bc
       0.042117342 -0.11490226 0.07167232 -0.010323326
0001f0 c8 91 0c 3d ac 62 9e bd f4 c4 ae 3d 94 ce ad 3c
       0.034318715 -0.07733664 0.085336596 0.021216668
000200 a2 29 aa 3d 67 cb 9c 3d a4 0a aa 3d b4 53 1a be
       0.08308722 0.076559834 0.08302811 -0.15070993
000210 8f 33 aa 3c 6c d6 99 3c 56 12 98 3d c3 3f c2 3c
       0.020776538 0.018779002 0.07425372 0.023712045
000220 39 cb 95 3d 40 7c e6 bb 5c e9 86 bc 54 8b 31 bc
       0.07314152 -0.0070338547 -0.016468696 -0.010836441
000230 1c f0 8d 3d d9 e3 a6 3d 54 d3 63 bd 72 f2 a0 bd
       0.06930563 0.08148927 -0.05562146 -0.07858743
000240 c9 dc d9 3d 51 72 e0 3c 2f 01 02 3e 82 06 1e be
       0.106378146 0.02739826 0.12695764 -0.1543217
000250 24 c7 60 bd 5a 2d 1b bc 9a bd f1 bc 67 0e f4 3d
       -0.054877415 -0.009471262 -0.029509354 0.119168095
000260 48 8f cb bd b6 70 59 3d 9c 02 9d bd 7d f3 ac bd
       -0.09939438 0.053086005 -0.07666513 -0.08444879
000270 61 6f 26 3d 0f 17 ae 3d ab 2e 48 bc 94 7a 9b bd
       0.040633563 0.08500492 -0.012218158 -0.07591739
000280 7a 85 d9 3d c5 48 49 3d ca 55 bb bb a3 ee c8 ba
       0.10621162 0.049141664 -0.005717014 -0.0015329908
000290 0c 3f 05 be ce 6b 8a bb bf d3 4f 3d 0e 8b 84 bd
       -0.13012332 -0.004224277 0.050739046 -0.06471835
0002a0 39 a5 98 bc 5a 92 84 3c 18 74 9c 3d 01 79 bc 3d
       -0.018633472 0.016183067 0.076393306 0.09202767
0002b0 97 f4 11 3e 32 b2 30 bd 07 56 ff 3c 3a b9 26 be
       0.1425346 -0.04313869 0.03116895 -0.16281596
0002c0 72 7d 04 3e 79 f3 a3 3d 90 fa 0f bd 9f d3 f0 bd
       0.12938479 0.08005423 -0.035151064 -0.117591135
0002d0 bb a4 d7 bb 90 a4 c4 3c 90 cb b1 bd 7d 15 82 bd
       -0.0065809167 0.02400425 -0.086814046 -0.06351755
0002e0 32 78 04 3e 6d 54 5e 3d 3c 4c 1a bd af e8 ef 3d
       0.12936476 0.054279733 -0.03767036 0.11714303
0002f0 aa 64 55 3d a6 68 81 bd fc 98 01 3e fb c9 8c 3d
       0.052097954 -0.06318788 0.12656015 0.06874462
000300 09 56 95 bc d1 b4 c1 3d 69 55 87 bd 6b 56 b8 3d
       -0.018229501 0.09458316 -0.066080876 0.09000858
000310 66 0c ba 3d b3 ec fa 3b d9 db d2 3c 9e 29 38 3d
       0.09084396 0.0076576113 0.025739597 0.044961564
000320 3c e9 ae 3b ba a7 08 3e f4 57 7f 3d 5a 18 11 bd
       0.0053378623 0.13345233 0.062339738 -0.035423614
000330 3e e1 c6 3d b2 81 de bd ea 65 80 bd de ae 0b be
       0.0971093 -0.10864581 -0.062694386 -0.13640925
000340 4b 0b df 3d 92 29 cb bd 97 34 dc bd 20 d8 56 be
       0.10890826 -0.09920038 -0.10752218 -0.20980883
000350 7f 4c 78 3d c3 e6 d5 3d 88 9e 04 be 90 c9 93 3d
       0.060619827 0.10444405 -0.129511 0.07216179
000360 47 ac 95 3b 46 bb 83 bc d8 f1 8e 3d cc 4b 82 3d
       0.004567656 -0.01608051 0.06979722 0.06362113
000370 34 a3 04 be ed 08 4b bd 4d 06 b7 3d fb b9 3a 3d
       -0.12952882 -0.04956906 0.08936749 0.04558752
000380 4b ba 0e be 21 fc b4 bd 62 a0 3f 3d f9 08 e5 3c
       -0.13938253 -0.08837152 0.046783812 0.02795838
000390 b3 8c 4d 3d ee 6c 9d bd d3 27 8c bd 3d 1a 41 3d
       0.05018301 -0.07686792 -0.06843533 0.047144163
0003a0 31 ce 42 bd 0d 99 1c bd 62 c4 a1 3d fa d5 88 bd
       -0.04755992 -0.038231898 0.07898785 -0.06681438
0003b0 26 f5 99 bd df 62 ea 3d 92 64 99 3d d0 35 dc bd
       -0.075174615 0.114446394 0.074898854 -0.107524514
0003c0 71 5e f1 bc 42 5a 19 3d 56 c3 96 bd 03 d5 20 bc
       -0.029463978 0.037439592 -0.07361476 -0.009816411
0003d0 14 fc a1 3c 72 4e a7 bd 75 cb 07 3d 79 fc d2 b9
       0.01977352 -0.08169259 0.033153016 -0.00040242428
0003e0 34 85 5a 3d 7f ea 2c 3e 8c 77 8f bd 11 c0 c8 3d
       0.05334969 0.16886328 -0.07005224 0.09802259
0003f0 71 b2 d3 bc a1 3a 5e 3c e0 9e a4 bd cb eb fc 3d
       -0.025841923 0.013563783 -0.080381155 0.123496614

rnn.weight_hh_l0 f4 [248, 62]
000000 cb ea 49 bc ba 2b 7b bd 46 5a 7d 3c 9e 29 e2 bd
       -0.012324045 -0.061320998 0.015463417 -0.11043094
000010 e4 54 ee 3d 91 75 87 bd c4 98 26 bd cc 2c 99 bd
       0.11637285 -0.06614221 -0.040673032 -0.074792475
000020 29 08 96 bd 3d bc 27 3d cd fe 99 3c 55 15 a8 3d
       -0.07325775 0.040951002 0.018798256 0.08207194
000030 c4 23 08 ba 4a 68 bc bd ba 51 fc 3c c7 50 86 bd
       -0.0005193318 -0.09199579 0.030800689 -0.06558376
000040 24 3d 98 3d fc eb de bd d2 00 08 3d e2 76 40 bd
       0.07433537 -0.10884854 0.033203907 -0.046988375
000050 9c c3 96 bd 65 07 98 3d ed be 64 3d 54 7b cf 3d
       -0.07361528 0.074232854 0.055846144 0.10130945
000060 30 7e 00 3e bc 98 8f 3d e6 7e f5 3d a3 f4 1a bb
       0.12548137 0.07011554 0.119870946 -0.002364435
000070 62 93 74 3c 99 d1 60 3d 6e 58 20 3d 6b 00 6c 3c
       0.014927717 0.054887388 0.039146833 0.0144043965
000080 cf 61 00 bb 06 fc e3 3d 47 af b7 bd 9b 0c 13 3d
       -0.0019589548 0.11132054 -0.089689784 0.035900693
000090 98 97 35 3d e9 70 c4 bc 38 74 ed 3c 87 ed e6 3d
       0.044334024 -0.023979621 0.028986081 0.112757735
0000a0 1b 13 d7 bc 28 ec 37 bd 69 61 8e 3c 24 b2 27 be
       -0.026254227 -0.04490295 0.017380433 -0.16376549
0000b0 7c 3a f4 bd 46 8f 9c 3c c4 f7 a8 3d 91 5e 18 bd
       -0.119252175 0.019111287 0.082503825 -0.03719956
0000c0 6e 21 1a 3d 0e 79 03 3c c3 22 c4 3d f7 98 cf 3d
       0.037629537 0.008024467 0.09576943 0.101365976
0000d0 e3 34 8e bd ea f7 e3 bd 2b b3 cf 3c db 0c 3f ba
       -0.06943681 -0.1113127 0.025353989 -0.00072879874
0000e0 56 b3 a6 3d db e5 8a bc 5f e3 5a 3d fc 14 dd 3d
       0.08139674 -0.016955307 0.053439494 0.10795018
0000f0 9e 06 0d 3e 54 30 b9 3d b2 49 24 bb 46 7c e4 3d
       0.13772056 0.09042421 -0.002506834 0.11156516
000100 ea 52 86 3c 9d c2 02 3d 67 60 f7 3d 1a 50 e6 3d
       0.016396958 0.03192388 0.12078934 0.11245747
000110 55 60 18 be cd b3 64 3d b7 ea 0c be ed 21 0e 3e
       -0.14880498 0.055835534 -0.13761412 0.13880129
000120 48 b1 c0 3c fc 27 ed 3b ff 39 0f be 6d 31 ce bd
       0.023522034 0.0072374325 -0.13986968 -0.10068021
000130 51 ec 95 bd ec ac 74 bd e4 a4 aa bd 95 45 e9 bc
       -0.073204644 -0.059735224 -0.08332232 -0.028475562
000140 57 5d 06 3e 83 bc 53 3c 1e 5e 79 bd 1b df 72 3d
       0.13121544 0.012923363 -0.060880773 0.0592948
000150 c2 ac a3 3c 9a ac 09 3e 3f 19 e3 3d f7 84 dd bd
       0.019979838 0.13444749 0.110888 -0.10816377
000160 64 9c df 3d 76 03 53 3d f7 04 8d bc ea 9c af bd
       0.10918501 0.051516972 -0.017214281 -0.08574851
000170 bc 17 48 3d fb 91 99 3d cf bd c5 bd 93 e4 68 bd
       0.04885076 0.07498547 -0.09655344 -0.05685861
000180 23 af 9f bc 33 7a d5 bd b4 63 18 bb 8e 42 b7 bc
       -0.019492691 -0.10423698 -0.0023252787 -0.022370603
000190 5a 1d c5 3d c2 b8 c6 3d a0 d5 b2 3c 74 f3 77 bc
       0.09624739 0.097032085 0.02183038 -0.015133727
0001a0 58 02 4b bd 03 88 2d 3b 19 c2 8d bd 3f 30 40 bd
       -0.049562782 0.0026478774 -0.06921787 -0.04692101
0001b0 b6 52 58 3d 07 50 85 bd 10 1d 83 3d 78 f7 db bc
       0.052813254 -0.06509405 0.064020276 -0.0268514
0001c0 f8 3f fa bd 1d c1 9d bd ea 07 e9 3c 67 ea a2 3d
       -0.12219232 -0.07702849 0.028446157 0.07954865
0001d0 a6 ef 3e 3d f6 03 a7 3d ea 69 c1 bd e0 15 23 bc
       0.046615265 0.08155052 -0.0944403 -0.009953946
0001e0 e1 ab d0 3d c7 f7 e4 bd cc 4a 43 3d 1b 79 57 3d
       0.10189033 -0.11180072 0.047678754 0.05260573
0001f0 c6 81 e0 bd f7 e8 8d 3d 1b 1e ba bd f5 00 9c bc
       -0.10962252 0.069292 -0.090877734 -0.019043425
000200 b1 8f 8c 3c c9 ee 2e 3d 4f 87 9b 3d f6 ba cc bd
       0.017158361 0.042708192 0.075941674 -0.099965975
000210 fb 71 e8 bc e1 1e dc 3d a3 b7 89 3d bd 03 e4 3d
       -0.028374663 0.10748077 0.06724479 0.111335255
000220 45 e5 66 bd 6d e1 9d bd b5 25 a3 3c 19 94 31 bd
       -0.056370992 -0.07709012 0.019915441 -0.043354128
000230 70 e1 d8 3c fe 76 f3 3d 0d 7a 60 3d aa cd c0 bd
       0.026474684 0.1188793 0.054803897 -0.09414227
000240 59 49 8e 3d 65 b6 ba bd 20 31 3d bd 67 ac b9 3d
       0.06947584 -0.0911682 -0.046189427 0.09066086
000250 c4 ba 34 bd 51 a6 f1 3d 95 92 6c bc a7 7e 98 3c
       -0.044123426 0.117993005 -0.014439245 0.01861508
000260 6f 1c df 3d 96 a1 7c bd 1b da 24 3d 52 9e c4 3c
       0.10894095 -0.061677538 0.040247064 0.024001274
000270 c7 06 c8 3d b2 02 0c be 70 60 0f 3e a7 0f 05 3c
       0.09766918 -0.13672903 0.14001632 0.008121408
000280 92 2a d9 3d 9d 76 f9 bc 97 ea dc 3b c9 dd b0 3d
       0.10603823 -0.030452067 0.0067418325 0.08636052
000290 10 d1 86 bc 9c 20 b3 3d 46 cf 50 bb 0e a1 12 3e
       -0.01645711 0.08746454 -0.0031861826 0.1431925
0002a0 2e 42 74 bc 3a cf b6 3d b4 aa 4e 3b c5 a1 8b 3d
       -0.014908357 0.08926244 0.0031534852 0.068179645
0002b0 54 d3 e5 3d 8f b9 c4 3d af c7 7e bd 90 c7 0d 3e
       0.11221948 0.09605705 -0.062202152 0.13845658
0002c0 d0 49 ce 3d 05 5d 72 3d b9 a5 c0 bd 77 84 c4 bd
       0.10072672 0.05917074 -0.09406609 -0.09595578
0002d0 62 ab 8b 3d 99 fd 9d bd 78 88 0c 3b ec 79 f3 bb
       0.06819798 -0.077143855 0.0021443646 -0.0074303057
0002e0 ad f3 d9 3d 7e cf 6f bd 72 7a e3 3c 26 f5 a7 bd
       0.106421806 -0.05854749 0.027768347 -0.08201055
0002f0 55 5a 67 bd 57 cb 35 bd 7f 4d 0d bc 35 34 99 bc
       -0.05648263 -0.044383373 -0.008624434 -0.018701652
000300 09 c1 df bd 5e 91 cd bc 5f ca 03 be 91 0d a5 3d
       -0.109254904 -0.02509373 -0.12870167 0.08059228
000310 3b 94 bb bd 26 50 4b bd 74 3a da bd 30 30 6d 3d
       -0.09159132 -0.049636982 -0.1065568 0.057907283
000320 28 49 b9 3c d2 f3 a7 3d 14 39 70 3c 5c 64 d3 bd
       0.022617891 0.08200802 0.014662046 -0.103218764
000330 b7 15 ef bd 3c fd 0b be 60 c0 ba bb b5 57 81 bd
       -0.11674064 -0.1367082 -0.0056992024 -0.06315557
000340 15 43 86 3d 69 25 97 bd 88 89 a8 b8 e6 c4 3e bd
       0.06555764 -0.07380182 -8.0364814e-05 -0.046574496
000350 8b 7b 85 bd 56 0a 16 3d 02 82 0d be f1 0f a8 bd
       -0.065177046 0.03663095 -0.13819125 -0.082061656
000360 23 39 8d b9 fb 23 90 bd 81 af 1a be 6d e4 b7 bb
       -0.00026936186 -0.07038113 -0.15106012 -0.0056119473
000370 93 f1 f7 3c 3b 84 04 3e 4f 63 6b 3b 98 76 09 3d
       0.030266559 0.12941067 0.0035917347 0.033560365
000380 f7 54 ff 3c ba a6 9c 3c c6 e4 ba 3d a1 f2 32 3e
       0.031168444 0.01912247 0.09125666 0.17475368
000390 7a 2e f6 3d 6b 65 14 bd 8c 60 c7 3d 28 c4 bf bd
       0.120205835 -0.036229532 0.09735212 -0.09363586
0003a0 2a 2e 4f bd e7 23 aa bd 46 22 fb 3d 6f 7b e8 3d
       -0.050581135 -0.08307629 0.122623965 0.11351668
0003b0 f7 80 d3 3d fe 04 c2 bd 58 0c 14 3b 42 c0 c5 3c
       0.103273325 -0.094736084 0.0022590365 0.024139527
0003c0 57 2a da 3d ca 99 df 3c 1c e3 d0 3c f7 b8 78 bd
       0.10652607 0.027295012 0.02549892 -0.06072327
0003d0 82 d5 7b 3d 1b 28 04 bd e3 77 84 bd 1a 21 80 bd
       0.061482914 -0.03226481 -0.06468179 -0.062563136
0003e0 69 b4 14 be 6f 29 00 bc 03 15 28 3d b8 16 59 3d
       -0.14521946 -0.007822379 0.041035663 0.053000182
0003f0 fc d3 25 3d fc 04 21 bd 6c 26 c7 bd 9a cb 6b 3d
       0.040485367 -0.039311394 -0.09724125 0.057567216

rnn.bias_ih_l0 f4 [248]
000000 5f 42 b0 3d a6 04 41 3d c8 b1 85 3d 2f a5 a3 bd
       0.08606409 0.047123574 0.0652805 -0.07990491
000010 68 16 a7 bd 2b aa a8 bd 4d 8d e2 bc 47 8e 09 3c
       -0.081585705 -0.08235582 -0.027655268 0.008395738
000020 af 4b 87 3d 56 53 e8 3d 51 bd ca 3d 80 da f0 bd
       0.066062324 0.1134402 0.098993905 -0.117604256
000030 d2 de 2f 39 04 cc 61 3d 10 44 07 be be dd b7 bd
       0.00016772308 0.055126205 -0.13209558 -0.08977841
000040 be 3d 6f 3c 65 16 12 3e 9a 68 99 3c 19 e3 c4 3d
       0.014602123 0.14266355 0.018726636 0.09613628
000050 8b c2 0f 3d 5b 9e 92 3c 17 5b f9 3d 29 8f 67 bd
       0.03509764 0.017897775 0.12175577 -0.056533013
000060 81 ff 83 3d e6 f8 e5 3d 41 83 b0 3d e3 84 0e 3c
       0.06445218 0.11229114 0.08618785 0.008698675
000070 c9 b6 1d 3c f0 c4 37 3e 7d 58 45 3d 3e 6a e0 3c
       0.009626099 0.1794622 0.048180092 0.02739441
000080 f8 b6 b9 3d 89 e7 82 bd da f5 2d bd 0c cc e4 3c
       0.09068102 -0.06391818 -0.04247079 0.027929328
000090 75 2a 7b 3c 5e e2 4e bb 1f cd e6 3d 6b a2 b6 3d
       0.015329947 -0.003156803 0.112695925 0.089176975
0000a0 0a d7 b0 bd 5d 52 26 3e 4d a0 9b 3d 84 12 c4 bd
       -0.086347654 0.16242357 0.07598934 -0.09573844
0000b0 ec 90 d5 3d 56 29 bb bd 10 8b 53 3d 45 f1 19 3e
       0.10428032 -0.091387436 0.051646292 0.15033443
0000c0 47 df ff 3b fb aa 13 bc 51 fd ca 3d 8a 34 b6 bc
       0.007808599 -0.009012933 0.099115975 -0.02224185
0000d0 39 8d fa 3c e4 53 e7 bc b0 c4 c9 3d 33 d0 02 3d
       0.030584918 -0.028238244 0.09851968 0.031936835
0000e0 f6 49 95 bd df a5 12 3b 00 7a 8e bd f9 6c 70 3d
       -0.072894976 0.00223767 -0.069568634 0.058697674
0000f0 ec 49 07 3c b1 0e 08 3e b3 99 9a 3d ac 75 68 bd
       0.00825737 0.13286854 0.07548847 -0.056752846
000100 15 34 5c bd 5a 0e d9 3d 54 8f c9 bc 6b 4d 9a bd
       -0.053760607 0.105984405 -0.024604477 -0.075342976
000110 a6 b2 92 bd 02 94 1a 3e dd 0f 68 3d f4 a4 85 3d
       -0.07162981 0.15095523 0.056655753 0.06525603
000120 fa e8 3e 3e 40 c4 f3 3d 80 2f 1a 3e 09 3f 37 bd
       0.18643561 0.11902666 0.15057182 -0.04473785
000130 8e a3 a6 3d ca 65 58 bd d2 30 87 3b 2a 38 5a bd
       0.08136664 -0.05283145 0.004125693 -0.05327622
000140 ed 00 fc 3d 5a b0 af 3d a9 18 c5 3d c0 0a 15 3e
       0.12304864 0.08578558 0.09623844 0.14554882
000150 9c 8c 7c 3d f5 7d f7 3c 89 cd f1 3c 26 db 88 bd
       0.061657533 0.030211428 0.029516952 -0.06682424
000160 be 62 1b 3d 18 49 b8 bc 77 14 17 3e 51 a4 c4 3d
       0.037935965 -0.022495791 0.147539 0.09601653
000170 b6 3f 40 bc 6f 80 a7 bd 67 52 10 3d 42 00 b9 bc
       -0.01173394 -0.08178794 0.035234835 -0.02258313
000180 01 44 5e bd 89 43 53 3d 3a c5 f9 bc a2 3b 1b 3e
       -0.054264072 0.05157808 -0.030489553 0.15159467
000190 47 2a 22 3e 75 db 85 3d 7c 6b bf 3d cf d9 af 3d
       0.1583644 0.06535999 0.09346673 0.085864656
0001a0 22 11 20 3d 0a 5f db 3d 13 6a 46 3d 94 17 bf bd
       0.03907884 0.10711487 0.048441004 -0.09330669
0001b0 5a a3 24 3e 25 da c4 bc 77 16 88 bd 3a a4 7f bd
       0.16077939 -0.0240298 -0.0664491 -0.062412478
0001c0 7f 2f 24 3e 87 5d 9a bc 77 cd 5d bd 4b 3f 94 bd
       0.16033743 -0.018843425 -0.054151025 -0.07238635
0001d0 18 10 66 3d 34 72 5c bb ff ab ee 3d 14 26 0f 3d
       0.056167692 -0.0033637406 0.116538994 0.034948424
0001e0 2d dd b5 bd 38 fe 10 3d 49 d7 50 bc 60 55 69 bd
       -0.088800766 0.035398692 -0.0127466405 -0.056966186
0001f0 0e 1c 1d bd 23 84 91 bd 10 ab b1 3c 39 ae 9b 3d
       -0.038356833 -0.07105281 0.021688014 0.0760159
000200 12 dd d9 3d b5 8c ae bd de a2 c5 3d e6 ef b1 bd
       0.10637869 -0.085229315 0.09650205 -0.08688335
000210 f6 14 12 bd 2e ae d5 bb 54 00 99 3c f3 13 95 bd
       -0.03566452 -0.006521008 0.018676914 -0.07279196
000220 b0 db a4 bd 4e 23 a3 3c 95 de 12 bc a7 c6 aa bd
       -0.080497146 0.019914296 -0.0089642005 -0.08338671
000230 7e 67 fb bd 2b 30 25 bc b8 81 46 3c 7d 3c c4 bd
       -0.12275599 -0.010082285 0.012115888 -0.0958185
000240 aa d3 eb 3d 0c 9f 3b 3d 9f 33 a4 bd c2 b3 25 3d
       0.11514981 0.045805976 -0.080176584 0.040454634
000250 e5 ec 55 bd c6 32 68 3d 2b 93 60 bd 5c d3 a3 3d
       -0.052227873 0.056689046 -0.05482785 0.07999298
000260 f0 6e ab bd 5a 8f 92 bd 10 27 cf bd 3b 33 05 bd
       -0.08370769 -0.071562484 -0.101148725 -0.03251956
000270 b2 d0 f8 bd 84 5e d6 bd a5 4c ac bd 08 ad 74 bd
       -0.121491805 -0.10467246 -0.08413056 -0.059735328
000280 54 60 62 3a 90 b4 0c bd 02 bf 2a bd 9f 8f 85 bd
       0.000863557 -0.034351885 -0.041686065 -0.06521534
000290 f2 c4 46 bd 48 77 83 3d 42 d7 5a 3d 5b 18 eb 3d
       -0.048527665 0.064192355 0.053427942 0.11479255
0002a0 66 03 00 bc 5e d5 01 3d 8f dd b7 bd e8 49 1a bd
       -0.00781331 0.031697623 -0.08977806 -0.03766814
0002b0 1b 8f 8e 3d bd 0d 57 3d 9d a2 49 3d 09 86 3d bd
       0.06960889 0.052503336 0.049227346 -0.046270404
0002c0 98 da 19 bd 84 6e e9 3d 03 f8 38 3d 10 f4 7c bd
       -0.037561983 0.11398032 0.045158397 -0.061756194
0002d0 9d 2c 10 be 0c 5a f8 3d b3 4f 00 bd 7c 48 4e 3d
       -0.14079519 0.1212655 -0.031326007 0.050362095
0002e0 21 37 c2 bd 6c eb 86 b9 b6 61 71 bd 31 31 15 bd
       -0.09483171 -0.00025733875 -0.058931075 -0.036423866
0002f0 28 a8 61 bc 82 cb 03 3d 7a 15 c6 3d 9e 39 9e 3d
       -0.013773002 0.032176502 0.09672065 0.07725833
000300 ea 41 db 3c db 0f 85 3d 1b ec f3 3d 53 62 9b 3d
       0.026764829 0.06497165 0.11910268 0.07587113
000310 fc 3b 81 bd 81 aa fa 3c 52 d1 f6 3d 05 ed 64 bc
       -0.06310269 0.03059888 0.120516434 -0.0139725255
000320 22 fb 16 3d ff 10 7d 3d 87 a5 88 3b d1 59 03 3e
       0.036860593 0.061783787 0.004170123 0.12827231
000330 2d 5e 08 3e a4 60 c9 bd cf bb d0 3d 02 fd e1 3d
       0.13317175 -0.09832886 0.10192072 0.110345855
000340 57 cd 21 3e 9d 08 e5 3c 6d c3 fe 3d ec 2e e8 bc
       0.15800987 0.027958209 0.12439618 -0.028342687
000350 17 a2 ff bb b5 37 04 3e cf 35 25 3d 65 22 3c 3e
       -0.007801305 0.12911876 0.04033452 0.18372495
000360 87 c2 bc bd b1 69 5e 3d 45 65 ba 3d 39 5d 9d bb
       -0.09216791 0.054300014 0.09101347 -0.004802373
000370 82 cb 81 3c 26 04 cc 3d 49 6d 95 bd 2a e6 13 3e
       0.01584411 0.09961729 -0.07296235 0.1444327
000380 bf a7 62 3b cf 6e 4b 3d 4c 2e 9d bd ae 9a 16 bd
       0.0034584848 0.049666222 -0.07674846 -0.036768608
000390 2f c3 a4 bd 36 c8 07 3d b2 5d 0b 3e 78 57 65 3d
       -0.08045041 0.03314992 0.1360996 0.05599162
0003a0 c8 5c a0 ba 6c 79 79 bd 71 66 cb bd 34 9c b0 3c
       -0.0012234682 -0.060906813 -0.099316485 0.021558858
0003b0 12 5a d3 3c a5 de 26 3d 52 5c fa bd da a9 47 3d
       0.025799785 0.040739674 -0.1222464 0.048745967
0003c0 4c db c8 3d bf b8 4b 3d 5b 6b 48 bc 43 cb 0b 3e
       0.098074526 0.049736734 -0.012232627 0.13651757
0003d0 39 b1 a4 3b d1 bc 11 3d 5e 2e c6 3d d9 83 8c 3d
       0.0050260094 0.03558046 0.096768126 0.068610854

rnn.bias_hh_l0 f4 [248]
000000 5f f1 d6 bd 84 cd d3 bd 5b 3e 8e bd ce 6f 02 3e
       -0.10495257 -0.10341933 -0.06945487 0.12737963
000010 33 07 ab 3c 20 6e eb bd ac 24 b9 3c 8d 28 c3 3d
       0.020877456 -0.11495614 0.022600494 0.09529219
000020 ef fe a4 3d ac 33 24 bc ad 05 a5 3d 0d e4 0d bd
       0.08056437 -0.010022085 0.08057723 -0.034641314
000030 7d 8f 39 3e 8d f1 32 3d bb a3 70 bd 1c 54 16 3e
       0.18121143 0.043687392 -0.058749896 0.14680523
000040 27 c8 1f 3c d8 8b 8c bd de 2e 82 bd e5 a3 b6 3d
       0.00975231 -0.068626106 -0.063565955 0.08917979
000050 82 98 b8 bd 92 28 64 bd 45 2a 2d 3e 01 99 a8 bd
       -0.090134636 -0.055702753 0.16910656 -0.08232308
000060 54 1b 0e 3d 49 47 35 bc 0d 0a 2f bd 3d 3d cf bd
       0.03469403 -0.011064359 -0.042734195 -0.10119102
000070 65 a9 7c 3d cf e9 53 bd b2 a1 db 3d 40 93 01 3e
       0.061684985 -0.05173665 0.107242 0.12653828
000080 16 19 67 bd a2 f4 c5 3d b5 ad e6 3d bc 86 04 3e
       -0.05642041 0.09665801 0.11263601 0.12942022
000090 8f bf ec bd 73 ef 01 3e f0 23 db 3d fc c5 c0 bd
       -0.115599744 0.12688999 0.10700214 -0.094127625
0000a0 5d 91 69 bd a7 d9 a4 3d 03 eb c1 3c e5 72 46 bc
       -0.057023395 0.080493264 0.023671633 -0.012112354
0000b0 da b7 e4 bd 7c c3 8f 3c 40 28 d1 3d 3f fa 43 3d
       -0.111678794 0.017549269 0.10212755 0.047846075
0000c0 e4 6f eb bd 4b 4f 61 bc fa b2 3b bd 41 34 ff 3a
       -0.11495951 -0.013751815 -0.045824982 0.0019470529
0000d0 44 36 08 3e a1 f4 7a bc fe 81 ba bd a9 0c 18 bd
       0.1330195 -0.015317113 -0.09106825 -0.03712145
0000e0 4e 3b 1b 3d 4a 81 06 be 57 b5 96 3d e5 e8 e6 3c
       0.037898354 -0.13135257 0.073588066 0.028187225
0000f0 92 0d 06 3e 3d 88 e1 3d 4b 23 f5 3d 72 69 f1 3c
       0.13091114 0.110123135 0.11969622 0.029469226
000100 03 98 1b bd ef 77 c1 3d 81 49 c5 3d 67 a7 e7 3d
       -0.037986767 0.09446704 0.096331604 0.11311226
000110 70 43 b4 3d 32 87 1d 3e b3 b3 c6 3c 7a e6 39 bd
       0.08801925 0.15383604 0.02425561 -0.045385815
000120 e7 26 17 3e 05 00 0e 3e 91 94 0f bd d4 e4 87 3d
       0.14760934 0.13867195 -0.035053793 0.066354424
000130 b5 90 04 3e 6f 7e 6c bd 1a 47 39 3d 9e 11 5b 3d
       0.12945826 -0.057737764 0.045233823 0.053483598
000140 e1 d1 8a bd 74 47 53 3d 56 1c 33 bd 2b 05 34 3d
       -0.067783125 0.051581815 -0.043728195 0.04395024
000150 63 bc c7 3d b8 13 dc 3d 31 e4 91 bd e6 ea 2b bd
       0.09752729 0.107459486 -0.07123602 -0.041972063
000160 fd 16 9a 3d d7 a3 27 3e fc a0 4f bd f6 99 70 bd
       0.07523916 0.16371094 -0.050690636 -0.05874058
000170 32 3e 97 bc 53 9a fa 3b 57 f4 a8 3d b4 52 86 bd
       -0.018462274 0.0076477914 0.08249729 -0.06558743
000180 e3 b5 68 bd 5c 9f 23 bd da d8 6d 3b 04 62 23 3e
       -0.056814086 -0.0399469 0.0036292584 0.15955359
000190 9f 58 bd 3d 77 5a 18 3e 2e 25 0f 3e a2 84 16 3e
       0.09245419 0.1487826 0.13979027 0.14699033
0001a0 5b 83 b6 bd 4d 3e 97 3d c5 d7 a1 bc 85 6c f1 3c
       -0.08911773 0.0738493 -0.019756207 0.029470691
0001b0 cf 58 19 3d c5 a3 18 3d 00 c9 a8 bc ca 26 b6 3a
       0.03743821 0.037265558 -0.020603657 0.0013897058
0001c0 97 0f 31 3d f3 29 e1 bc 6c cf b4 3d 4c f0 bb 3d
       0.04322776 -0.027485823 0.08828625 0.09176692
0001d0 c0 28 1d 3c 1f fb 86 bd 98 29 59 3c 7d f8 0e 3e
       0.009592235 -0.06590866 0.013254546 0.13961978
0001e0 95 f5 f4 bc df ad a0 3d 3f 48 24 3d 27 c2 58 bd
       -0.029902259 0.07845663 0.04010796 -0.052919533
0001f0 22 f5 0e be 64 fb a3 3d 82 c4 9b ba 20 76 76 bd
       -0.13960698 0.08006933 -0.0011884125 -0.060171247
000200 a8 34 01 3d 60 20 bc bc 4e 1e 87 bd 1e 39 b3 3d
       0.031544358 -0.022964656 -0.06597577 0.087511286
000210 2e f4 1c 3d a1 7d 82 bd 32 8e 93 3c 77 7e ef bc
       0.038318805 -0.06371618 0.01801214 -0.029235108
000220 2c d2 48 3d 6b d3 09 be fe fd f7 bc bb 5c 03 bd
       0.04902856 -0.13459556 -0.03027248 -0.032070857
000230 68 52 04 be 64 79 11 3e 7f 08 fe 3a 3f 12 9e 3c
       -0.1292206 0.14206463 0.0019381194 0.01929581
000240 06 0d b6 bd 6a 40 95 bb e4 03 17 be 1c d5 d3 3d
       -0.08889203 -0.004554798 -0.14747578 0.10343382
000250 a0 c0 5b 3d 19 9a 89 3d 7c 34 64 3d 34 23 1d 3d
       0.0536505 0.06718845 0.055714116 0.03836365
000260 be ab 53 3d fa 8e f6 3c 08 e2 cb 3d 7c e9 02 3e
       0.051677458 0.030097473 0.099552214 0.1278438
000270 94 72 b9 bd 84 79 4c 3d 42 3e a7 bd fc 94 09 bd
       -0.09055057 0.049920574 -0.081661716 -0.03358935
000280 d6 94 8c bd 4a 4c fe bd 8d 58 de 3d d8 8d bd bd
       -0.06864326 -0.12416895 0.108567335 -0.0925557
000290 fa 90 83 3d c5 f7 f4 3d e9 10 d1 bd 60 40 ab 3d
       0.064241365 0.11961321 -0.102083035 0.08361888
0002a0 ce fc 05 be 37 d4 fc bd 3c 25 08 bd 13 68 2f bd
       -0.13084719 -0.12345164 -0.033238634 -0.042823862
0002b0 98 41 57 3d ac 93 9f bb 84 4a 03 3e a5 c5 8a 3d
       0.05255279 -0.004869899 0.12821394 0.06775979
0002c0 e0 d1 3b bc b5 5f 8d bd 70 0d 62 bd 82 7e 7f 3d
       -0.011463612 -0.0690302 -0.055188596 0.062376507
0002d0 72 55 c3 bc 53 12 0b bd 79 dd 57 3d 67 be 78 bd
       -0.023844454 -0.033953022 0.052701447 -0.060728457
0002e0 96 7e 94 bd d1 a3 b8 3d d9 30 46 3d 82 d6 61 3c
       -0.07250707 0.090156205 0.04838643 0.013784053
0002f0 6c f7 02 3e 56 ae 03 3e 9f 38 0c 3e c9 af ac 3d
       0.12789696 0.12859473 0.13693474 0.08431966
000300 bd 8a e5 bc 9e 9c 98 3d 5e 0f 3a 3e 47 71 aa bd
       -0.028020257 0.07451747 0.18169925 -0.08322387
000310 75 b0 78 bd 55 cb 63 3d 41 07 01 3e 24 e8 5b 3d
       -0.060715158 0.055613834 0.12600423 0.053688183
000320 d6 72 03 bd 9a 76 88 bc 2d 3b 27 3d 81 17 51 bd
       -0.032091938 -0.016658116 0.04082792 -0.051047806
000330 37 17 e0 3d ef a2 66 bd 7b 52 0c 3e 18 0a 9c 3d
       0.10941928 -0.05630773 0.13703339 0.07619113
000340 a5 c7 a7 bc 17 12 55 bc 64 05 de 3b 17 c6 0d 3c
       -0.02048094 -0.013004801 0.006775545 0.008653185
000350 05 96 14 3e a3 de 47 3d cf ea b2 3b 5d 08 46 3c
       0.14510353 0.048796307 0.0054601203 0.012086955
000360 84 c0 4f 3c bc 15 a0 bd 76 c2 a9 bd 79 a0 64 bd
       0.012680177 -0.078166455 -0.082890436 -0.0558171
000370 cc 57 7d bd 13 d6 5b 3d b1 a9 14 bd 7a f9 22 3e
       -0.061851308 0.053670954 -0.036294643 0.1591548
000380 2d 3d 19 bd 0c ab 0c bc 8e 67 1f bc 24 04 84 bd
       -0.037411857 -0.008585703 -0.009729279 -0.06446102
000390 ff eb c3 bb 0b 21 c3 bc aa 8f b9 3d 29 ce 3f 3c
       -0.0059790607 -0.023819467 0.09060605 0.011706867
0003a0 02 b0 5e bd c1 66 3d 3d ae 6e 01 3e d0 b1 61 bd
       -0.054367073 0.046240572 0.12639877 -0.055101216
0003b0 e3 0f 1b 3e 81 78 18 3c 64 9b 4a 3d 2b 43 3c 3d
       0.15142779 0.009306074 0.0494646 0.045962494
0003c0 56 17 97 3d 42 94 8c bd 98 b2 a9 bc 8c 91 b1 3d
       0.07377498 -0.068642154 -0.020715043 0.08670339
0003d0 92 37 2d bc 33 3e 2e bc 3a 6e b1 bd 53 12 07 3e
       -0.010572331 -0.010634947 -0.08663602 0.13190584

logit.weight f4 [1, 62]
000000 4e f6 d9 bd 25 94 ac 3d 89 4b 9a 3d 82 c3 f2 bd
       -0.10642682 0.08426694 0.075339384 -0.118536964
000010 15 f2 9b 3d 6b 76 a3 3d 0a c4 bd 3d e4 de 79 3d
       0.07614533 0.07981571 0.09265907 0.06100358
000020 58 ca 8f 3c b5 fd cc 3d 11 53 dc bc e3 42 b1 3d
       0.01755254 0.10009328 -0.026895078 0.08655336
000030 c2 d5 6f bd bf 4e fe bd ea ba 80 3d 99 7a 08 be
       -0.058553465 -0.124173634 0.06285651 -0.13328017
000040 f4 fd 0a be 1f b9 d7 3d e3 39 9f bd 4f db f8 bd
       -0.13573438 0.10533356 -0.07774713 -0.12151205
000050 0f 7e f6 3d 0f 90 9a bd 01 ba 07 bd 01 10 94 3d
       0.120357625 -0.07547008 -0.03313637 0.07229615
000060 6c 59 bb bd 81 ae 01 bd 8e b2 2b 3a 1d 96 51 3d
       -0.09147915 -0.03166056 0.0006549739 0.05116855
000070 b2 ad 66 bd 67 c4 f7 bc 00 31 a5 3d 74 8f f2 3d
       -0.056317993 -0.03024502 0.08065987 0.11843768
000080 fb 25 c3 bd d9 11 45 3d 11 0e df bd f0 1f 80 bd
       -0.095287286 0.048112724 -0.10891355 -0.062560916
000090 39 98 74 3d 3e 57 4c 3b 40 5f 74 bd b6 f2 03 bc
       0.059715483 0.003117993 -0.05966115 -0.008053472
0000a0 5e be 84 3d a6 9e 7f 3b 03 49 01 3e d1 16 68 3d
       0.06481622 0.0039004474 0.12625508 0.056662384
0000b0 52 39 6e bc a4 6f 1e be aa 60 ee bd d5 86 bc bd
       -0.014540033 -0.15472275 -0.11639531 -0.09205405
0000c0 89 97 45 ba ef 38 aa 3d 5b 80 85 3d 22 db 7d 3d
       -0.0007537534 0.083116405 0.065186225 0.06197656
0000d0 75 67 cc 3d 83 44 e1 bd 33 35 9b 3d e3 31 b6 bd
       0.0998067 -0.10999396 0.07578506 -0.08896234
0000e0 99 82 9b bd f5 aa 9b 3d 0d ab 44 bd 7f 1a 6e bd
       -0.07593269 0.07600967 -0.04801469 -0.058130737
0000f0 a0 7d 16 be 64 b3 4c 3d
       -0.1469636 0.049975768

exp_avg f4 [248, 52]
000000 d0 d5 25 38 42 9c c2 b8 aa b7 e6 b8 bb 31 1e b8
       3.9538194e-05 -9.279746e-05 -0.00011001465 -3.771645e-05
000010 dc 08 79 b9 9e eb d7 b9 80 ce da b8 fc 49 0d b7
       -0.00023749791 -0.00041183544 -0.00010433514 -8.421481e-06
000020 87 0a 10 b8 ff b5 d7 b8 06 b6 94 b9 50 e0 65 b9
       -3.434208e-05 -0.00010285898 -0.00028364378 -0.00021922705
000030 04 cc f8 36 05 03 95 b6 da d1 de 39 a3 27 05 39
       7.4147265e-06 -4.4408976e-06 0.0004249949 0.00012698634
000040 bc 8b dc b7 5e 7a 50 39 88 1d e6 b7 0a c7 ca 39
       -2.6291113e-05 0.00019882011 -2.7431888e-05 0.00038676738
000050 2e 00 07 b7 53 c9 a8 b8 9b 2b ec 38 3a 61 32 b9
       -8.046669e-06 -8.048364e-05 0.00011261479 -0.00017011623
000060 4c eb bd b8 10 61 e1 b8 fd 94 a2 b8 8f af 21 38
       -9.05605e-05 -0.00010746915 -7.752513e-05 3.8548893e-05
000070 6e 50 a4 38 65 15 1f b8 3c ed e9 38 89 1f 8f b8
       7.8351106e-05 -3.792848e-05 0.00011154494 -6.824645e-05
000080 1f c9 3d b9 8d c5 93 39 cf a4 66 38 9f b9 18 b9
       -0.00018099368 0.00028185212 5.4989763e-05 -0.00014564999
000090 0d a6 10 ba 28 2a 8e 39 73 42 8d 36 4e 1c c8 b8
       -0.00055179076 0.0002711576 4.209863e-06 -9.542015e-05
0000a0 95 e2 03 b9 be d0 96 b8 2c 48 05 39 5b 5b 89 b9
       -0.00012577542 -7.1914386e-05 0.00012710755 -0.0002619874
0000b0 b2 fb 2a 39 ba d7 b3 37 a5 c4 85 38 1f a5 57 b9
       0.00016306227 2.1438918e-05 6.378562e-05 -0.0002056551
0000c0 58 75 16 39 4e e1 14 38 58 29 02 b9 b5 a7 0b b8
       0.00014348829 3.549578e-05 -0.00012413168 -3.3296372e-05
0000d0 a6 ec c4 b9 26 ac 79 38 05 55 89 b8 cf ae 8e b8
       -0.0003756035 5.9526552e-05 -6.548505e-05 -6.803648e-05
0000e0 d2 44 e7 b9 cd 98 24 ba 5a a9 c7 38 aa 63 08 b6
       -0.0004411103 -0.00062788726 9.5206036e-05 -2.0323591e-06
0000f0 85 54 64 b8 67 43 a9 38 89 10 f3 b9 c2 53 f5 b9
       -5.443815e-05 8.071103e-05 -0.0004636089 -0.00046792446
000100 aa fc b1 38 90 ea a7 36 a9 3d fd 39 cd 3d a8 38
       8.48708e-05 5.0042945e-06 0.0004830186 8.0223756e-05
000110 4d 63 9f 39 4c 0f 0e ba b2 89 83 b8 5a c5 b0 39
       0.00030400828 -0.00054191495 -6.2722145e-05 0.00033716374
000120 70 5a 9d b9 ff 54 0d ba ea 97 a0 39 36 87 4c b9
       -0.00030012755 -0.00053913885 0.00030630763 -0.00019505326
000130 71 b9 a8 38 d1 6f a7 37 aa 3f bd b7 c5 6c 0e ba
       8.0454054e-05 1.996002e-05 -2.2560202e-05 -0.0005433078
000140 e2 21 4f b9 f1 a9 d7 b8 43 79 e8 b8 35 6b 19 b9
       -0.0001975368 -0.00010283653 -0.00011085209 -0.00014631155
000150 d3 8f 60 39 4d fb f6 b4 79 9f a5 b8 35 90 01 b9
       0.00021415883 -4.6003916e-07 -7.897517e-05 -0.0001235612
000160 59 25 37 ba f3 9c 56 39 70 34 0f b9 cf 3d a4 b9
       -0.0006986461 0.00020467099 -0.00013657077 -0.0003132657
000170 5a 56 25 b9 87 7f b5 b7 6d eb c4 39 9e 47 2e ba
       -0.00015767795 -2.1636266e-05 0.0003755944 -0.0006648245
000180 ee 36 6e b7 fd b0 af 38 2d f1 2f b9 4a 75 4d 38
       -1.4198695e-05 8.377617e-05 -0.00016779146 4.8985043e-05
000190 02 3f 90 38 14 c7 3c 39 c7 14 e4 b7 87 1b 70 39
       6.878191e-05 0.0001800324 -2.7189393e-05 0.00022898438
0001a0 2b 6f cc b7 7b dc 60 38 8c c1 10 38 2c 15 06 38
       -2.4370462e-05 5.36111e-05 3.451253e-05 3.1967807e-05
0001b0 db 2d 87 39 0f cb ad 39 82 4c 94 b9 3f 95 82 b5
       0.00025783372 0.00033148422 -0.00028285763 -9.729191e-07
0001c0 8b 66 01 36 0b 18 88 37 89 e3 fa 37 2f 3d e6 b7
       1.9282186e-06 1.622366e-05 2.9908277e-05 -2.7446627e-05
0001d0 f6 de 28 b7 50 04 eb 36 27 d0 13 b7 58 6f 08 b9
       -1.00654925e-05 7.004048e-06 -8.810347e-06 -0.0001301145
0001e0 49 9a 94 b8 eb 61 17 38 ab 47 aa 36 ae 63 52 b8
       -7.085928e-05 3.60924e-05 5.074738e-06 -5.0160736e-05
0001f0 ec 3e 00 39 5b 73 d1 37 a5 84 0c b9 a9 ec ab b7
       0.00012230471 2.4968458e-05 -0.00013400854 -2.0494992e-05
000200 87 e0 0b b8 a6 4c e8 37 d1 38 9a b8 25 47 92 38
       -3.334929e-05 2.7692247e-05 -7.353875e-05 6.975074e-05
000210 cb c0 f2 38 b7 43 c8 b6 73 46 1b 39 25 a2 32 b8
       0.0001157537 -5.9683475e-06 0.00014808196 -4.2589516e-05
000220 9c b0 33 39 61 70 da 38 b6 27 86 38 68 cf b3 38
       0.00017136562 0.00010415982 6.397015e-05 8.5740176e-05
000230 ec 56 ae 39 00 8a 33 b8 34 57 c5 37 5b 41 19 39
       0.00033252628 -4.2805448e-05 2.3524837e-05 0.00014615564
000240 ab 36 86 38 4c 8e e8 b7 23 ac e5 b7 9f 2a 06 39
       6.3998006e-05 -2.7722817e-05 -2.7379085e-05 0.00012795113
000250 36 6c ae b8 e5 da 4a 37 97 f8 95 38 fd ad 55 38
       -8.3171224e-05 1.2091104e-05 7.151177e-05 5.0945197e-05
000260 c0 56 79 38 cc df b2 b8 30 b4 cf 38 f1 f5 38 38
       5.944702e-05 -8.529387e-05 9.904092e-05 4.409807e-05
000270 b9 4c 38 b9 9c 37 59 39 5e a8 9f 38 2e d4 11 39
       -0.00017576189 0.00020715449 7.613072e-05 0.0001390732
000280 d6 ec e5 b9 9b 1a f5 b9 34 4f 0f 37 aa 76 55 b6
       -0.0004385474 -0.00046749864 8.541905e-06 -3.1808545e-06
000290 e2 0e 04 b8 aa 42 98 b9 1c ae e4 b8 da dc 35 b9
       -3.1485113e-05 -0.00029041368 -0.000109043176 -0.00017343779
0002a0 5e 91 fd 38 49 a1 70 b7 68 50 d1 39 69 7c 28 b9
       0.00012091057 -1.4342667e-05 0.00039923494 -0.00016068075
0002b0 19 7f e6 38 89 da b4 b9 f6 dc 01 37 38 28 aa 39
       0.000109909284 -0.00034495097 7.740446e-06 0.00032454892
0002c0 a4 5f cd 37 86 c8 15 ba e6 6d d1 b8 84 dd 0e 38
       2.448244e-05 -0.0005713779 -9.986367e-05 3.406174e-05
0002d0 a7 60 58 39 c5 a5 ee b8 30 34 ea b8 83 e6 d1 b9
       0.00020635371 -0.00011379601 -0.0001116771 -0.0004003533
0002e0 72 71 c8 b8 07 02 97 b9 3c bb d0 38 57 1f 13 b9
       -9.557874e-05 -0.00028802475 9.953088e-05 -0.00014030687
0002f0 4e 1c 50 38 bd 5c 1e ba b0 81 0d 39 fd 8c 07 39
       4.9617425e-05 -0.0006041041 0.0001349512 0.00012927125
000300 44 e9 8f b9 2e 44 ce b8 0c 66 72 38 0d f1 04 38
       -0.00027448882 -9.835545e-05 5.7792335e-05 3.169575e-05
000310 4b 93 3a b8 57 e2 23 39 3e 64 05 39 65 56 d5 b9
       -4.4483033e-05 0.0001562921 0.00012721212 -0.00040690895
000320 b8 b6 c3 38 16 87 9c 38 8c 4d 19 b9 10 64 8f b8
       9.3323586e-05 7.4638214e-05 -0.00014620106 -6.8374095e-05
000330 ac ea c4 b9 d0 d8 f4 b9 6e fc 21 b9 89 23 b0 b9
       -0.00037558877 -0.00046700845 -0.00015448194 -0.00033595812
000340 7b 19 92 b9 1b 08 36 b9 27 72 78 b8 29 e7 b9 b7
       -0.00027866274 -0.00017359892 -5.923412e-05 -2.216136e-05
000350 4f 93 af b9 fd 88 f2 b9 87 b3 bd b7 df 6b 30 b7
       -0.00033488355 -0.000462599 -2.2614155e-05 -1.0515533e-05
000360 a7 59 4e b8 0d fe db b8 a6 9e e8 b9 a0 e4 ae b9
       -4.9197723e-05 -0.000104900544 -0.0004436869 -0.00033358205
000370 51 8d 58 38 34 e4 70 b7 c6 ba 0e 3a 44 90 40 39
       5.1630024e-05 -1.4358247e-05 0.00054447015 0.0001836429
000380 c2 88 4a 39 db fa 34 b9 1c a3 34 38 17 b7 98 39
       0.00019315167 -0.00017259589 4.306725e-05 0.00029128112
000390 6b 5d a9 b9 85 d2 cb b9 0b 8f c9 37 2f fb de b8
       -0.00032303794 -0.00038876027 2.4027677e-05 -0.000106325715
0003a0 06 83 95 b8 73 2e b3 b8 6b 20 4f 38 13 6c 6f b9
       -7.129279e-05 -8.544037e-05 4.9382837e-05 -0.00022833077
0003b0 50 e1 29 39 a4 d8 d9 b8 22 e8 8d 39 b6 0c b9 b8
       0.00016201031 -0.00010387719 0.00027066568 -8.823855e-05
0003c0 f6 57 c9 b6 d6 1e 38 b8 ec 83 50 b8 12 72 76 39
       -6.000507e-06 -4.3897737e-05 -4.9713926e-05 0.00023502883
0003d0 ca f6 08 ba 1f e2 24 39 39 24 8c b9 f1 f2 fe b9
       -0.0005224763 0.00015724495 -0.0002672987 -0.0004862766
0003e0 4f b2 80 b8 22 b4 2b b7 9e 12 5a b9 f6 e3 b4 b9
       -6.136728e-05 -1.0234335e-05 -0.00020797036 -0.0003450212
0003f0 13 ee cb 38 70 54 f7 b7 33 ea 97 b9 2c f3 8d b9
       9.724139e-05 -2.9484014e-05 -0.00028975456 -0.00027074793

exp_avg_sq f4 [248, 52]
000000 d9 88 d1 35 75 78 e6 34 91 60 d7 34 7e 31 1f 34
       1.5611541e-06 4.2928482e-07 4.0117132e-07 1.4826034e-07
000010 80 94 90 35 d9 10 93 35 45 a9 aa 35 3a b1 e4 30
       1.0772055e-06 1.0957257e-06 1.2715251e-06 1.6639554e-09
000020 80 84 e5 33 4f 4a ae 35 3c 4d af 35 eb 9f 8e 35
       1.0687745e-07 1.2985637e-06 1.3060994e-06 1.0626367e-06
000030 81 28 a3 33 9f b2 c9 32 b9 a3 8b 35 e8 8f c0 35
       7.5976466e-08 2.3480707e-08 1.0403957e-06 1.4346997e-06
000040 b2 fa b7 35 7e 0c 74 35 15 83 ef 33 82 c4 a5 35
       1.3707524e-06 9.091526e-07 1.11531484e-07 1.2350649e-06
000050 cd f5 04 35 41 8f b9 35 bb 7b b5 35 c5 57 7c 34
       4.953152e-07 1.3825266e-06 1.3521561e-06 2.3501259e-07
000060 97 c6 40 35 05 41 d0 34 e6 83 24 35 21 b7 51 35
       7.181456e-07 3.8790327e-07 6.12867e-07 7.8125055e-07
000070 fb 33 13 35 ee a4 f9 33 39 2f 13 35 6c b2 c4 33
       5.483741e-07 1.16249666e-07 5.4830485e-07 9.159416e-08
000080 e3 b5 8d 35 6e 65 b3 35 11 33 cf 34 4a 45 45 35
       1.0558255e-06 1.3366059e-06 3.859391e-07 7.348905e-07
000090 91 af 60 35 70 f9 80 35 42 79 85 35 66 3f 30 36
       8.3701985e-07 9.609339e-07 9.944563e-07 2.6262946e-06
0000a0 ec 01 2e 35 54 83 00 34 fc 25 81 35 83 ee 66 35
       6.482285e-07 1.1968706e-07 9.622304e-07 8.6028757e-07
0000b0 e4 c0 38 35 03 15 78 34 08 d3 15 35 a5 08 8c 35
       6.8826034e-07 2.3104444e-07 5.5813916e-07 1.0433329e-06
0000c0 7f fb 2f 36 dc 54 c3 35 eb a5 0a 36 f5 d0 02 36
       2.6223422e-06 1.455333e-06 2.066018e-06 1.9493139e-06
0000d0 46 53 e3 35 3a c7 f2 34 f3 0e e4 34 0e 00 8d 34
       1.6937054e-06 4.522097e-07 4.2479186e-07 2.6263336e-07
0000e0 6e 68 89 35 a0 51 84 35 ce e9 ce 34 2b 79 5b 31
       1.0237688e-06 9.858522e-07 3.8540605e-07 3.193757e-09
0000f0 28 d9 67 33 2b fd 8e 35 fa 93 af 35 b4 0e 82 35
       5.398138e-08 1.0653506e-06 1.3081583e-06 9.690034e-07
000100 09 3f c9 34 67 51 11 32 4c 03 99 35 22 bd 56 35
       3.7485032e-07 8.45862e-09 1.1400348e-06 7.9996437e-07
000110 cb 12 7d 35 b3 c9 7e 35 d8 6c 9a 33 75 d2 7b 35
       9.427719e-07 9.4915885e-07 7.1909824e-08 9.381104e-07
000120 ea 2e 03 35 73 a9 f9 35 e5 d0 cb 35 19 d3 86 34
       4.886957e-07 1.8601262e-06 1.5185475e-06 2.511304e-07
000130 c7 47 4e 35 ff da cc 34 6b d3 4a 35 f5 04 71 35
       7.684543e-07 3.8157302e-07 7.555852e-07 8.978671e-07
000140 e6 78 12 35 03 a4 de 33 4c 6d 2f 35 fd 07 06 34
       5.456517e-07 1.0367514e-07 6.535163e-07 1.2482629e-07
000150 69 fb b2 35 ba 9a ba 35 04 e1 fb 34 86 b4 3a 35
       1.3335203e-06 1.3903111e-06 4.6916114e-07 6.9553096e-07
000160 2a d4 72 35 01 ad a3 35 a4 a4 8a 35 50 b4 d6 35
       9.0460765e-07 1.2194797e-06 1.0329718e-06 1.599672e-06
000170 ae bc 3d 35 20 3f 2b 34 a6 d4 c2 35 cb 63 97 35
       7.068255e-07 1.5948581e-07 1.4516015e-06 1.127942e-06
000180 e1 b6 53 35 84 6a 5f 35 b3 14 ff 34 eb 4d 7a 35
       7.886975e-07 8.3228974e-07 4.7512512e-07 9.3245643e-07
000190 03 ef 3a 36 c3 d1 df 35 3a 93 13 36 fa 61 04 36
       2.7855283e-06 1.6675843e-06 2.1990404e-06 1.9726563e-06
0001a0 89 f5 72 34 53 b7 18 35 6d e6 99 33 6c b7 e9 32
       2.2627331e-07 5.6891184e-07 7.166532e-08 2.720818e-08
0001b0 93 b8 95 34 56 0b a7 34 89 25 c1 34 c1 3b 60 2f
       2.7887708e-07 3.1114422e-07 3.5976362e-07 2.039391e-10
0001c0 ca b0 26 32 c9 64 0c 35 3d 85 71 34 3b 2a 62 34
       9.702669e-09 5.2300726e-07 2.2493346e-07 2.1063254e-07
0001d0 67 b3 21 33 d5 bf dc 30 9e d6 57 34 6e 9d f3 34
       3.76489e-08 1.6061629e-09 2.0101513e-07 4.5376822e-07
0001e0 e4 ca 7f 34 2c 91 1a 34 6e a9 b3 32 05 c4 3a 34
       2.3822537e-07 1.4395181e-07 2.091539e-08 1.7393911e-07
0001f0 01 ec b1 33 32 0b 7b 34 69 75 68 34 5a ec ff 33
       8.285134e-08 2.338027e-07 2.1649397e-07 1.1917355e-07
000200 89 df 18 34 a1 5a 99 33 b0 78 cf 33 2a 84 05 34
       1.4237425e-07 7.141103e-08 9.6611416e-08 1.2434671e-07
000210 10 1a 34 34 67 80 ef 32 0b cd 24 34 d0 ca 73 32
       1.6773288e-07 2.7881653e-08 1.5348284e-07 1.4190576e-08
000220 95 2a 48 34 aa 98 90 34 33 41 98 33 c8 d6 68 34
       1.8641943e-07 2.6933168e-07 7.089911e-08 2.168482e-07
000230 42 a4 8c 34 82 45 42 34 cf 92 7e 34 e9 50 b8 34
       2.6196545e-07 1.8092945e-07 2.3709002e-07 3.433154e-07
000240 a2 77 03 34 df 65 1d 33 c7 9b 84 34 a4 00 02 34
       1.2243848e-07 3.6647062e-08 2.470026e-07 1.2107427e-07
000250 d9 be 35 34 3d 85 7a 33 73 57 e0 33 d1 33 23 34
       1.6926369e-07 5.832884e-08 1.044672e-07 1.5199409e-07
000260 06 8d ba 34 be eb 56 34 d2 54 b9 34 e4 d0 bf 34
       3.4747808e-07 2.0016066e-07 3.452065e-07 3.572851e-07
000270 d7 9d 3b 36 b0 f9 81 35 be 15 2b 35 21 74 98 34
       2.7957046e-06 9.683918e-07 6.3734103e-07 2.83967e-07
000280 c4 b7 1d 36 4e b5 26 36 39 bc 4e 35 57 fc 1e 32
       2.3501789e-06 2.484146e-06 7.701488e-07 9.254186e-09
000290 4a 2a 11 34 7b f2 00 36 35 dd 26 36 03 51 11 36
       1.3519562e-07 1.9214629e-06 2.4864687e-06 2.1653839e-06
0002a0 41 5c 8b 34 a7 1f be 32 60 73 0c 36 ee 30 ec 35
       2.595789e-07 2.2133305e-08 2.0928783e-06 1.7597611e-06
0002b0 7e 4d 10 36 80 80 fe 35 75 9a 04 34 a4 b9 eb 35
       2.1502779e-06 1.8961873e-06 1.2349649e-07 1.7562893e-06
0002c0 da d4 a6 35 b6 53 53 36 0b ba 37 36 10 be 63 35
       1.2429912e-06 3.1490176e-06 2.7377416e-06 8.4840667e-07
0002d0 4a f0 c9 35 be a4 42 35 d8 5d 63 35 ea 0b fb 35
       1.50456e-06 7.2510363e-07 8.470065e-07 1.8704425e-06
0002e0 dc e3 88 35 22 b0 92 34 2e 70 93 35 bc 81 4d 34
       1.0199105e-06 2.7322773e-07 1.0985002e-06 1.913931e-07
0002f0 38 c4 11 36 a0 bb 2c 36 1a 07 36 35 7a 0b c0 35
       2.1720898e-06 2.573921e-06 6.781062e-07 1.4308455e-06
000300 1d 1d 08 36 75 3c 01 36 ce 9e ce 35 b3 81 9b 36
       2.0282525e-06 1.9257689e-06 1.5394414e-06 4.634459e-06
000310 74 46 91 35 03 ea ba 34 a3 56 e4 35 00 ab 20 36
       1.0823846e-06 3.4815466e-07 1.7012538e-06 2.3941393e-06
000320 c1 d1 cf 35 6c 55 ea 34 1b c6 7f 35 26 8d e3 35
       1.5483748e-06 4.364805e-07 9.5283184e-07 1.6953898e-06
000330 b6 c6 87 36 f1 d5 4e 36 40 45 8c 36 da d6 7f 36
       4.0464465e-06 3.0820922e-06 4.180387e-06 3.812302e-06
000340 37 bd ef 35 7e 4f 48 35 6a cd 59 34 58 70 00 34
       1.7861956e-06 7.462148e-07 2.0284429e-07 1.19618e-07
000350 91 a5 af 35 50 22 b3 35 ac a1 46 35 cf 08 1c 31
       1.3086702e-06 1.3346526e-06 7.399601e-07 2.2705995e-09
000360 f7 61 fd 33 69 6a a7 35 e7 39 e5 35 31 c4 8e 35
       1.179905e-07 1.2473439e-06 1.7078681e-06 1.0636924e-06
000370 f1 25 0f 34 01 30 8a 32 40 fa b6 35 58 e1 65 35
       1.3331716e-07 1.6087144e-08 1.3632889e-06 8.5637066e-07
000380 1d eb 8b 35 bd 6a ab 35 27 e6 b5 33 3c e2 87 35
       1.0424734e-06 1.2771558e-06 8.470334e-08 1.0124127e-06
000390 01 22 3c 35 1e 98 10 36 ec dc da 35 0a 3c 8d 34
       7.008494e-07 2.1546216e-06 1.6306562e-06 2.630698e-07
0003a0 b4 e4 49 35 ad 81 f9 34 45 32 40 35 6b 51 a5 35
       7.521114e-07 4.6474216e-07 7.1598726e-07 1.2317154e-06
0003b0 2b 10 3f 35 7d 50 05 34 7b 36 5d 35 2c 19 03 34
       7.117657e-07 1.2415872e-07 8.2408195e-07 1.2209483e-07
0003c0 a3 38 c6 35 49 8b e4 35 3c 97 0f 35 2b 59 68 35
       1.4768633e-06 1.7027861e-06 5.3491726e-07 8.655649e-07
0003d0 ce 0f 85 35 72 b9 a1 35 a2 43 88 35 9e 65 20 36
       9.913872e-07 1.2049406e-06 1.0152473e-06 2.3901007e-06
0003e0 fc 15 2c 35 d0 85 3b 34 b1 32 87 35 ce 42 bc 35
       6.4106985e-07 1.7464413e-07 1.0073037e-06 1.4026534e-06
0003f0 19 d8 52 35 c4 ef a2 34 dd 30 2c 35 fa 1a 93 35
       7.854556e-07 3.0349304e-07 6.41461e-07 1.0960205e-06
