kf/hirid/hirid_kf_TCN_repetition_0_fold_0_last.ckpt (torch, 727063 bytes, 57 tensors)

network.0.conv1.bias f4 [34]
0	0x3c97c827	0.018528057
1	0xbb138ddc	-0.0022514975
2	0xbc8c8cfe	-0.017157074
3	0x3c2904c1	0.010316075
4	0x3bcceda3	0.0062539144
5	0xbc23832c	-0.009980004
6	0xbc520381	-0.012818218
7	0x3ca797b4	0.02045808
8	0x3cdb0ded	0.026740039
9	0x3c654df6	0.013995638
10	0xbcc6f2a7	-0.024285628
11	0xbcf8a9ec	-0.030354463
12	0x3b4666b6	0.0030273623
13	0x3c9edf85	0.019393692
14	0xbcf869ab	-0.030323824
15	0xb9e19e81	-0.0004303344
16	0xbc96a8d4	-0.01839105
17	0x3c24ddc4	0.010062639
18	0xbbf9a4a1	-0.0076185022
19	0xbc3e756d	-0.011624676
20	0xbd015a2c	-0.031580135
21	0xbc820c9b	-0.015875151
22	0xbce7dd14	-0.02830366
23	0x3b3cb514	0.0028794454
24	0x3c5e32fb	0.013561959
25	0x3baa3dbd	0.005195348
26	0x3cc6c37a	0.024263132
27	0x3d0ca3aa	0.03433577
28	0xbae7831d	-0.0017662976
29	0x3c5b51e0	0.01338622
30	0x3bf0c5be	0.0073477915
31	0xbc9928fb	-0.018696299
32	0xbcadcd98	-0.021216199
33	0xbcc62fa5	-0.02419264

network.0.conv1.weight_v f4 [34, 292, 3]
0	0x3cf1a0b8	0.029495582
1	0x3a32448d	0.0006800376
2	0xbc00605f	-0.007835477
3	0x3cdb9b19	0.026807355
4	0xbbc56bfb	-0.006024835
5	0x3c887132	0.016655538
6	0xbd0726dc	-0.032996044
7	0x3cb56912	0.022144828
8	0x3c685203	0.014179709
9	0x3c1c88dd	0.009554115
10	0xbc8c2fa8	-0.017112568
11	0xbc7e5f6b	-0.015525679
12	0x3cbcd484	0.023050554
13	0x3c8b0a28	0.016972616
14	0x3caa21a3	0.020767992
15	0xbc63c44d	-0.013901782
16	0xbc0a4e25	-0.008441483
17	0xbd0f1d02	-0.034939773
18	0xbc53ee29	-0.0129352
19	0xbcbec7cb	-0.023288628
20	0xbc39b1df	-0.011333912
21	0x3cb0ccde	0.021582063
22	0x3c99f439	0.018793212
23	0x3ca9d358	0.02073066
24	0x3b843bb2	0.0040354365
25	0x3b029471	0.0019924904
26	0x3b5da050	0.0033817478
27	0xbcfa677a	-0.03056692
28	0xbce9c5e3	-0.028536743
29	0x3b7b383c	0.003833308
30	0x3c6a329d	0.014294294
31	0xbc881336	-0.016610723
32	0x3ccb600d	0.024826074
33	0xbc318760	-0.010835499
34	0xbce9c5fd	-0.028536791
35	0xbccd549d	-0.02506476
36	0x3c190d3c	0.009341534
37	0xbcf8d718	-0.030376002
38	0xbcc30d86	-0.02381016
39	0x3c8d5a1f	0.017254887
40	0xbc2c2660	-0.010507196
41	0x3ccd7761	0.025081338
42	0xbcd7e0f1	-0.026352378
43	0xbcee8c09	-0.029119508
44	0xbd005bd0	-0.03133756
45	0x3d39783e	0.045280688
46	0x3d552f08	0.052046806
47	0x3d544cb2	0.051830955
48	0x3d0658b6	0.032799445
49	0xbb366f96	-0.0027837506
50	0xbc586970	-0.013208732
51	0xbc8e67e4	-0.017383523
52	0xbc642a5f	-0.013926118
53	0xbc5ea152	-0.013588266
54	0xbcd12a63	-0.025532907
55	0xbc952dd5	-0.018210331
56	0x3c0be06a	0.008537391
57	0x3d0e2e87	0.03471234
58	0xbc6749bc	-0.014116701
59	0x3cc8dcaa	0.024519283
60	0xbceab7f7	-0.028652174
61	0x3cbe1137	0.023201568
62	0x3c9aa07e	0.018875357
63	0x3c360119	0.01110866
64	0xbb3a021e	-0.002838261
65	0xbc56131c	-0.0130660795
66	0xbd0ce27b	-0.034395676
67	0x3cf73aba	0.03017937
68	0x3c777b3d	0.015105066
69	0xbcf51692	-0.029917989
70	0x3c91dda3	0.01780588
71	0xbd218e30	-0.03944224
72	0xbbfabc7c	-0.0076518636
73	0x3c34474a	0.011003325
74	0x3c86a6a2	0.016436879
75	0x3afa7f8a	0.0019111496
76	0xbc05de55	-0.008170684
77	0x399cc25f	0.00029899456
78	0xbc92def1	-0.017928572
79	0xbc92fa5d	-0.017941648
80	0xbbb51125	-0.0055257254
81	0xbced391b	-0.028957894
82	0x3cf61247	0.030038012
83	0x3c970c7a	0.018438566
84	0xba9bbf39	-0.001188255
85	0x3af61785	0.001877532
86	0xbca45bb8	-0.020063266
87	0x3c9c0155	0.019043604
88	0x3c657e54	0.01400717
89	0xbcd7c7dc	-0.026340418
90	0x3a541c62	0.00080913876
91	0x3cddc943	0.027073508
92	0xbc50ad18	-0.012736581
93	0x3d1f8d33	0.038953017
94	0xbc747d73	-0.014922488
95	0xbc5e0602	-0.013551237
96	0xbbf0760b	-0.0073382906
97	0x39ac7fe0	0.0003290167
98	0x3cba00e2	0.0227055
99	0xbc036841	-0.008020462
100	0x3bb6791d	0.005568637
101	0x3c1704af	0.009217425
102	0x3d091d04	0.033474937
103	0x3cfc4c8a	0.030798215
104	0x3c6779fe	0.014128206
105	0xbd0a1f68	-0.033721358
106	0x3cc62bb4	0.024190761
107	0x3cd6de3c	0.026229016
108	0x3a9a5f5a	0.0011777685
109	0x3b3ad397	0.0028507465
110	0xbb522166	-0.0032063364
111	0xbcc7a927	-0.02437265
112	0xbbc4eadc	-0.0060094427
113	0x3c4a8127	0.012359894
114	0xbc62cd96	-0.013842961
115	0x3ac931ff	0.0015349983
116	0x3c658055	0.0140076475
117	0x3c99db54	0.018781342
118	0xbc059e4a	-0.008155415
119	0x373ba7b7	1.1185118e-05
120	0x3c90d4a6	0.017679524
121	0xbcbd815d	-0.023132974
122	0x3ca8b01c	0.020591788
123	0x3c3b885c	0.011446085
124	0x3c84c1d2	0.016205702
125	0xbce9290b	-0.028461954
126	0x3c7ed1a8	0.015552916
127	0x3ca8539d	0.020547682
128	0x3cca819c	0.024720006
129	0x3ce7a0ca	0.028274912
130	0x3d196f95	0.03745993
131	0xbcd1f048	-0.02562727
132	0x3cc0ad0d	0.023520017
133	0x3c7ce3f0	0.015435204
134	0x3d0ccc24	0.03437437
135	0x3b104b24	0.0022017444
136	0x3cde135a	0.027108837
137	0xbc0a7757	-0.008451304
138	0x3c1a3421	0.009411843
139	0xbce64516	-0.028109115
140	0xbba599a7	-0.005053717
141	0x3ccd6be7	0.025075866
142	0xbba19d81	-0.004932106
143	0xbcea6638	-0.028613195
144	0x3c89c970	0.016819686
145	0x3b14606c	0.002264048
146	0x3cee8cda	0.029119898
147	0xbcafaa04	-0.021443374
148	0xbaebcd0e	-0.0017990188
149	0x3b573c2e	0.0032842266
150	0x3bc87131	0.006117009
151	0x3cecaadc	0.028890066
152	0xbcd7a11c	-0.02632194
153	0x3c73db65	0.014883851
154	0xbc61c962	-0.013780924
155	0xbcc272f5	-0.023736456
156	0x3c5e4fc8	0.013568826
157	0x3c57a88d	0.013162744
158	0xbbd2b367	-0.006430078
159	0xbcb94448	-0.022615567
160	0x3ca977b8	0.02068697
161	0x3bf5c33b	0.00750008
162	0x3bc3b473	0.005972439
163	0xbc189f6c	-0.009315353
164	0xbcbd8e21	-0.023139061
165	0x382f05f3	4.1728792e-05
166	0x3c200401	0.00976658
167	0xbcf937c0	-0.030422091
168	0xbc5ec5b8	-0.0135969445
169	0xbb68ef34	-0.0035542967
170	0x3cc74367	0.024324132
171	0x3cc1807e	0.02362084
172	0x3ce8d677	0.028422577
173	0xbc1fa051	-0.009742812
174	0x3c4e247a	0.012581939
175	0xbcf244d0	-0.029573828
176	0x3cb8ab5f	0.022542654
177	0x3cc51658	0.024058506
178	0xbcb1fcf5	-0.021727065
179	0xbd0af18c	-0.033921763
180	0xbbf3e14f	-0.0074426304
181	0x3c802fef	0.015647857
182	0xbc378765	-0.011201714
183	0xbc966ce1	-0.018362464
184	0x3cd77bf1	0.026304217
185	0x3c817370	0.015802115
186	0xbc8390d2	-0.016060267
187	0x3cf30c66	0.029668998
188	0x3c2f0787	0.010682947
189	0xbc280609	-0.010255345
190	0x3ca3e4b9	0.020006524
191	0x3caa7469	0.020807462
192	0xbc41805c	-0.011810388
193	0x3c9f1fac	0.019424282
194	0xbcb932b2	-0.022607181
195	0x3c0334b4	0.008008171
196	0x3c51c3be	0.012803016
197	0xba84fe30	-0.0010146555
198	0x3c624201	0.013809682
199	0x3bda2bbf	0.006658047
200	0xbcbce352	-0.023057614
201	0x3cbe4fe7	0.02323146
202	0x3cdf1834	0.02723322
203	0xbc92251b	-0.017839959
204	0x3cec2ab0	0.028828949
205	0xbd0d4f13	-0.03449924
206	0xbc61a33c	-0.013771828
207	0xbd15277c	-0.03641461
208	0x3ce61f82	0.028091196
209	0xbc9fc390	-0.019502431
210	0xbc1633ac	-0.009167593
211	0xbcf6885b	-0.030094316
212	0x3c949c47	0.018140925
213	0x3cf1461b	0.029452374
214	0xbce7973c	-0.028270356
215	0x3c5560c7	0.013023562
216	0xba46fc8e	-0.0007590734
217	0x3b98b862	0.004660652
218	0x3c5704f5	0.01312374
219	0x3bb5970c	0.005541688
220	0xbd02c36b	-0.031924646
221	0xbc1ed9e6	-0.009695506
222	0x3c73017e	0.014831899
223	0x3c60a300	0.013710737
224	0xbcf14885	-0.029453525
225	0xbcddb225	-0.027062485
226	0x3c873384	0.016504057
227	0xbc80fa15	-0.015744248
228	0x3c65015c	0.013977375
229	0xbcccdd08	-0.02500774
230	0xbc795d18	-0.015219949
231	0x3a73498e	0.0009280675
232	0xbc7e3e69	-0.015517809
233	0xbc2ab338	-0.010418706
234	0x3c185edc	0.00929996
235	0xbca20918	-0.019779727
236	0xbcb45798	-0.022014424
237	0x3cbdc147	0.02316345
238	0x3ca2c5c5	0.019869694
239	0xbcfd616b	-0.030930242
240	0x3b5a12d3	0.003327538
241	0x3c0e4480	0.008683324
242	0xbca1dcf0	-0.019758672
243	0xbc1d5824	-0.009603534
244	0x3be73bd6	0.0070566935
245	0xbcd3321b	-0.025780728
246	0x3c8ab5d7	0.016932411
247	0xbb879c9d	-0.004138543
248	0x3c92dc7e	0.017927404
249	0x3ce96c3f	0.028493999
250	0xbd138193	-0.036012243
251	0x3cd65639	0.026164161
252	0xbb0203be	-0.0019838656
253	0xbbd9fd44	-0.006652506
254	0xbcd60c82	-0.026129011
255	0x3ce48c4a	0.027898926

network.0.conv2.bias f4 [34]
0	0xbc7792a5	-0.015110646
1	0x3c3e12ab	0.0116011305
2	0x3d935f3d	0.071959
3	0xbdb53367	-0.08847695
4	0x3bb6d67e	0.0055797687
5	0xbd03220f	-0.032014903
6	0xbd95908d	-0.073029615
7	0xbd3b5403	-0.045734417
8	0xbcd8291f	-0.026386796
9	0xbca2486c	-0.019809924
10	0xbababc92	-0.0014246872
11	0x389e1c19	7.539261e-05
12	0xbb0eb5b0	-0.0021775775
13	0x3ca2f98d	0.019894386
14	0x3d97273d	0.07380531
15	0x3b4e3c55	0.0031469066
16	0x3d4ec7fc	0.05048369
17	0x3da39021	0.07986475
18	0x3d9fb7d0	0.07798731
19	0x3d540e80	0.05177164
20	0x3ccb24d0	0.024797827
21	0xbdc45d41	-0.09588099
22	0x3dc45c76	0.09587948
23	0xbd52f1e3	-0.051500212
24	0x3d443a7e	0.047907345
25	0x3d36d41f	0.04463589
26	0xbd336e36	-0.043806277
27	0x3d03a0cb	0.032135766
28	0x3bcf2752	0.006321826
29	0x3cd3f208	0.025872245
30	0x3db9e994	0.090777546
31	0xbd5f30ab	-0.054489773
32	0x3d86f0c8	0.06588894
33	0xbda2da70	-0.0795182

network.0.conv2.weight_v f4 [34, 34, 3]
0	0x3db2ebfb	0.08736416
1	0x3bb043b8	0.0053791665
2	0xbdc364a5	-0.09540681
3	0x3dc3009d	0.09521601
4	0x3d93c149	0.072146006
5	0xbdcc9c6e	-0.09990774
6	0xbda72742	-0.08161785
7	0x3d3181f7	0.043336835
8	0xbd944525	-0.07239751
9	0x3d361d99	0.04446182
10	0xbd6486ea	-0.055792727
11	0x3ba309ac	0.004975518
12	0x3d6a036d	0.057132173
13	0x3d46a158	0.048493713
14	0xbd84953f	-0.06473779
15	0x3dba7e43	0.09106114
16	0x3cccbce8	0.024992421
17	0x3d9ea1a9	0.07745678
18	0x3cb7bad9	0.022427963
19	0x3db67502	0.08909036
20	0xbd8efab0	-0.069814086
21	0xbcf1a38b	-0.029496929
22	0x3d76162c	0.06007974
23	0xbdb315fd	-0.08744428
24	0xbd511c4a	-0.05105237
25	0x3c38cfd7	0.011280022
26	0x3d222f41	0.039595846
27	0x3db699c6	0.08916049
28	0x3dbd9e7c	0.09258744
29	0x3cecfe9c	0.028930001
30	0xbd8b1f38	-0.06793064
31	0xbdabee18	-0.08395022
32	0x3d2fab2c	0.04288785
33	0xbdb822fc	-0.08991048
34	0x3d386d0d	0.045025874
35	0x3ca14300	0.019685268
36	0xbd675a4b	-0.056482594
37	0xbd764764	-0.060126677
38	0x3bce563e	0.006296902
39	0xbcb432fb	-0.021996966
40	0xbd77b3bb	-0.06047414
41	0xbdaa2c54	-0.08309236
42	0xbd8c4b2c	-0.068502754
43	0x3d708c13	0.058727335
44	0xbb5438e8	-0.0032382552
45	0xbda2268f	-0.07917511
46	0x3d38524e	0.045000367
47	0xbd8d0240	-0.06885195
48	0xbb13072a	-0.002243469
49	0xbd234044	-0.03985621
50	0x3cd7472a	0.02627905
51	0x3d71aa90	0.05900055
52	0x3dc677b1	0.09690798
53	0xbc871ad9	-0.016492294
54	0x3db8c1d9	0.090213485
55	0x3c6a7dc3	0.0143122105
56	0x3dad230b	0.084539495
57	0xbcbd7350	-0.023126274
58	0x3d995cbb	0.0748839
59	0x3ad866d0	0.0016510133
60	0xbdb42b75	-0.08797351
61	0x3db1e81c	0.086868495
62	0x3dc4fbef	0.09618365
63	0x3d0c4a30	0.03425044
64	0x3d2eada5	0.04264607
65	0xbdc10bff	-0.09426116
66	0x3d9ef532	0.07761611
67	0x3d9f4fb2	0.077788725
68	0xbcf59711	-0.02997926
69	0x3db93025	0.09042386
70	0xbd990e48	-0.07473427
71	0x3cf6a83f	0.030109523
72	0xbdbfa312	-0.09357275
73	0xbc95ce14	-0.018286742
74	0x3ccd00c8	0.025024787
75	0x3d3c5ea3	0.04598869
76	0x3da54cda	0.08071299
77	0x3cf907af	0.030399172
78	0x3d0d5e14	0.034513548
79	0xbd5a9f99	-0.05337486
80	0xbd971516	-0.07377069
81	0xbcd338dd	-0.02578395
82	0xbd660d11	-0.056164805
83	0x3cad9f10	0.021194011
84	0xbdceb54a	-0.10093172
85	0x3c3cadcd	0.011516047
86	0xbd308cb9	-0.043102954
87	0x3cb9cbff	0.02268028
88	0xbdbbe1b2	-0.09173907
89	0x3cbe0c2f	0.023199169
90	0xbd4e3fae	-0.0503537
91	0x3d83d9dd	0.064380385
92	0x3caa828e	0.020814206
93	0xbd229557	-0.039693203
94	0xbd9f004a	-0.07763727
95	0xbcf4c5ae	-0.029879417
96	0xbd6957df	-0.056968566
97	0xbc9d02ca	-0.019166369
98	0xbdae1d0a	-0.085016325
99	0xbc395cdf	-0.011313646
100	0xbd1d91ea	-0.038469233
101	0xbb84113d	-0.0040303753
102	0xbdb306b9	-0.087415166
103	0x3d982bae	0.07430206
104	0xbdb03985	-0.08604721
105	0x3d1dafd5	0.038497765
106	0xbd2a6733	-0.041602325
107	0x3d60f93f	0.0549252
108	0xbd74ff16	-0.05981358
109	0x3d05404b	0.032532018
110	0xbc14efe0	-0.009090394
111	0xbcc76bc8	-0.024343386
112	0x3da26a07	0.07930379
113	0x3d0ad8ca	0.033898152
114	0x3d7dccdf	0.06196296
115	0x3d157fab	0.036498707
116	0x3b8e3eec	0.004340997
117	0x3dc1ef4a	0.09469469
118	0xbd8306ea	-0.06397803
119	0x3dc16b67	0.094443135
120	0x3d35d9d2	0.044397183
121	0xbd7bcf40	-0.061476946
122	0xbdcabeff	-0.09899711
123	0xbd27362e	-0.040823154
124	0xbab6e004	-0.001395226
125	0x3bcf1e66	0.0063207624
126	0xbd291650	-0.041281044
127	0x3db419b0	0.08793962
128	0x3d946033	0.07244911
129	0xbc949efc	-0.018142216
130	0xbd90075f	-0.07032656
131	0x3b260e7f	0.002533823
132	0xbd71d17d	-0.059037674
133	0x3da90245	0.08252386
134	0xbda7f808	-0.08201605
135	0x3d421bd1	0.04738981
136	0x3d4f8e88	0.050673038
137	0x3d16453e	0.03668713
138	0x3dce8b69	0.10085184
139	0xbdbab8f2	-0.09117307
140	0x3d83d8ab	0.064378105
141	0x3d3600c6	0.04443433
142	0x39338d86	0.00017123492
143	0x3da62a43	0.081135295
144	0x3c6acc4d	0.014330936
145	0x3d76818b	0.060182136
146	0xbda6051d	-0.08106444
147	0x3b393c9a	0.002826488
148	0xbdcd57c1	-0.10026503
149	0x3d1f78f4	0.03893371
150	0xbdac510a	-0.084138945
151	0x3da1f871	0.079087146
152	0xbd907762	-0.070540205
153	0xbdb0f936	-0.08641283
154	0x3c95a065	0.018264959
155	0x3db6a571	0.08918274
156	0xbd5748ec	-0.052559778
157	0x3db7f348	0.08981949
158	0xbd415823	-0.047203194
159	0xbd3c2b62	-0.04593981
160	0x3d0e1775	0.03469034
161	0x3d22f00f	0.03977972
162	0xbd51a0da	-0.05117879
163	0x3da1dcc3	0.07903435
164	0x3d09134f	0.03346568
165	0xbc19cf1f	-0.00938776
166	0xbd3adb3b	-0.04561923
167	0xbd351ef1	-0.04421896
168	0xbdb9ec9d	-0.090783335
169	0x3cb79974	0.02241204
170	0x3cb7a12f	0.022415726
171	0xbc1d2a95	-0.009592672
172	0x3d2b0c90	0.041760027
173	0x3d74eb70	0.059794843
174	0xbdaffee5	-0.08593539
175	0xbcc4789a	-0.023983289
176	0x3d610529	0.05493656
177	0x3daec395	0.08533398
178	0xbb93a21f	-0.0045054103
179	0x3be000f8	0.006836053
180	0x3da591dc	0.08084461
181	0x3dcded2a	0.10055001
182	0xbd2481e2	-0.04016293
183	0xbd3ad437	-0.04561254
184	0x3d89e432	0.06732978
185	0x3d6f8eb1	0.05848569
186	0x3da4473b	0.08021399
187	0x3d14fe97	0.03637561
188	0x3db199a1	0.086718805
189	0x3d287a59	0.041132305
190	0x3d2f7974	0.042840436
191	0x3d1e0279	0.038576577
192	0x3d9afd63	0.07567861
193	0xbdafab62	-0.085776106
194	0xbdb8a939	-0.09016652
195	0x3c3c1cf8	0.011481516
196	0xbc86c1da	-0.016449858
197	0x3d9a7d2b	0.07543405
198	0x3c503bb4	0.012709547
199	0x3d388eab	0.045057934
200	0x3d27f5f9	0.041006062
201	0x3dc16249	0.094425745
202	0x3d970138	0.07373279
203	0x3d1ff770	0.039054334
204	0xbd24445f	-0.040104266
205	0xbd83a556	-0.0642802
206	0x3dc2c0ec	0.09509453
207	0x3dc8f3e2	0.09812142
208	0xbdbcc8fd	-0.09218023
209	0x3c328050	0.01089485
210	0x3d941c87	0.07232004
211	0xbc8702b9	-0.01648079
212	0xbda2a2b6	-0.07941191
213	0x3d266a8c	0.040628955
214	0x3d8c8c2d	0.06862674
215	0x3dcb3c5e	0.099236235
216	0xbc0ec454	-0.0087138
217	0xbd189e2a	-0.037260212
218	0x3d2d62ec	0.042330667
219	0x3d9f7759	0.07786436
220	0xbd1d3e30	-0.038389385
221	0x3da6645b	0.0812461
222	0x3c8cf35a	0.017205883
223	0x3ce189d1	0.027531536
224	0xbcb53e99	-0.022124575
225	0x3baf2a19	0.0053455946
226	0xbd060eed	-0.032729078
227	0xbd9da723	-0.076978944
228	0x3dca5671	0.09879769
229	0x3d3a6349	0.045504842
230	0xbd1c761c	-0.038198575
231	0x3c89aa54	0.016804852
232	0x3d888e85	0.066678084
233	0xbd91fd97	-0.071284465
234	0x3d841a0b	0.0645028
235	0xbdc12309	-0.094305106
236	0x3cc50454	0.024049915
237	0xbd114404	-0.035465255
238	0x3d835a53	0.06413712
239	0x3d91b22d	0.071140625
240	0xbda3c189	-0.07995898
241	0xbc71b814	-0.01475336
242	0x3da0b0ae	0.07846199
243	0x3daf47d2	0.085586205
244	0x3d12b74b	0.035819333
245	0x3d2ab622	0.0416776
246	0xbc9f01e0	-0.019410074
247	0xbcd2e932	-0.025745962
248	0x3d93667b	0.07197281
249	0x3d96f8c6	0.073716685
250	0x3d6c6aa9	0.057718907
251	0x3cd2e6d1	0.025744827
252	0xbd3a89c1	-0.04554153
253	0x3c95a592	0.018267427
254	0xbccbd50f	-0.024881868
255	0xbda749d5	-0.08168379

network.0.net.0.bias f4 [34]
0	0x3c97c827	0.018528057
1	0xbb138ddc	-0.0022514975
2	0xbc8c8cfe	-0.017157074
3	0x3c2904c1	0.010316075
4	0x3bcceda3	0.0062539144
5	0xbc23832c	-0.009980004
6	0xbc520381	-0.012818218
7	0x3ca797b4	0.02045808
8	0x3cdb0ded	0.026740039
9	0x3c654df6	0.013995638
10	0xbcc6f2a7	-0.024285628
11	0xbcf8a9ec	-0.030354463
12	0x3b4666b6	0.0030273623
13	0x3c9edf85	0.019393692
14	0xbcf869ab	-0.030323824
15	0xb9e19e81	-0.0004303344
16	0xbc96a8d4	-0.01839105
17	0x3c24ddc4	0.010062639
18	0xbbf9a4a1	-0.0076185022
19	0xbc3e756d	-0.011624676
20	0xbd015a2c	-0.031580135
21	0xbc820c9b	-0.015875151
22	0xbce7dd14	-0.02830366
23	0x3b3cb514	0.0028794454
24	0x3c5e32fb	0.013561959
25	0x3baa3dbd	0.005195348
26	0x3cc6c37a	0.024263132
27	0x3d0ca3aa	0.03433577
28	0xbae7831d	-0.0017662976
29	0x3c5b51e0	0.01338622
30	0x3bf0c5be	0.0073477915
31	0xbc9928fb	-0.018696299
32	0xbcadcd98	-0.021216199
33	0xbcc62fa5	-0.02419264

network.0.net.0.weight_v f4 [34, 292, 3]
0	0x3cf1a0b8	0.029495582
1	0x3a32448d	0.0006800376
2	0xbc00605f	-0.007835477
3	0x3cdb9b19	0.026807355
4	0xbbc56bfb	-0.006024835
5	0x3c887132	0.016655538
6	0xbd0726dc	-0.032996044
7	0x3cb56912	0.022144828
8	0x3c685203	0.014179709
9	0x3c1c88dd	0.009554115
10	0xbc8c2fa8	-0.017112568
11	0xbc7e5f6b	-0.015525679
12	0x3cbcd484	0.023050554
13	0x3c8b0a28	0.016972616
14	0x3caa21a3	0.020767992
15	0xbc63c44d	-0.013901782
16	0xbc0a4e25	-0.008441483
17	0xbd0f1d02	-0.034939773
18	0xbc53ee29	-0.0129352
19	0xbcbec7cb	-0.023288628
20	0xbc39b1df	-0.011333912
21	0x3cb0ccde	0.021582063
22	0x3c99f439	0.018793212
23	0x3ca9d358	0.02073066
24	0x3b843bb2	0.0040354365
25	0x3b029471	0.0019924904
26	0x3b5da050	0.0033817478
27	0xbcfa677a	-0.03056692
28	0xbce9c5e3	-0.028536743
29	0x3b7b383c	0.003833308
30	0x3c6a329d	0.014294294
31	0xbc881336	-0.016610723
32	0x3ccb600d	0.024826074
33	0xbc318760	-0.010835499
34	0xbce9c5fd	-0.028536791
35	0xbccd549d	-0.02506476
36	0x3c190d3c	0.009341534
37	0xbcf8d718	-0.030376002
38	0xbcc30d86	-0.02381016
39	0x3c8d5a1f	0.017254887
40	0xbc2c2660	-0.010507196
41	0x3ccd7761	0.025081338
42	0xbcd7e0f1	-0.026352378
43	0xbcee8c09	-0.029119508
44	0xbd005bd0	-0.03133756
45	0x3d39783e	0.045280688
46	0x3d552f08	0.052046806
47	0x3d544cb2	0.051830955
48	0x3d0658b6	0.032799445
49	0xbb366f96	-0.0027837506
50	0xbc586970	-0.013208732
51	0xbc8e67e4	-0.017383523
52	0xbc642a5f	-0.013926118
53	0xbc5ea152	-0.013588266
54	0xbcd12a63	-0.025532907
55	0xbc952dd5	-0.018210331
56	0x3c0be06a	0.008537391
57	0x3d0e2e87	0.03471234
58	0xbc6749bc	-0.014116701
59	0x3cc8dcaa	0.024519283
60	0xbceab7f7	-0.028652174
61	0x3cbe1137	0.023201568
62	0x3c9aa07e	0.018875357
63	0x3c360119	0.01110866
64	0xbb3a021e	-0.002838261
65	0xbc56131c	-0.0130660795
66	0xbd0ce27b	-0.034395676
67	0x3cf73aba	0.03017937
68	0x3c777b3d	0.015105066
69	0xbcf51692	-0.029917989
70	0x3c91dda3	0.01780588
71	0xbd218e30	-0.03944224
72	0xbbfabc7c	-0.0076518636
73	0x3c34474a	0.011003325
74	0x3c86a6a2	0.016436879
75	0x3afa7f8a	0.0019111496
76	0xbc05de55	-0.008170684
77	0x399cc25f	0.00029899456
78	0xbc92def1	-0.017928572
79	0xbc92fa5d	-0.017941648
80	0xbbb51125	-0.0055257254
81	0xbced391b	-0.028957894
82	0x3cf61247	0.030038012
83	0x3c970c7a	0.018438566
84	0xba9bbf39	-0.001188255
85	0x3af61785	0.001877532
86	0xbca45bb8	-0.020063266
87	0x3c9c0155	0.019043604
88	0x3c657e54	0.01400717
89	0xbcd7c7dc	-0.026340418
90	0x3a541c62	0.00080913876
91	0x3cddc943	0.027073508
92	0xbc50ad18	-0.012736581
93	0x3d1f8d33	0.038953017
94	0xbc747d73	-0.014922488
95	0xbc5e0602	-0.013551237
96	0xbbf0760b	-0.0073382906
97	0x39ac7fe0	0.0003290167
98	0x3cba00e2	0.0227055
99	0xbc036841	-0.008020462
100	0x3bb6791d	0.005568637
101	0x3c1704af	0.009217425
102	0x3d091d04	0.033474937
103	0x3cfc4c8a	0.030798215
104	0x3c6779fe	0.014128206
105	0xbd0a1f68	-0.033721358
106	0x3cc62bb4	0.024190761
107	0x3cd6de3c	0.026229016
108	0x3a9a5f5a	0.0011777685
109	0x3b3ad397	0.0028507465
110	0xbb522166	-0.0032063364
111	0xbcc7a927	-0.02437265
112	0xbbc4eadc	-0.0060094427
113	0x3c4a8127	0.012359894
114	0xbc62cd96	-0.013842961
115	0x3ac931ff	0.0015349983
116	0x3c658055	0.0140076475
117	0x3c99db54	0.018781342
118	0xbc059e4a	-0.008155415
119	0x373ba7b7	1.1185118e-05
120	0x3c90d4a6	0.017679524
121	0xbcbd815d	-0.023132974
122	0x3ca8b01c	0.020591788
123	0x3c3b885c	0.011446085
124	0x3c84c1d2	0.016205702
125	0xbce9290b	-0.028461954
126	0x3c7ed1a8	0.015552916
127	0x3ca8539d	0.020547682
128	0x3cca819c	0.024720006
129	0x3ce7a0ca	0.028274912
130	0x3d196f95	0.03745993
131	0xbcd1f048	-0.02562727
132	0x3cc0ad0d	0.023520017
133	0x3c7ce3f0	0.015435204
134	0x3d0ccc24	0.03437437
135	0x3b104b24	0.0022017444
136	0x3cde135a	0.027108837
137	0xbc0a7757	-0.008451304
138	0x3c1a3421	0.009411843
139	0xbce64516	-0.028109115
140	0xbba599a7	-0.005053717
141	0x3ccd6be7	0.025075866
142	0xbba19d81	-0.004932106
143	0xbcea6638	-0.028613195
144	0x3c89c970	0.016819686
145	0x3b14606c	0.002264048
146	0x3cee8cda	0.029119898
147	0xbcafaa04	-0.021443374
148	0xbaebcd0e	-0.0017990188
149	0x3b573c2e	0.0032842266
150	0x3bc87131	0.006117009
151	0x3cecaadc	0.028890066
152	0xbcd7a11c	-0.02632194
153	0x3c73db65	0.014883851
154	0xbc61c962	-0.013780924
155	0xbcc272f5	-0.023736456
156	0x3c5e4fc8	0.013568826
157	0x3c57a88d	0.013162744
158	0xbbd2b367	-0.006430078
159	0xbcb94448	-0.022615567
160	0x3ca977b8	0.02068697
161	0x3bf5c33b	0.00750008
162	0x3bc3b473	0.005972439
163	0xbc189f6c	-0.009315353
164	0xbcbd8e21	-0.023139061
165	0x382f05f3	4.1728792e-05
166	0x3c200401	0.00976658
167	0xbcf937c0	-0.030422091
168	0xbc5ec5b8	-0.0135969445
169	0xbb68ef34	-0.0035542967
170	0x3cc74367	0.024324132
171	0x3cc1807e	0.02362084
172	0x3ce8d677	0.028422577
173	0xbc1fa051	-0.009742812
174	0x3c4e247a	0.012581939
175	0xbcf244d0	-0.029573828
176	0x3cb8ab5f	0.022542654
177	0x3cc51658	0.024058506
178	0xbcb1fcf5	-0.021727065
179	0xbd0af18c	-0.033921763
180	0xbbf3e14f	-0.0074426304
181	0x3c802fef	0.015647857
182	0xbc378765	-0.011201714
183	0xbc966ce1	-0.018362464
184	0x3cd77bf1	0.026304217
185	0x3c817370	0.015802115
186	0xbc8390d2	-0.016060267
187	0x3cf30c66	0.029668998
188	0x3c2f0787	0.010682947
189	0xbc280609	-0.010255345
190	0x3ca3e4b9	0.020006524
191	0x3caa7469	0.020807462
192	0xbc41805c	-0.011810388
193	0x3c9f1fac	0.019424282
194	0xbcb932b2	-0.022607181
195	0x3c0334b4	0.008008171
196	0x3c51c3be	0.012803016
197	0xba84fe30	-0.0010146555
198	0x3c624201	0.013809682
199	0x3bda2bbf	0.006658047
200	0xbcbce352	-0.023057614
201	0x3cbe4fe7	0.02323146
202	0x3cdf1834	0.02723322
203	0xbc92251b	-0.017839959
204	0x3cec2ab0	0.028828949
205	0xbd0d4f13	-0.03449924
206	0xbc61a33c	-0.013771828
207	0xbd15277c	-0.03641461
208	0x3ce61f82	0.028091196
209	0xbc9fc390	-0.019502431
210	0xbc1633ac	-0.009167593
211	0xbcf6885b	-0.030094316
212	0x3c949c47	0.018140925
213	0x3cf1461b	0.029452374
214	0xbce7973c	-0.028270356
215	0x3c5560c7	0.013023562
216	0xba46fc8e	-0.0007590734
217	0x3b98b862	0.004660652
218	0x3c5704f5	0.01312374
219	0x3bb5970c	0.005541688
220	0xbd02c36b	-0.031924646
221	0xbc1ed9e6	-0.009695506
222	0x3c73017e	0.014831899
223	0x3c60a300	0.013710737
224	0xbcf14885	-0.029453525
225	0xbcddb225	-0.027062485
226	0x3c873384	0.016504057
227	0xbc80fa15	-0.015744248
228	0x3c65015c	0.013977375
229	0xbcccdd08	-0.02500774
230	0xbc795d18	-0.015219949
231	0x3a73498e	0.0009280675
232	0xbc7e3e69	-0.015517809
233	0xbc2ab338	-0.010418706
234	0x3c185edc	0.00929996
235	0xbca20918	-0.019779727
236	0xbcb45798	-0.022014424
237	0x3cbdc147	0.02316345
238	0x3ca2c5c5	0.019869694
239	0xbcfd616b	-0.030930242
240	0x3b5a12d3	0.003327538
241	0x3c0e4480	0.008683324
242	0xbca1dcf0	-0.019758672
243	0xbc1d5824	-0.009603534
244	0x3be73bd6	0.0070566935
245	0xbcd3321b	-0.025780728
246	0x3c8ab5d7	0.016932411
247	0xbb879c9d	-0.004138543
248	0x3c92dc7e	0.017927404
249	0x3ce96c3f	0.028493999
250	0xbd138193	-0.036012243
251	0x3cd65639	0.026164161
252	0xbb0203be	-0.0019838656
253	0xbbd9fd44	-0.006652506
254	0xbcd60c82	-0.026129011
255	0x3ce48c4a	0.027898926

network.0.net.4.bias f4 [34]
0	0xbc7792a5	-0.015110646
1	0x3c3e12ab	0.0116011305
2	0x3d935f3d	0.071959
3	0xbdb53367	-0.08847695
4	0x3bb6d67e	0.0055797687
5	0xbd03220f	-0.032014903
6	0xbd95908d	-0.073029615
7	0xbd3b5403	-0.045734417
8	0xbcd8291f	-0.026386796
9	0xbca2486c	-0.019809924
10	0xbababc92	-0.0014246872
11	0x389e1c19	7.539261e-05
12	0xbb0eb5b0	-0.0021775775
13	0x3ca2f98d	0.019894386
14	0x3d97273d	0.07380531
15	0x3b4e3c55	0.0031469066
16	0x3d4ec7fc	0.05048369
17	0x3da39021	0.07986475
18	0x3d9fb7d0	0.07798731
19	0x3d540e80	0.05177164
20	0x3ccb24d0	0.024797827
21	0xbdc45d41	-0.09588099
22	0x3dc45c76	0.09587948
23	0xbd52f1e3	-0.051500212
24	0x3d443a7e	0.047907345
25	0x3d36d41f	0.04463589
26	0xbd336e36	-0.043806277
27	0x3d03a0cb	0.032135766
28	0x3bcf2752	0.006321826
29	0x3cd3f208	0.025872245
30	0x3db9e994	0.090777546
31	0xbd5f30ab	-0.054489773
32	0x3d86f0c8	0.06588894
33	0xbda2da70	-0.0795182

network.0.net.4.weight_v f4 [34, 34, 3]
0	0x3db2ebfb	0.08736416
1	0x3bb043b8	0.0053791665
2	0xbdc364a5	-0.09540681
3	0x3dc3009d	0.09521601
4	0x3d93c149	0.072146006
5	0xbdcc9c6e	-0.09990774
6	0xbda72742	-0.08161785
7	0x3d3181f7	0.043336835
8	0xbd944525	-0.07239751
9	0x3d361d99	0.04446182
10	0xbd6486ea	-0.055792727
11	0x3ba309ac	0.004975518
12	0x3d6a036d	0.057132173
13	0x3d46a158	0.048493713
14	0xbd84953f	-0.06473779
15	0x3dba7e43	0.09106114
16	0x3cccbce8	0.024992421
17	0x3d9ea1a9	0.07745678
18	0x3cb7bad9	0.022427963
19	0x3db67502	0.08909036
20	0xbd8efab0	-0.069814086
21	0xbcf1a38b	-0.029496929
22	0x3d76162c	0.06007974
23	0xbdb315fd	-0.08744428
24	0xbd511c4a	-0.05105237
25	0x3c38cfd7	0.011280022
26	0x3d222f41	0.039595846
27	0x3db699c6	0.08916049
28	0x3dbd9e7c	0.09258744
29	0x3cecfe9c	0.028930001
30	0xbd8b1f38	-0.06793064
31	0xbdabee18	-0.08395022
32	0x3d2fab2c	0.04288785
33	0xbdb822fc	-0.08991048
34	0x3d386d0d	0.045025874
35	0x3ca14300	0.019685268
36	0xbd675a4b	-0.056482594
37	0xbd764764	-0.060126677
38	0x3bce563e	0.006296902
39	0xbcb432fb	-0.021996966
40	0xbd77b3bb	-0.06047414
41	0xbdaa2c54	-0.08309236
42	0xbd8c4b2c	-0.068502754
43	0x3d708c13	0.058727335
44	0xbb5438e8	-0.0032382552
45	0xbda2268f	-0.07917511
46	0x3d38524e	0.045000367
47	0xbd8d0240	-0.06885195
48	0xbb13072a	-0.002243469
49	0xbd234044	-0.03985621
50	0x3cd7472a	0.02627905
51	0x3d71aa90	0.05900055
52	0x3dc677b1	0.09690798
53	0xbc871ad9	-0.016492294
54	0x3db8c1d9	0.090213485
55	0x3c6a7dc3	0.0143122105
56	0x3dad230b	0.084539495
57	0xbcbd7350	-0.023126274
58	0x3d995cbb	0.0748839
59	0x3ad866d0	0.0016510133
60	0xbdb42b75	-0.08797351
61	0x3db1e81c	0.086868495
62	0x3dc4fbef	0.09618365
63	0x3d0c4a30	0.03425044
64	0x3d2eada5	0.04264607
65	0xbdc10bff	-0.09426116
66	0x3d9ef532	0.07761611
67	0x3d9f4fb2	0.077788725
68	0xbcf59711	-0.02997926
69	0x3db93025	0.09042386
70	0xbd990e48	-0.07473427
71	0x3cf6a83f	0.030109523
72	0xbdbfa312	-0.09357275
73	0xbc95ce14	-0.018286742
74	0x3ccd00c8	0.025024787
75	0x3d3c5ea3	0.04598869
76	0x3da54cda	0.08071299
77	0x3cf907af	0.030399172
78	0x3d0d5e14	0.034513548
79	0xbd5a9f99	-0.05337486
80	0xbd971516	-0.07377069
81	0xbcd338dd	-0.02578395
82	0xbd660d11	-0.056164805
83	0x3cad9f10	0.021194011
84	0xbdceb54a	-0.10093172
85	0x3c3cadcd	0.011516047
86	0xbd308cb9	-0.043102954
87	0x3cb9cbff	0.02268028
88	0xbdbbe1b2	-0.09173907
89	0x3cbe0c2f	0.023199169
90	0xbd4e3fae	-0.0503537
91	0x3d83d9dd	0.064380385
92	0x3caa828e	0.020814206
93	0xbd229557	-0.039693203
94	0xbd9f004a	-0.07763727
95	0xbcf4c5ae	-0.029879417
96	0xbd6957df	-0.056968566
97	0xbc9d02ca	-0.019166369
98	0xbdae1d0a	-0.085016325
99	0xbc395cdf	-0.011313646
100	0xbd1d91ea	-0.038469233
101	0xbb84113d	-0.0040303753
102	0xbdb306b9	-0.087415166
103	0x3d982bae	0.07430206
104	0xbdb03985	-0.08604721
105	0x3d1dafd5	0.038497765
106	0xbd2a6733	-0.041602325
107	0x3d60f93f	0.0549252
108	0xbd74ff16	-0.05981358
109	0x3d05404b	0.032532018
110	0xbc14efe0	-0.009090394
111	0xbcc76bc8	-0.024343386
112	0x3da26a07	0.07930379
113	0x3d0ad8ca	0.033898152
114	0x3d7dccdf	0.06196296
115	0x3d157fab	0.036498707
116	0x3b8e3eec	0.004340997
117	0x3dc1ef4a	0.09469469
118	0xbd8306ea	-0.06397803
119	0x3dc16b67	0.094443135
120	0x3d35d9d2	0.044397183
121	0xbd7bcf40	-0.061476946
122	0xbdcabeff	-0.09899711
123	0xbd27362e	-0.040823154
124	0xbab6e004	-0.001395226
125	0x3bcf1e66	0.0063207624
126	0xbd291650	-0.041281044
127	0x3db419b0	0.08793962
128	0x3d946033	0.07244911
129	0xbc949efc	-0.018142216
130	0xbd90075f	-0.07032656
131	0x3b260e7f	0.002533823
132	0xbd71d17d	-0.059037674
133	0x3da90245	0.08252386
134	0xbda7f808	-0.08201605
135	0x3d421bd1	0.04738981
136	0x3d4f8e88	0.050673038
137	0x3d16453e	0.03668713
138	0x3dce8b69	0.10085184
139	0xbdbab8f2	-0.09117307
140	0x3d83d8ab	0.064378105
141	0x3d3600c6	0.04443433
142	0x39338d86	0.00017123492
143	0x3da62a43	0.081135295
144	0x3c6acc4d	0.014330936
145	0x3d76818b	0.060182136
146	0xbda6051d	-0.08106444
147	0x3b393c9a	0.002826488
148	0xbdcd57c1	-0.10026503
149	0x3d1f78f4	0.03893371
150	0xbdac510a	-0.084138945
151	0x3da1f871	0.079087146
152	0xbd907762	-0.070540205
153	0xbdb0f936	-0.08641283
154	0x3c95a065	0.018264959
155	0x3db6a571	0.08918274
156	0xbd5748ec	-0.052559778
157	0x3db7f348	0.08981949
158	0xbd415823	-0.047203194
159	0xbd3c2b62	-0.04593981
160	0x3d0e1775	0.03469034
161	0x3d22f00f	0.03977972
162	0xbd51a0da	-0.05117879
163	0x3da1dcc3	0.07903435
164	0x3d09134f	0.03346568
165	0xbc19cf1f	-0.00938776
166	0xbd3adb3b	-0.04561923
167	0xbd351ef1	-0.04421896
168	0xbdb9ec9d	-0.090783335
169	0x3cb79974	0.02241204
170	0x3cb7a12f	0.022415726
171	0xbc1d2a95	-0.009592672
172	0x3d2b0c90	0.041760027
173	0x3d74eb70	0.059794843
174	0xbdaffee5	-0.08593539
175	0xbcc4789a	-0.023983289
176	0x3d610529	0.05493656
177	0x3daec395	0.08533398
178	0xbb93a21f	-0.0045054103
179	0x3be000f8	0.006836053
180	0x3da591dc	0.08084461
181	0x3dcded2a	0.10055001
182	0xbd2481e2	-0.04016293
183	0xbd3ad437	-0.04561254
184	0x3d89e432	0.06732978
185	0x3d6f8eb1	0.05848569
186	0x3da4473b	0.08021399
187	0x3d14fe97	0.03637561
188	0x3db199a1	0.086718805
189	0x3d287a59	0.041132305
190	0x3d2f7974	0.042840436
191	0x3d1e0279	0.038576577
192	0x3d9afd63	0.07567861
193	0xbdafab62	-0.085776106
194	0xbdb8a939	-0.09016652
195	0x3c3c1cf8	0.011481516
196	0xbc86c1da	-0.016449858
197	0x3d9a7d2b	0.07543405
198	0x3c503bb4	0.012709547
199	0x3d388eab	0.045057934
200	0x3d27f5f9	0.041006062
201	0x3dc16249	0.094425745
202	0x3d970138	0.07373279
203	0x3d1ff770	0.039054334
204	0xbd24445f	-0.040104266
205	0xbd83a556	-0.0642802
206	0x3dc2c0ec	0.09509453
207	0x3dc8f3e2	0.09812142
208	0xbdbcc8fd	-0.09218023
209	0x3c328050	0.01089485
210	0x3d941c87	0.07232004
211	0xbc8702b9	-0.01648079
212	0xbda2a2b6	-0.07941191
213	0x3d266a8c	0.040628955
214	0x3d8c8c2d	0.06862674
215	0x3dcb3c5e	0.099236235
216	0xbc0ec454	-0.0087138
217	0xbd189e2a	-0.037260212
218	0x3d2d62ec	0.042330667
219	0x3d9f7759	0.07786436
220	0xbd1d3e30	-0.038389385
221	0x3da6645b	0.0812461
222	0x3c8cf35a	0.017205883
223	0x3ce189d1	0.027531536
224	0xbcb53e99	-0.022124575
225	0x3baf2a19	0.0053455946
226	0xbd060eed	-0.032729078
227	0xbd9da723	-0.076978944
228	0x3dca5671	0.09879769
229	0x3d3a6349	0.045504842
230	0xbd1c761c	-0.038198575
231	0x3c89aa54	0.016804852
232	0x3d888e85	0.066678084
233	0xbd91fd97	-0.071284465
234	0x3d841a0b	0.0645028
235	0xbdc12309	-0.094305106
236	0x3cc50454	0.024049915
237	0xbd114404	-0.035465255
238	0x3d835a53	0.06413712
239	0x3d91b22d	0.071140625
240	0xbda3c189	-0.07995898
241	0xbc71b814	-0.01475336
242	0x3da0b0ae	0.07846199
243	0x3daf47d2	0.085586205
244	0x3d12b74b	0.035819333
245	0x3d2ab622	0.0416776
246	0xbc9f01e0	-0.019410074
247	0xbcd2e932	-0.025745962
248	0x3d93667b	0.07197281
249	0x3d96f8c6	0.073716685
250	0x3d6c6aa9	0.057718907
251	0x3cd2e6d1	0.025744827
252	0xbd3a89c1	-0.04554153
253	0x3c95a592	0.018267427
254	0xbccbd50f	-0.024881868
255	0xbda749d5	-0.08168379

network.0.downsample.weight f4 [34, 292, 1]
0	0xbc6631c1	-0.014049948
1	0x3c67af52	0.014140921
2	0x3a5d5f9c	0.0008444728
3	0xba01fb13	-0.00049583724
4	0x399c277c	0.00029784057
5	0x3c6d6bea	0.014491061
6	0xbc32bb26	-0.0109088775
7	0x3c4cc7c4	0.0124988
8	0xbc340609	-0.010987767
9	0xbccf61d8	-0.02531521
10	0x3c3d4a79	0.0115534
11	0x3c18631d	0.009300974
12	0xbc3b22a0	-0.011421829
13	0xbcdcf054	-0.026970066
14	0x3c3ea20b	0.011635314
15	0xbd7cee2c	-0.061750576
16	0x3b16c9de	0.0023008506
17	0x3cac9361	0.02106637
18	0x3a63d51c	0.00086911186
19	0x3c135070	0.008991346
20	0x3c6dad2f	0.014506622
21	0x3a7e4c64	0.0009700714
22	0xbc9c0972	-0.019047473
23	0xbba5fc44	-0.005065473
24	0xbbb6c729	-0.005577941
25	0x3b80c448	0.0039296485
26	0xbb219416	-0.0024654916
27	0x3b34ec01	0.002760649
28	0xbb0d80d6	-0.0021591685
29	0x3c4601be	0.012085376
30	0xbc332520	-0.010934144
31	0xba4b40cb	-0.00077534904
32	0x3c4d7fc1	0.012542666
33	0x3c82da56	0.015973251
34	0xbba910f6	-0.0051594926
35	0xbcba8852	-0.02277008
36	0xbba079b1	-0.0048973192
37	0xb9f5c478	-0.00046876422
38	0xbc164f57	-0.0091741895
39	0xb969007e	-0.00022220795
40	0x3c5c3c70	0.013442144
41	0xbcadf2a9	-0.021233873
42	0x3c539e57	0.012916169
43	0x3be4aa3a	0.0069783004
44	0x3ba3dd9b	0.0050007827
45	0xbc1f641a	-0.009728456
46	0xba021ab4	-0.00049630855
47	0xbc3751e8	-0.011188962
48	0xbc2c5694	-0.010518689
49	0xbc0a5234	-0.00844245
50	0xbca0f7e7	-0.019649459
51	0x3aba2d39	0.0014204151
52	0xbc8caa35	-0.017171005
53	0x3bd2afc4	0.0064296443
54	0xbcae6b45	-0.021291384
55	0xbb8c5425	-0.0042824917
56	0xbc5f8f43	-0.013644996
57	0xbc20b051	-0.009807662
58	0x3c8a8ea3	0.016913718
59	0xbc0e20b9	-0.008674794
60	0xbcb59e37	-0.02217017
61	0xbb1ae5f5	-0.00236356
62	0xbc788f5f	-0.015170901
63	0x3c08db2b	0.008353035
64	0x39e73ded	0.00044105892
65	0x3c94e5c9	0.018175976
66	0xbc861a40	-0.016369939
67	0x3bfac725	0.0076531344
68	0x3c9e66de	0.01933616
69	0x3b90278f	0.004399247
70	0xb9287f49	-0.00016069146
71	0x3ad63e26	0.0016345426
72	0x3bb8a90b	0.005635386
73	0xbc0c8d67	-0.008578635
74	0xbb36ccc2	-0.0027893041
75	0xbb9c1b6f	-0.0047640125
76	0x3bb3d64c	0.0054881927
77	0xbb80de4e	-0.003932751
78	0xbaa0ebc1	-0.0012277291
79	0x3baf38f0	0.0053473637
80	0xbc5574ee	-0.0130283665
81	0xbc5f301d	-0.013622311
82	0xbc8af319	-0.016961621
83	0xbb021644	-0.0019849697
84	0x3c13d1d6	0.009022197
85	0xbc1d4286	-0.00959838
86	0xbc324c1c	-0.010882404
87	0x3baa4eb4	0.0051973704
88	0x3a94c521	0.0011350253
89	0xbad4f9a9	-0.0016248721
90	0xbb6d51b5	-0.0036212031
91	0x3bf52219	0.0074808714
92	0xb9a35e50	-0.0003116005
93	0xbb933205	-0.004492047
94	0xbc858fcb	-0.016303917
95	0xbb8b444a	-0.004250084
96	0xbc5038c9	-0.012708851
97	0x3c0d8465	0.008637522
98	0x3c0c4808	0.008562095
99	0xba871e91	-0.0010308792
100	0x3b4d51b9	0.0031329228
101	0xbbdc85f7	-0.006729837
102	0x3c5718ca	0.013128469
103	0x3a72f24b	0.0009267672
104	0xb9dc8635	-0.00042061662
105	0xbac0b8d6	-0.0014703523
106	0xbc3f242a	-0.011666337
107	0x3c3d6d0e	0.011561645
108	0x3b1cb688	0.0023912508
109	0x3c7512ec	0.014958125
110	0xbc2940b3	-0.010330367
111	0xbb93521c	-0.004495872
112	0xbc3a49b0	-0.0113701075
113	0x3bcd3ce0	0.0062633604
114	0x3bbc153f	0.0057398374
115	0x3bb6481c	0.0055627953
116	0x3c5f98a4	0.013647232
117	0x3c1a44cb	0.009415816
118	0x3c29cb08	0.010363348
119	0x3c0c7534	0.008572865
120	0x3aa15ac3	0.0012310374
121	0xbb832013	-0.0040016263
122	0xbc6dcf72	-0.014514791
123	0x3c19f922	0.009397777
124	0x3c0eae14	0.008708496
125	0x3caffcfb	0.021482935
126	0xbc0609eb	-0.008181076
127	0x3c5f665c	0.013635244
128	0xbb4c04ef	-0.003113087
129	0x3acd6ccc	0.0015672683
130	0xbb64816f	-0.0034867187
131	0x3c1ae171	0.0094531635
132	0xbc72407c	-0.014785882
133	0xba82a01c	-0.0009965929
134	0xbb83e092	-0.0040245736
135	0x3b303000	0.002688408
136	0x3c688447	0.014191694
137	0x3c388aba	0.011263544
138	0x3c1efe68	0.00970421
139	0xba3ddf4a	-0.00072430505
140	0x3c57d2bd	0.0131728025
141	0x3ac5d5ed	0.0015093662
142	0x3c001b70	0.007819042
143	0xbc152aaa	-0.00910441
144	0x3b7ee48f	0.0038893556
145	0xbc1a2f66	-0.009410715
146	0x3c77e558	0.015130363
147	0xbc6eb667	-0.014569855
148	0x3c341e29	0.010993519
149	0xbbfabc3c	-0.007651834
150	0x3ae0e740	0.0017158762
151	0x3c2d5631	0.010579632
152	0xbc2656ca	-0.010152528
153	0x3ab4cbf1	0.001379369
154	0xbc2dbd8b	-0.010604273
155	0x3c441520	0.011967927
156	0xbc8a4b20	-0.016881526
157	0x3cc714aa	0.024301846
158	0x3b7b6be9	0.003836388
159	0xbcf6a071	-0.030105801
160	0xbc2fe92e	-0.010736747
161	0x3afcc2a8	0.0019284086
162	0x3ba2a50e	0.0049635237
163	0xbb1fd8ca	-0.002439069
164	0x3c1cb27c	0.009564038
165	0xb98d0e7c	-0.00026904407
166	0x3b99beb0	0.004691921
167	0xbc0e3f39	-0.008682066
168	0xbc3b881d	-0.011446026
169	0xbcaa631e	-0.020799216
170	0xbc044b06	-0.008074528
171	0xbbd0d9ab	-0.0063736043
172	0xbc326f99	-0.010890865
173	0x3c6f8be8	0.014620759
174	0x3be97657	0.007124703
175	0xbc7f7094	-0.015590806
176	0x3b8db42b	0.004324456
177	0xbc404b8a	-0.01173676
178	0xbbf26573	-0.0073973476
179	0x3cabe8f9	0.020985113
180	0xbc7234b0	-0.0147830695
181	0xbb73d7bf	-0.0037207452
182	0xbbacd575	-0.0052744695
183	0x3c1f8ff3	0.00973891
184	0x3bc8e888	0.0061312355
185	0xbb4847c7	-0.003056036
186	0x3b82733d	0.0039810226
187	0xbc559a96	-0.013037344
188	0x3b120e8e	0.0022286507
189	0xbb54a173	-0.0032444864
190	0xbb4533e4	-0.0030090744
191	0x3bdada44	0.0066788513
192	0xbc349e01	-0.011023999
193	0xbc9996c5	-0.01874865
194	0xbc221d59	-0.009894692
195	0x3ba705b1	0.005097114
196	0xbc5d4fc2	-0.013507785
197	0xbbc1e125	-0.005916732
198	0x3c3f8022	0.011688264
199	0x3c5fe629	0.013665714
200	0x3b61f3a0	0.0034477487
201	0xbc663838	-0.0140514895
202	0xbbe36ec2	-0.0069406936
203	0xbb34e330	-0.0027601235
204	0x3b8a5c62	0.0042224387
205	0xbc1bf29f	-0.009518295
206	0x3aefed82	0.0018305036
207	0xbc01baaa	-0.007918039
208	0xbc0f810d	-0.008758795
209	0x3c84eeca	0.016227145
210	0x3bcc4aa8	0.0062344857
211	0x3c586f30	0.013210103
212	0x39265b80	0.0001586508
213	0xbca03f8b	-0.01956155
214	0x3a525174	0.0008023002
215	0xbafa1053	-0.0019078351
216	0x3c4bc82b	0.0124378605
217	0xbc2232c0	-0.009899795
218	0xbb162600	-0.0022910833
219	0xbac6522e	-0.0015130693
220	0x3bc375ca	0.0059649693
221	0xbbe11870	-0.0068693683
222	0xba801b1a	-0.0009773702
223	0xbbd277cf	-0.0064229737
224	0x3cbc688a	0.022999067
225	0x3a86ca3d	0.001028366
226	0xbbc424bf	-0.005985826
227	0x3c1f09b5	0.009706904
228	0x3c5fc3c5	0.013657515
229	0x3b64e729	0.0034927821
230	0x3c1d9a12	0.009619253
231	0xba13f72d	-0.0005644437
232	0x3c88a83a	0.01668178
233	0x3bd325b9	0.006443706
234	0xbb55890f	-0.0032582914
235	0x3c57df37	0.013175777
236	0xb9924161	-0.00027896
237	0xbb86901b	-0.004106534
238	0xbb7cd88d	-0.0038581223
239	0x3b7e6fbe	0.0038823928
240	0xbcd3b90c	-0.025845073
241	0xbc439c84	-0.011939172
242	0xbac5dadb	-0.0015095131
243	0xbbc02553	-0.0058638244
244	0x3b4f31bb	0.0031615335
245	0xbb5e035d	-0.0033876516
246	0xbbaed473	-0.0053353845
247	0xbc37c82c	-0.011217158
248	0x3c09956b	0.00839744
249	0x3ae55d08	0.0017499039
250	0xba9d72cd	-0.0012012363
251	0xbc01c62c	-0.007920783
252	0x3bd0c4aa	0.0063711004
253	0x3c4204d3	0.0118419705
254	0x3b895e3f	0.004192143
255	0xbd23c63c	-0.039983973

network.0.downsample.bias f4 [34]
0	0x3c4a1aa2	0.012335451
1	0xbcecbe98	-0.028899476
2	0xbac41f9f	-0.0014963037
3	0xbd4ce6cb	-0.05002479
4	0xbd0046c5	-0.03131749
5	0x3adda2dc	0.0016909498
6	0x3d3c2613	0.045934748
7	0x3c4cf220	0.012508899
8	0xbd134ba3	-0.035960805
9	0xbcbe4876	-0.023227911
10	0x3d39e0b1	0.045380298
11	0x3b76ceb7	0.0037659833
12	0x3c2322a1	0.009956987
13	0xbd4c46c6	-0.049872182
14	0x3c043c30	0.00807099
15	0x3c8a8e0e	0.01691344
16	0x3cb03b50	0.021512657
17	0x3d584813	0.05280311
18	0x3c4f448b	0.012650619
19	0xbd09083e	-0.033455126
20	0x3d02e22c	0.031953976
21	0x3d6bfd08	0.057614356
22	0xbc84dea1	-0.016219439
23	0xbc42ac06	-0.011881834
24	0x3d07cd93	0.033155035
25	0x3c5fb64b	0.013654302
26	0x3c60b387	0.013714678
27	0xbd3a77f0	-0.045524538
28	0xbb5ce036	-0.0033702976
29	0x3d24fdda	0.040281154
30	0x3d29cffd	0.04145812
31	0x3d4c0291	0.049807135
32	0x3d580135	0.052735526
33	0x3d432f9c	0.047652826

network.1.conv1.bias f4 [34]
0	0x3bfd8f69	0.007738043
1	0xbd1586b3	-0.036505412
2	0x3b49c94b	0.0030790146
3	0xbcb9350a	-0.022608299
4	0xbd8b0a93	-0.06789126
5	0xbd25084a	-0.04029111
6	0x3cbc6873	0.022999024
7	0x3ca6dc04	0.020368584
8	0xbd1af932	-0.037835307
9	0x3dc28815	0.09498612
10	0x3d5ef081	0.05442858
11	0x3d1c5593	0.038167547
12	0x3cc12a6e	0.023579802
13	0x3cdd6508	0.027025715
14	0x3cf4f039	0.029899703
15	0xbdaeb5db	-0.0853078
16	0x3d9d45da	0.07679339
17	0x3d185af8	0.03719613
18	0xbdccba5a	-0.09996481
19	0xbd810b7e	-0.0630102
20	0x3d845eca	0.06463392
21	0xbdbcd862	-0.09220959
22	0x3d6cdc8f	0.05782753
23	0x3d67ad44	0.056561723
24	0x3c52027c	0.012817975
25	0x3d9cb6c9	0.07652051
26	0xbda32b62	-0.07967259
27	0x3d72dad9	0.05929074
28	0x3dab3744	0.083601505
29	0xbd0c26c1	-0.034216646
30	0xbcc04ddb	-0.023474624
31	0x3dcd6dee	0.10030733
32	0xbcfc1316	-0.03077082
33	0x3cc2ab73	0.023763394

network.1.conv1.weight_v f4 [34, 34, 3]
0	0xbb11de7e	-0.002225786
1	0x3d7882ca	0.060671605
2	0xbdccaaf5	-0.09993545
3	0x3d4f6b25	0.05063929
4	0x3c3c76e9	0.01150296
5	0xbd323c83	-0.04351474
6	0xbda18e8c	-0.07888517
7	0xbcf4f414	-0.029901542
8	0xbd96e7a3	-0.073684
9	0xbd6f1b3c	-0.058375582
10	0x3db7e4a4	0.089791566
11	0xbba91d31	-0.0051609506
12	0xbd291d80	-0.0412879
13	0x3da58bcc	0.08083305
14	0xbda2e309	-0.0795346
15	0x3d7021ba	0.058625914
16	0x3d34bc8f	0.044125136
17	0x3d1b2c02	0.037883766
18	0x3d8e2144	0.06939939
19	0xbd81c023	-0.06335475
20	0xbd0c4198	-0.034242243
21	0x3d930477	0.07178586
22	0x3d2824ed	0.04105084
23	0x3bc660f9	0.0060540405
24	0x3dbd602b	0.09246858
25	0x3bd95c20	0.0066332966
26	0x3d67ba48	0.056574136
27	0xbdc6e1c9	-0.09711034
28	0x3d41f7d8	0.047355503
29	0x3d40e918	0.047097296
30	0xbd575236	-0.052568637
31	0x3b0b1b16	0.0021225861
32	0x3ce1f573	0.02758286
33	0xbb9fee5d	-0.00488071
34	0x3cf19495	0.029489795
35	0xbcfb20a4	-0.030655213
36	0xbd89916b	-0.067171894
37	0xbd6afabe	-0.057368033
38	0xbbb71b20	-0.0055879503
39	0x3d9793f6	0.07401268
40	0x3db5277d	0.088454224
41	0xbb2eb1d6	-0.0026656291
42	0x3d674c21	0.056469087
43	0x3d9013d7	0.07035034
44	0x3cf92242	0.030411843
45	0xbc2659a3	-0.010153207
46	0xbc94558d	-0.0181072
47	0x3d9126a7	0.070874505
48	0xbc2ba256	-0.010475716
49	0xbd2377c7	-0.03990915
50	0xbcd4f0a8	-0.02599366
51	0x3d118a49	0.03553227
52	0x3d8ef948	0.069811404
53	0xbd2bab72	-0.04191155
54	0xbd1a4f2d	-0.037673164
55	0x3c583eab	0.013198535
56	0xbca28698	-0.01983957
57	0xbda122f6	-0.078679964
58	0xbd891993	-0.06694331
59	0xbd4f9408	-0.050678283
60	0xbd3e3c4d	-0.046444226
61	0x3d8cec0a	0.068809584
62	0x3d12caf4	0.035838082
63	0xbd26b360	-0.04069841
64	0xbd6dcd52	-0.058057137
65	0x3d93e735	0.072218336
66	0x3d228d50	0.039685547
67	0xbd86cc5f	-0.065819494
68	0x3dc112e9	0.09427435
69	0xbd26e01e	-0.04074108
70	0xbdc8616c	-0.09784207
71	0xbd8de4c4	-0.06928399
72	0x3c39abde	0.01133248
73	0x3d7b834b	0.061404508
74	0xbd1f7271	-0.0389275
75	0x3d3915a8	0.04518667
76	0xbdcc1de7	-0.09966641
77	0xbc7cf380	-0.015438914
78	0x3d239581	0.0399375
79	0xbcb6ba6d	-0.022305692
80	0x3d319282	0.04335261
81	0x3d5327e5	0.05155172
82	0x3d64a445	0.055820722
83	0xbbe813cf	-0.0070824395
84	0x3d8ddbef	0.06926715
85	0x3d090ca4	0.03345932
86	0x3bc6bc6c	0.006064942
87	0x3d5b0053	0.053467106
88	0xbdc9b497	-0.09848898
89	0x3d02638f	0.031833228
90	0x3da33f59	0.07971067
91	0x3d89439b	0.06702348
92	0xbd7bd92e	-0.061486416
93	0x3d279121	0.04090989
94	0x3c23e24d	0.010002685
95	0x3dcec75a	0.10096617
96	0xbd1069e1	-0.035257224
97	0xbd0c79d3	-0.034295868
98	0x3d911466	0.07083969
99	0xbc46413a	-0.012100512
100	0x3c414547	0.011796302
101	0x3d28cad9	0.041209076
102	0x3d5688cb	0.05237655
103	0xbdbdb4ab	-0.09262975
104	0xbd65d45b	-0.05611072
105	0x3db6ed70	0.08932006
106	0x3dbd9101	0.09256173
107	0xbc3dd954	-0.01158746
108	0xbca99953	-0.020702993
109	0xbc8334ea	-0.016016442
110	0x3cca790d	0.024715925
111	0x3c1b8d1a	0.00949409
112	0x3db618a5	0.08891419
113	0xbb3df2b1	-0.0028983767
114	0xbdc6c97e	-0.097064
115	0xbd7bf67e	-0.06151437
116	0x3d0ea3a2	0.03482402
117	0x3d90f5af	0.070781104
118	0xbda62f9e	-0.08114551
119	0xbd68df02	-0.0568533
120	0xbd98cde7	-0.07461148
121	0x3d0259e7	0.03182402
122	0x3dc51b98	0.09624404
123	0xbd138888	-0.03601888
124	0xbd936e61	-0.071987875
125	0xbc37f9d6	-0.011228999
126	0x3dabdd3d	0.08391807
127	0xbafee98a	-0.0019448262
128	0x3d0f88fb	0.035042744
129	0x3dae7d23	0.08519962
130	0xbd92e04f	-0.0717169
131	0xbd8670be	-0.065644726
132	0x3d06317f	0.032762047
133	0xbd433ace	-0.047663502
134	0xbd325cd6	-0.043545566
135	0xbd6932d6	-0.056933247
136	0xbd853d37	-0.065058164
137	0xbd396a8d	-0.04526763
138	0xbd65da7e	-0.056116574
139	0xbd538d1f	-0.051648255
140	0xbdcae15a	-0.09906264
141	0x3d90d7a0	0.07072377
142	0x3dbffbc6	0.09374194
143	0x3d619d16	0.05508145
144	0x3dbca6b7	0.09211486
145	0x3daef59e	0.085429415
146	0x3daef75f	0.08543276
147	0x3d0a9fc1	0.03384376
148	0xbd5f6c34	-0.05454655
149	0x3d09f44f	0.033680256
150	0xbbfecde1	-0.0077760075
151	0x3d8f27ea	0.06990035
152	0x3d297662	0.041372664
153	0x3d8e73a8	0.069556534
154	0xbbf9ace8	-0.007619489
155	0x3c345848	0.011007376
156	0x3d2b40e8	0.041809946
157	0x3cb8dd07	0.022566332
158	0xbd9edd2c	-0.07757029
159	0xbcf89d93	-0.030348575
160	0xbdb70aa0	-0.089375734
161	0xbdc87a03	-0.09788897
162	0x3dcbada7	0.09945231
163	0x3d8c0225	0.068363465
164	0x3c85bfd6	0.016326826
165	0xbd9e5ab2	-0.077321425
166	0xbce244ff	-0.02762079
167	0x3dbaffeb	0.09130844
168	0xbc5ea3d9	-0.013588869
169	0xbd706062	-0.058685668
170	0x3d9de75a	0.077101424
171	0xbd979853	-0.074021004
172	0xbd3e5d6d	-0.046475817
173	0xbd68278c	-0.05667834
174	0xbdc6bdca	-0.09704168
175	0x3dafe36f	0.085883014
176	0x3dbac107	0.09118848
177	0x3d0997eb	0.033592146
178	0x3d0f4679	0.034979317
179	0xbbc8e004	-0.0061302204
180	0xbd9e514a	-0.077303484
181	0x3d547b08	0.051875144
182	0x3db04933	0.08607712
183	0x3d8f861a	0.07008
184	0x3dc77de7	0.09740811
185	0xbdbc627b	-0.09198471
186	0xbdad633e	-0.084661946
187	0x3dd07943	0.10179379
188	0xbd2b0083	-0.041748535
189	0xbd8eda7d	-0.06975267
190	0x3d4ab89c	0.049492463
191	0x3d1cadba	0.038251616
192	0xba54ec79	-0.00081223954
193	0xbd4b57a8	-0.049644142
194	0xbcc10d01	-0.023565771
195	0xbd45a5cc	-0.04825382
196	0x3d04c693	0.032415938
197	0x3d8b1f98	0.067931354
198	0xbc1976fd	-0.009366748
199	0x3d124e91	0.035719458
200	0xbd8a8e11	-0.06765378
201	0xbbea59db	-0.007151825
202	0x3cc63cba	0.024198879
203	0xbc110b33	-0.008852768
204	0x3c7b854d	0.015351606
205	0xbd76bff3	-0.06024165
206	0x3c9f1ab9	0.019421922
207	0x3d083087	0.033249404
208	0xbdc4e658	-0.09614247
209	0xbd8e047b	-0.06934448
210	0xbd86e8a4	-0.065873414
211	0x3c64c07b	0.013961907
212	0x3db1e94c	0.08687076
213	0x3d75c935	0.06000634
214	0xbd5a1fa0	-0.053252816
215	0x3d1c956e	0.038228445
216	0xbdb24112	-0.087038174
217	0xbdbc81f0	-0.09204471
218	0x3c1cd07a	0.009571189
219	0x3cc48494	0.023989
220	0x3d9f6d4e	0.0778452
221	0xbd9878f2	-0.074449435
222	0x3da72cd4	0.08162847
223	0xbcc0a272	-0.02351496
224	0x3c52329f	0.012829452
225	0x3da8caac	0.082417816
226	0x3dc9d303	0.098547004
227	0x3dc38df9	0.095485635
228	0x3da1ccd6	0.079003975
229	0xbdb4a1aa	-0.088198975
230	0xbdc9db4c	-0.09856281
231	0x3d9abff2	0.07556142
232	0x3daef6b2	0.08543147
233	0xbd727aad	-0.059199024
234	0xbd8a996b	-0.067675434
235	0xbd414975	-0.047189195
236	0xbd1c3047	-0.03813198
237	0x3da918df	0.08256697
238	0xbd6a35d8	-0.057180256
239	0xbbec54dd	-0.007212265
240	0x3c3b1f1d	0.011420992
241	0x3dba8dff	0.09109115
242	0xbd8220f9	-0.06353945
243	0x3d908a35	0.07057611
244	0xbb95342f	-0.00455334
245	0x3d7b0441	0.061283354
246	0xbd7321f5	-0.059358556
247	0x3dce9b4f	0.100882165
248	0xbdbc0606	-0.091808364
249	0xbd77a8ab	-0.06046359
250	0x3d7e4c47	0.062084462
251	0xbdbf64e2	-0.09345414
252	0xbdbd9f7b	-0.09258934
253	0x3d289c6f	0.04116481
254	0xbd97664a	-0.07392557
255	0x3d492b9f	0.049113866

network.1.conv2.bias f4 [34]
0	0xbd7f2d5c	-0.062299117
1	0x3b8b4b42	0.004250915
2	0x3d1d83b0	0.038455665
3	0x3d8936ae	0.066998824
4	0xbb186f80	-0.0023259819
5	0x3d798dad	0.06092613
6	0xbd7d9078	-0.061905354
7	0xbcb728c6	-0.02235831
8	0x3b276601	0.0025542977
9	0x3d39b1bd	0.04533552
10	0xbbbb294b	-0.0057117096
11	0x3d883f2d	0.06652675
12	0x3cee8b29	0.029119091
13	0xbdbdfaa4	-0.092763215
14	0xbd3ec124	-0.046570912
15	0x3d0ce6d3	0.03439982
16	0x3d2855ce	0.041097455
17	0x3d358e8c	0.044325396
18	0x3db3c2f5	0.087774195
19	0xbcf1b86a	-0.02950688
20	0x3d89532b	0.06705316
21	0xbd748e56	-0.059706055
22	0xbcee27bb	-0.02907168
23	0xbb9107db	-0.0044259853
24	0xbd4ef55f	-0.050526973
25	0x3d97de45	0.074154414
26	0x3d160a40	0.03663087
27	0xbd8400de	-0.06445478
28	0x3d80c1bd	0.06286953
29	0x3d68168f	0.05666214
30	0xbc1cb389	-0.009564289
31	0xbd8cc1e3	-0.068729185
32	0x3d9e1e6f	0.077206485
33	0x3d892633	0.06696739
