los/miiv/miiv_los_TCN_repetition_0_fold_0_last.ckpt (torch, 654631 bytes, 25 tensors)

network.0.conv1.bias f4 [44]
0	0x3d93bb78	0.07213491
1	0xbde0bbf5	-0.1097335
2	0x3cfe001a	0.031005908
3	0xbdf9649a	-0.12177391
4	0x3d0307ff	0.031990048
5	0xbdd9f60d	-0.106426336
6	0xbe017ad7	-0.12644516
7	0x3d9a1c0e	0.07524882
8	0xbe04baff	-0.12961958
9	0x3d5a1914	0.053246573
10	0xbd41410e	-0.04718118
11	0xbdfd80bf	-0.12378072
12	0xbe37f40e	-0.17964193
13	0xbdd2d118	-0.10293788
14	0x3e23e315	0.16004594
15	0xbd457ab1	-0.04821271
16	0xbe3b4940	-0.18289661
17	0x3d188396	0.037234865
18	0xbde768a5	-0.11299256
19	0xbe09fab7	-0.13474546
20	0xbe56cd52	-0.20976761
21	0xbdfd069a	-0.12354775
22	0xbdf3ad1c	-0.11898252
23	0x3d26747c	0.040638432
24	0xbe1dbb05	-0.15403374
25	0x3dd162d9	0.10223932
26	0xbcd297ae	-0.025707092
27	0xbc6bdb62	-0.014395567
28	0xbe081ef6	-0.1329306
29	0x3e026b0d	0.12736149
30	0x3da03bd3	0.078239106
31	0xbca2492e	-0.019810285
32	0xbd5a6f20	-0.053328633
33	0xbde08972	-0.109637156
34	0xbb66174c	-0.00351091
35	0x3d05d5f8	0.03267476
36	0xbd8bd06d	-0.068268634
37	0xbe00dbcb	-0.12583844
38	0xbd04799e	-0.032342546
39	0xbcf1f5d5	-0.029536167
40	0xbcceb90a	-0.025234718
41	0xbdf6a66f	-0.120434634
42	0xbe25538f	-0.16145156
43	0xbdd90ba1	-0.10597921

network.0.conv1.weight_v f4 [44, 52, 12]
0	0x3d1ea378	0.038730115
1	0x3b669f69	0.003519023
2	0xbc2c3bec	-0.010512333
3	0x3cdb02e2	0.026734773
4	0xbc751707	-0.014959103
5	0x3c1cfd78	0.009581916
6	0xbd1b6e88	-0.037947208
7	0x3c8963c4	0.016771205
8	0x3b2b59f3	0.0026146143
9	0xbc635af7	-0.013876668
10	0xbd3e4d89	-0.046460662
11	0xbd3e9851	-0.04653198
12	0x3d092455	0.033481915
13	0x3ca16675	0.019702176
14	0x3cb0926c	0.021554194
15	0xbcdeb7a0	-0.027187169
16	0xbcae03f8	-0.021242127
17	0xbd5cc417	-0.053897943
18	0xbccb25c8	-0.024798289
19	0xbd10aa67	-0.03531876
20	0xbcc721ee	-0.024308171
21	0x3c172a37	0.009226373
22	0x3b26c391	0.0025446157
23	0x3b3ceb35	0.0028826718
24	0x3cda7ff5	0.026672343
25	0x3ca5aefd	0.020225042
26	0x3c957349	0.018243449
27	0x3a1b018a	0.000591301
28	0xbb0f1cc9	-0.0021837226
29	0x3d14d69e	0.036337487
30	0x3cdb240b	0.026750585
31	0xbc6a885c	-0.014314737
32	0x3d1173f2	0.035510965
33	0xbc83f470	-0.016107768
34	0xbd1d52a6	-0.038408898
35	0xbcf560a5	-0.02995331
36	0x3c284524	0.010270391
37	0xbd387bc0	-0.045039892
38	0xbd238769	-0.03992406
39	0x3c519c57	0.012793622
40	0xbcea5bc5	-0.028608212
41	0x3c717839	0.014738136
42	0xbd85f31b	-0.06540509
43	0xbd942119	-0.072328754
44	0xbd9697de	-0.07353185
45	0x3ab6ec10	0.001395585
46	0x3c2e4887	0.010637409
47	0x3c6dc2f5	0.014511813
48	0x3cbd94d8	0.023142263
49	0xbc8b3818	-0.016994521
50	0xbcf00f36	-0.029304128
51	0xbd18c714	-0.03729923
52	0xbd0b530a	-0.03401474
53	0xbcfd8d40	-0.030951142
54	0xbd0dc25f	-0.034609195
55	0xbcec22e1	-0.028825225
56	0x3b37b29e	0.0028030048
57	0x3d07e918	0.03318128
58	0xbd03ee97	-0.03220996
59	0x3c84b6db	0.016200474
60	0xbd0d97f8	-0.034568757
61	0x3ce95fe4	0.028488107
62	0x3c98f2bb	0.01867043
63	0xbaaa9b50	-0.0013016257
64	0xbc7293d3	-0.014805752
65	0xbcd41bde	-0.025892194
66	0xbd21d888	-0.03951314
67	0x3d378dfc	0.04481314
68	0x3cebd0a5	0.028786013
69	0xbca08f63	-0.019599622
70	0x3d01b07b	0.031662446
71	0xbd27490e	-0.040841155
72	0xbbce6225	-0.006298321
73	0x3c32c7f9	0.010911935
74	0x3c5cda63	0.013479802
75	0xbc5d0001	-0.01348877
76	0xbcf1c0bc	-0.029510848
77	0xbcafd5a5	-0.021464178
78	0xbd2627d8	-0.04056534
79	0xbd26b809	-0.040702853
80	0xbcb4f2d8	-0.022088453
81	0xbd71d32c	-0.05903928
82	0x3c9c94fb	0.019114008
83	0x3bd4df0a	0.006496315
84	0x3d0e4ab8	0.034739226
85	0x3d20cf1f	0.039260026
86	0x3c04290b	0.008066426
87	0x3d6ceac4	0.057841077
88	0x3d4fb7bf	0.050712343
89	0xbb8195e7	-0.0039546373
90	0x3d137878	0.03600356
91	0x3d9ab939	0.0755486
92	0x3ca57aa2	0.020200077
93	0x3da9715a	0.08273573
94	0x3b3ce4d7	0.0028822923
95	0x3c02851c	0.007966306
96	0xbc37f1c9	-0.01122708
97	0x3b80955e	0.003924056
98	0x3d0d4236	0.03448697
99	0xbbbf27a3	-0.0058335825
100	0x3c5074d5	0.012723167
101	0x3c9dd568	0.0192668
102	0x3d4b8266	0.049684905
103	0x3d46c5b2	0.04852838
104	0x3ce3f6a6	0.027827572
105	0xbced2a7a	-0.028950918
106	0x3d4faa54	0.050699547
107	0x3d70e441	0.05881143
108	0x3dad0e33	0.08449974
109	0x3d9dd346	0.07706313
110	0x3d7c4969	0.061593447
111	0x3c987ca6	0.018614125
112	0x3d070bd8	0.03297028
113	0x3d4ad65a	0.049520828
114	0x3cab5ade	0.020917352
115	0x3d1be011	0.038055483
116	0x3d4ef8e3	0.050530326
117	0x3d884a40	0.06654787
118	0x3d2121ee	0.039339
119	0x3d5edb07	0.0544081
120	0xbd0c92d0	-0.0343197
121	0xbda2ac1e	-0.07942985
122	0xbcbe719f	-0.023247538
123	0xbd02e598	-0.03195724
124	0xbcc488f6	-0.02399109
125	0xbd8ef12b	-0.06979593
126	0xbcbc27b3	-0.022968149
127	0xbcadccd0	-0.021215826
128	0xbc6c9c7d	-0.014441607
129	0xbb774f9f	-0.0037736667
130	0x3c1fc17a	0.009750718
131	0xbd821c84	-0.06353095
132	0x3bcfcb80	0.0063413978
133	0xbbce025c	-0.0062869024
134	0x3c4f350e	0.012646927
135	0xbc6880d0	-0.014190868
136	0x3c8f875f	0.017520605
137	0xbcdcea48	-0.026967183
138	0x3a28293b	0.0006414835
139	0xbd05617c	-0.03256367
140	0x39fa078f	0.00047689347
141	0x3c14d5aa	0.009084145
142	0xbcb923cb	-0.022600075
143	0xbd3f879f	-0.046760198
144	0x3d1215e3	0.035665404
145	0x3c2f2335	0.010689546
146	0x3d44b5b7	0.04802486
147	0xbce7040a	-0.028200168
148	0x3918fcf6	0.00014590085
149	0x3b7639dd	0.003757111
150	0x3bb917a1	0.0056485687
151	0x3d163bc1	0.03667808
152	0xbd4cb11e	-0.0499736
153	0x3c4aaa66	0.012369728
154	0xbd0778dd	-0.03307425
155	0xbd4fac2d	-0.05070131
156	0x3d28c0dc	0.04119955
157	0x3d19569f	0.037436124
158	0x3be0d0fc	0.0068608504
159	0xbc7d6b1a	-0.0154674295
160	0x3d32bff9	0.04364011
161	0x3ccec479	0.02524017
162	0x3cc70a49	0.024296897
163	0x3b4380cf	0.0029831415
164	0xbc8ba1c4	-0.01704491
165	0x3c8640dc	0.01638835
166	0x3cbe1074	0.023201205
167	0xbd349aa2	-0.04409278
168	0xbd29a9d1	-0.041421715
169	0xbcdd9213	-0.027047193
170	0x3c487177	0.012234083
171	0x3c71abb3	0.014750409
172	0x3cb5e1c5	0.022202382
173	0xbccc8714	-0.024966754
174	0x3baf011b	0.005340708
175	0xbd323ecf	-0.04351693
176	0x3cd6dafd	0.026227469
177	0x3cf73870	0.030178279
178	0xbcf0f877	-0.029415352
179	0xbd3b2f32	-0.045699306
180	0xbd1a443d	-0.037662733
181	0xbc32cbeb	-0.010912876
182	0xbd3b4471	-0.045719568
183	0xbd4d83e0	-0.050174594
184	0x3c020b24	0.007937226
185	0xbb5aa092	-0.0033359868
186	0xbd280bd0	-0.04102689
187	0x3c97e097	0.01853971
188	0xbbaaad71	-0.005208664
189	0xbce0aafd	-0.027425284
190	0x3c52f640	0.012876093
191	0x3c98a952	0.018635426
192	0xbc833770	-0.016017646
193	0x3d142e67	0.036177065
194	0xbd1969e3	-0.037454497
195	0x3ccc5448	0.024942532
196	0x3d2c4d36	0.04206582
197	0x3c0051ea	0.00783203
198	0x3ced0490	0.02893284
199	0x3c9510aa	0.018196423
200	0xbce170b3	-0.02751956
201	0x3d6c530c	0.057696387
202	0x3d88318c	0.06650075
203	0xbbfc3e3e	-0.0076978495
204	0x3d8195bd	0.063273884
205	0x3b185d2a	0.002324889
206	0x3cadabed	0.021200145
207	0x392f3067	0.00016707332
208	0x3db09f13	0.08624091
209	0x3d46575c	0.048423156
210	0x3d843ca4	0.06456879
211	0x3cf1bab6	0.029507976
212	0x3d9972cc	0.07492599
213	0x3db140c3	0.086549304
214	0x3ca9f8b1	0.020748468
215	0x3df2dbef	0.11858355
216	0xbc940c0b	-0.018072149
217	0xbbfe0ce0	-0.0077529997
218	0x3b9920e0	0.0046731085
219	0xba9f5d8b	-0.0012158615
220	0xbd4e0e58	-0.050306648
221	0xbca7e3a5	-0.020494292
222	0x3c676d63	0.014125201
223	0x3c5b829e	0.013397841
224	0xbd2cc612	-0.042181082
225	0xbd032aa4	-0.032023087
226	0x3cbb1024	0.022834845
227	0xbc383d40	-0.011245072
228	0xbc80e121	-0.01573235
229	0xbd59689d	-0.053078283
230	0xbd047a1b	-0.03234301
231	0xbbd08bac	-0.0063643064
232	0xbc953f11	-0.018218549
233	0xbb95a7ec	-0.004567137
234	0x3d0054f5	0.03133102
235	0x3c18b273	0.009319889
236	0x3bb5ad66	0.0055443523
237	0x3d6bb590	0.0575462
238	0x3d70ad58	0.058759063
239	0x3b993ecd	0.004676676
240	0x3d69dc88	0.05709508
241	0x3d4c1805	0.049827594
242	0xb9bba59f	-0.00035790817
243	0xbb4a87dd	-0.0030903735
244	0x3c0b8e7d	0.008517859
245	0xbd08abd1	-0.033366982
246	0x3cc09de7	0.023512794
247	0xbbca514c	-0.006174242
248	0x3c90476d	0.017612183
249	0x3d06e743	0.032935392
250	0xbd1cb6f3	-0.03826041
251	0x3d5a3a3d	0.053278197
252	0xbd24df94	-0.040252283
253	0xbd059e8c	-0.032621905
254	0xbd3fcd62	-0.046826728
255	0x3d0c20bb	0.0342109

network.0.conv2.bias f4 [44]
0	0x3d0649b1	0.03278512
1	0x3d35ba6b	0.044367235
2	0x3dbe330d	0.09287081
3	0xbb790fb6	-0.003800375
4	0x3de91ee8	0.11382848
5	0x3d9ef1d2	0.07760967
6	0x3d58a118	0.052888006
7	0x3cfb8273	0.030701851
8	0x3d6e31bf	0.05815291
9	0x3dc33a20	0.09532571
10	0x3e21a06d	0.15783854
11	0x3d0bb75d	0.034110416
12	0xbd31c55f	-0.04340112
13	0x3d89fb83	0.06737425
14	0xbbe967e6	-0.0071229814
15	0x3e395f6b	0.18102805
16	0xbe38a2bd	-0.1803083
17	0x3c058258	0.008148752
18	0xbe373e0f	-0.17894767
19	0x3d8f0092	0.06982531
20	0x3ce7b4f2	0.028284524
21	0x3da4101e	0.080108866
22	0xbd004346	-0.031314157
23	0x3db2714d	0.08713017
24	0x3d6db8a7	0.058037426
25	0x3e58ba49	0.21164812
26	0x3e3dfa24	0.18552452
27	0x3d87ec08	0.06636816
28	0xbcca2cdf	-0.0246796
29	0xbc2fb6a2	-0.010724695
30	0x3a748863	0.00093281845
31	0x3d42d285	0.04756405
32	0x3e326297	0.17420422
33	0x3dbb761a	0.091533855
34	0x3dae5511	0.08512319
35	0x3df760a3	0.12078979
36	0x3dd850fa	0.1056232
37	0x3d61afd3	0.05509932
38	0x3df1e784	0.11811736
39	0xbe625258	-0.22101724
40	0xbceecdec	-0.029150926
41	0x3dafde71	0.08587349
42	0x3e2236bf	0.15841196
43	0xbdb0f991	-0.08641351

network.0.conv2.weight_v f4 [44, 44, 12]
0	0xbdc21a42	-0.094776645
1	0xbda1fa22	-0.07909037
2	0xbdeb7569	-0.114970036
3	0xbdc3f150	-0.09567511
4	0xbddacf24	-0.1068404
5	0xbdefef45	-0.11715559
6	0xbd7c1aa7	-0.061548855
7	0xbd8ce235	-0.06879083
8	0xbd7d88d7	-0.06189808
9	0xbe036ab6	-0.12833676
10	0xbde50adf	-0.11183714
11	0xbda3d7d6	-0.08000152
12	0xbe39b5e5	-0.18135794
13	0xbe3bc30f	-0.18336128
14	0xbe45ec0a	-0.19328323
15	0xbe6a1569	-0.2285973
16	0xbe4227fa	-0.18960562
17	0xbe746647	-0.2386714
18	0xbe3151ff	-0.17316435
19	0xbe7b97f5	-0.24569686
20	0xbe4f6dcd	-0.2025673
21	0xbe6cac04	-0.23112494
22	0xbe767cac	-0.24070996
23	0xbe8ac0c1	-0.27100185
24	0xbd6c75d8	-0.057729572
25	0xbdb93094	-0.09042469
26	0xbd6e4794	-0.05817373
27	0xbd012836	-0.03153249
28	0xbd405b97	-0.046962347
29	0xbd52f50c	-0.051503226
30	0xbda571aa	-0.0807832
31	0xbd149e8d	-0.03628402
32	0xbd1d740c	-0.03844075
33	0xbdb3babf	-0.08775853
34	0xbd9bd164	-0.076082975
35	0xbdd71202	-0.105014816
36	0x3d2ad6bf	0.041708704
37	0xbcaba598	-0.020952985
38	0x3c957725	0.01824529
39	0x3b9c6fd7	0.0047740745
40	0x3cd53eca	0.026030917
41	0xbb791117	-0.003800457
42	0xba8e4c4e	-0.0010856481
43	0xbbcf676b	-0.006329467
44	0xbb294bb1	-0.002583247
45	0xbc08e1a3	-0.008354577
46	0xbcf58149	-0.029968875
47	0x3c989c08	0.018629089
48	0xbe0db551	-0.13838698
49	0xbe017538	-0.12642372
50	0xbda5b38a	-0.08090885
51	0xbe06191b	-0.13095514
52	0xbe16dce7	-0.14732705
53	0xbe1492f1	-0.14509179
54	0xbd9804d6	-0.074227974
55	0xbd9be068	-0.076111615
56	0xbdac342b	-0.08408388
57	0xbda74004	-0.08166507
58	0xbdd9fd3a	-0.10644002
59	0xbe0ec394	-0.13941795
60	0x3c301a39	0.0107484395
61	0xbb3cd3d5	-0.0028812785
62	0xbc9304c0	-0.0179466
63	0x3d04e88b	0.032448333
64	0xbce672cb	-0.02813091
65	0xbc4f1f87	-0.012641794
66	0x3c531fd9	0.012886011
67	0xbcdc8fbd	-0.026924009
68	0x3b7a13b9	0.0038158728
69	0xbcf7e69a	-0.030261327
70	0xbd46714c	-0.048447892
71	0xbd1f04fe	-0.03882312
72	0xbd9ad6e1	-0.07560516
73	0xbd784c37	-0.06061956
74	0xbd052468	-0.032505423
75	0xbd92f104	-0.07174876
76	0xbe0a454c	-0.13502997
77	0xbdf6c37a	-0.12049003
78	0xbdfd104a	-0.123566225
79	0xbdaf7d0b	-0.08568772
80	0xbe0abae0	-0.1354785
81	0xbe120803	-0.14260869
82	0xbe157936	-0.1459702
83	0xbe18edbe	-0.14934441
84	0x393535be	0.00017281526
85	0xbd135b13	-0.035975527
86	0xbc696b3c	-0.014246758
87	0xbab12ade	-0.0013516804
88	0xbd099c40	-0.033596277
89	0xbd34d1e1	-0.04414547
90	0xbd54ad69	-0.05192319
91	0xbc7781a6	-0.015106594
92	0xbc3124aa	-0.010811964
93	0x3ac308a7	0.0014879898
94	0x3b1c9316	0.002389138
95	0xbd25822e	-0.040407352
96	0xbd76b443	-0.060230505
97	0xbd65ae99	-0.056074712
98	0x3c919fb9	0.017776357
99	0xbc0d31b8	-0.008617811
100	0xb82d01ca	-4.124808e-05
101	0xbd222b6e	-0.0395922
102	0xbb8f96c5	-0.004381987
103	0xbd485fbf	-0.048919436
104	0xbd251006	-0.040298484
105	0xbd61cdb5	-0.05512782
106	0xba640b7b	-0.00086992205
107	0xbc93ff86	-0.018066179
108	0x3c4e8db7	0.01260703
109	0x3caba173	0.020951008
110	0xbc3e9317	-0.011631749
111	0x3c8c3d0b	0.017118951
112	0xbcbf0a6a	-0.023320395
113	0x3c93adfc	0.018027298
114	0x3bd692b5	0.0065482506
115	0x3d20900e	0.03919988
116	0xbb186259	-0.002325198
117	0xbbc0192d	-0.005862376
118	0x3a2a0cc8	0.000648689
119	0xbc8182b0	-0.015809387
120	0xba8b08c1	-0.0010607467
121	0x3ca6d005	0.020362863
122	0x3c62310e	0.013805641
123	0x3d2edb96	0.042689882
124	0x3d305b6b	0.043055933
125	0x3994a753	0.00028353426
126	0x3cdef17c	0.027214758
127	0x3d1650dc	0.036698207
128	0xbcdf5fa8	-0.027267292
129	0x3d0a750a	0.033803023
130	0x3ab24536	0.0013600949
131	0x3d42cee1	0.047560576
132	0x3d9eefc9	0.07760579
133	0x3d1088a7	0.03528657
134	0x3d830e49	0.06399209
135	0x3db530ea	0.0884722
136	0x3d804c66	0.06264572
137	0x3d824f42	0.063627735
138	0x3d743d4b	0.059628766
139	0x3d1d3d29	0.038388405
140	0x3d9ba672	0.07600106
141	0x3d27c6fb	0.040961247
142	0x3db73fd1	0.08947719
143	0x3dcbcfb0	0.099517226
144	0xbc770acb	-0.015078257
145	0xbb5541da	-0.0032540471
146	0xbcf74acc	-0.030187033
147	0x3c8413d2	0.016122732
148	0xbc38aa2f	-0.011271044
149	0x3d1b9cbd	0.037991274
150	0x3d06b68b	0.03288893
151	0xbc4e9b90	-0.012610331
152	0x3cad9029	0.021186905
153	0x3cb45ba9	0.022016363
154	0x3cac906e	0.021064963
155	0x3d2ac643	0.041692983
156	0x3db63f00	0.08898735
157	0x3da2070f	0.079115026
158	0x3d41df86	0.04733231
159	0x3cd03ff5	0.025421122
160	0x3d8c3796	0.0684654
161	0x3d222593	0.039586615
162	0x3d28950a	0.04115776
163	0x3d6d20ff	0.057892796
164	0x3d8a068f	0.06739532
165	0x3cbe1216	0.023201983
166	0x3d54b42a	0.05192963
167	0x3d7d55fe	0.061849587
168	0xbbc12559	-0.0058943448
169	0xbd96a867	-0.07356339
170	0xbdc40035	-0.09570352
171	0xbd265080	-0.040604115
172	0xbc6411e0	-0.013920277
173	0xbc9c2911	-0.01906255
174	0xbd0e36c4	-0.034720197
175	0xbd96cdf4	-0.07363501
176	0xbd58985b	-0.052879672
177	0xbd3b4855	-0.045723278
178	0xbdd8a36d	-0.10578046
179	0xbdd6a624	-0.104809076
180	0xbd99f980	-0.075182915
181	0xbd768c52	-0.060192414
182	0xbd6aa436	-0.05728551
183	0xbdc9914e	-0.09842168
184	0xbd5d4d14	-0.054028586
185	0xbd21ab25	-0.039469857
186	0xbd16e31d	-0.036837686
187	0xbd993d76	-0.07482426
188	0xbd1945c7	-0.03742006
189	0xbd2a6179	-0.041596863
190	0xbcb41851	-0.021984251
191	0xbc455b58	-0.012045704
192	0xbcb4b9bc	-0.022061221
193	0xbd04e248	-0.03244236
194	0x3d20a089	0.0392156
195	0x3ca376e7	0.019954158
196	0xbccbffe3	-0.02490229
197	0xbc8fcf25	-0.017554829
198	0x3cef2715	0.02919344
199	0x3d29d44b	0.041462224
200	0xbb689fef	-0.0035495718
201	0x3ca5b874	0.020229556
202	0x3c921ffa	0.017837513
203	0xbc92a310	-0.01790002
204	0x3d1ea582	0.03873206
205	0x3cd0d579	0.025492417
206	0x3c6fed02	0.014643909
207	0xbc228392	-0.009919064
208	0x3bfcde77	0.0077169496
209	0x3b852392	0.004063078
210	0x3caa3249	0.020775931
211	0x3b43b354	0.0029861527
212	0x3c92ece7	0.01793523
213	0x3d217e9f	0.039427396
214	0x3cf98eba	0.030463565
215	0x3cca4fd7	0.024696274
216	0x3bdd79ee	0.00675892
217	0xbc0bc0c1	-0.008529843
218	0x3c20c41e	0.009812383
219	0xbce13690	-0.027491838
220	0x3c227633	0.009915876
221	0xbcf91473	-0.030405259
222	0xbc969efb	-0.018386355
223	0xbd16632d	-0.036715675
224	0xbd49bb18	-0.049250692
225	0xbcc9ac42	-0.024618272
226	0x3a55a203	0.0008149447
227	0xbd290f08	-0.0412741
228	0xbc146ea2	-0.00905958
229	0x3bc2c0ec	0.0059434082
230	0xbc24ad1c	-0.010051038
231	0xbdb14720	-0.08656144
232	0xbd28144d	-0.041034985
233	0xbd5ad37f	-0.053424355
234	0xbbdb9f16	-0.006702314
235	0xbd749cf5	-0.05972
236	0xbd0b60f5	-0.034028012
237	0xbcb173b5	-0.021661619
238	0xbd99bcff	-0.07506751
239	0xbdb313c4	-0.08744004
240	0x3d3d2c11	0.046184603
241	0x3c7388da	0.014864171
242	0x3d92cd03	0.07168009
243	0x3d3bd4d4	0.045857266
244	0xbb4c8c6e	-0.0031211632
245	0x3d3d9fc5	0.046294946
246	0x3995303d	0.00028455435
247	0x3d35bbdd	0.044368614
248	0x3d522436	0.051304065
249	0x3ceced19	0.02892165
250	0x3c4db962	0.012556406
251	0xbb8def7b	-0.004331527
252	0xbaec9bb8	-0.0018051779
253	0x3cde1216	0.027108233
254	0x3d005a53	0.03133614
255	0x3c83b90d	0.01607945

network.0.net.0.bias f4 [44]
0	0x3d93bb78	0.07213491
1	0xbde0bbf5	-0.1097335
2	0x3cfe001a	0.031005908
3	0xbdf9649a	-0.12177391
4	0x3d0307ff	0.031990048
5	0xbdd9f60d	-0.106426336
6	0xbe017ad7	-0.12644516
7	0x3d9a1c0e	0.07524882
8	0xbe04baff	-0.12961958
9	0x3d5a1914	0.053246573
10	0xbd41410e	-0.04718118
11	0xbdfd80bf	-0.12378072
12	0xbe37f40e	-0.17964193
13	0xbdd2d118	-0.10293788
14	0x3e23e315	0.16004594
15	0xbd457ab1	-0.04821271
16	0xbe3b4940	-0.18289661
17	0x3d188396	0.037234865
18	0xbde768a5	-0.11299256
19	0xbe09fab7	-0.13474546
20	0xbe56cd52	-0.20976761
21	0xbdfd069a	-0.12354775
22	0xbdf3ad1c	-0.11898252
23	0x3d26747c	0.040638432
24	0xbe1dbb05	-0.15403374
25	0x3dd162d9	0.10223932
26	0xbcd297ae	-0.025707092
27	0xbc6bdb62	-0.014395567
28	0xbe081ef6	-0.1329306
29	0x3e026b0d	0.12736149
30	0x3da03bd3	0.078239106
31	0xbca2492e	-0.019810285
32	0xbd5a6f20	-0.053328633
33	0xbde08972	-0.109637156
34	0xbb66174c	-0.00351091
35	0x3d05d5f8	0.03267476
36	0xbd8bd06d	-0.068268634
37	0xbe00dbcb	-0.12583844
38	0xbd04799e	-0.032342546
39	0xbcf1f5d5	-0.029536167
40	0xbcceb90a	-0.025234718
41	0xbdf6a66f	-0.120434634
42	0xbe25538f	-0.16145156
43	0xbdd90ba1	-0.10597921

network.0.net.0.weight_v f4 [44, 52, 12]
0	0x3d1ea378	0.038730115
1	0x3b669f69	0.003519023
2	0xbc2c3bec	-0.010512333
3	0x3cdb02e2	0.026734773
4	0xbc751707	-0.014959103
5	0x3c1cfd78	0.009581916
6	0xbd1b6e88	-0.037947208
7	0x3c8963c4	0.016771205
8	0x3b2b59f3	0.0026146143
9	0xbc635af7	-0.013876668
10	0xbd3e4d89	-0.046460662
11	0xbd3e9851	-0.04653198
12	0x3d092455	0.033481915
13	0x3ca16675	0.019702176
14	0x3cb0926c	0.021554194
15	0xbcdeb7a0	-0.027187169
16	0xbcae03f8	-0.021242127
17	0xbd5cc417	-0.053897943
18	0xbccb25c8	-0.024798289
19	0xbd10aa67	-0.03531876
20	0xbcc721ee	-0.024308171
21	0x3c172a37	0.009226373
22	0x3b26c391	0.0025446157
23	0x3b3ceb35	0.0028826718
24	0x3cda7ff5	0.026672343
25	0x3ca5aefd	0.020225042
26	0x3c957349	0.018243449
27	0x3a1b018a	0.000591301
28	0xbb0f1cc9	-0.0021837226
29	0x3d14d69e	0.036337487
30	0x3cdb240b	0.026750585
31	0xbc6a885c	-0.014314737
32	0x3d1173f2	0.035510965
33	0xbc83f470	-0.016107768
34	0xbd1d52a6	-0.038408898
35	0xbcf560a5	-0.02995331
36	0x3c284524	0.010270391
37	0xbd387bc0	-0.045039892
38	0xbd238769	-0.03992406
39	0x3c519c57	0.012793622
40	0xbcea5bc5	-0.028608212
41	0x3c717839	0.014738136
42	0xbd85f31b	-0.06540509
43	0xbd942119	-0.072328754
44	0xbd9697de	-0.07353185
45	0x3ab6ec10	0.001395585
46	0x3c2e4887	0.010637409
47	0x3c6dc2f5	0.014511813
48	0x3cbd94d8	0.023142263
49	0xbc8b3818	-0.016994521
50	0xbcf00f36	-0.029304128
51	0xbd18c714	-0.03729923
52	0xbd0b530a	-0.03401474
53	0xbcfd8d40	-0.030951142
54	0xbd0dc25f	-0.034609195
55	0xbcec22e1	-0.028825225
56	0x3b37b29e	0.0028030048
57	0x3d07e918	0.03318128
58	0xbd03ee97	-0.03220996
59	0x3c84b6db	0.016200474
60	0xbd0d97f8	-0.034568757
61	0x3ce95fe4	0.028488107
62	0x3c98f2bb	0.01867043
63	0xbaaa9b50	-0.0013016257
64	0xbc7293d3	-0.014805752
65	0xbcd41bde	-0.025892194
66	0xbd21d888	-0.03951314
67	0x3d378dfc	0.04481314
68	0x3cebd0a5	0.028786013
69	0xbca08f63	-0.019599622
70	0x3d01b07b	0.031662446
71	0xbd27490e	-0.040841155
72	0xbbce6225	-0.006298321
73	0x3c32c7f9	0.010911935
74	0x3c5cda63	0.013479802
75	0xbc5d0001	-0.01348877
76	0xbcf1c0bc	-0.029510848
77	0xbcafd5a5	-0.021464178
78	0xbd2627d8	-0.04056534
79	0xbd26b809	-0.040702853
80	0xbcb4f2d8	-0.022088453
81	0xbd71d32c	-0.05903928
82	0x3c9c94fb	0.019114008
83	0x3bd4df0a	0.006496315
84	0x3d0e4ab8	0.034739226
85	0x3d20cf1f	0.039260026
86	0x3c04290b	0.008066426
87	0x3d6ceac4	0.057841077
88	0x3d4fb7bf	0.050712343
89	0xbb8195e7	-0.0039546373
90	0x3d137878	0.03600356
91	0x3d9ab939	0.0755486
92	0x3ca57aa2	0.020200077
93	0x3da9715a	0.08273573
94	0x3b3ce4d7	0.0028822923
95	0x3c02851c	0.007966306
96	0xbc37f1c9	-0.01122708
97	0x3b80955e	0.003924056
98	0x3d0d4236	0.03448697
99	0xbbbf27a3	-0.0058335825
100	0x3c5074d5	0.012723167
101	0x3c9dd568	0.0192668
102	0x3d4b8266	0.049684905
103	0x3d46c5b2	0.04852838
104	0x3ce3f6a6	0.027827572
105	0xbced2a7a	-0.028950918
106	0x3d4faa54	0.050699547
107	0x3d70e441	0.05881143
108	0x3dad0e33	0.08449974
109	0x3d9dd346	0.07706313
110	0x3d7c4969	0.061593447
111	0x3c987ca6	0.018614125
112	0x3d070bd8	0.03297028
113	0x3d4ad65a	0.049520828
114	0x3cab5ade	0.020917352
115	0x3d1be011	0.038055483
116	0x3d4ef8e3	0.050530326
117	0x3d884a40	0.06654787
118	0x3d2121ee	0.039339
119	0x3d5edb07	0.0544081
120	0xbd0c92d0	-0.0343197
121	0xbda2ac1e	-0.07942985
122	0xbcbe719f	-0.023247538
123	0xbd02e598	-0.03195724
124	0xbcc488f6	-0.02399109
125	0xbd8ef12b	-0.06979593
126	0xbcbc27b3	-0.022968149
127	0xbcadccd0	-0.021215826
128	0xbc6c9c7d	-0.014441607
129	0xbb774f9f	-0.0037736667
130	0x3c1fc17a	0.009750718
131	0xbd821c84	-0.06353095
132	0x3bcfcb80	0.0063413978
133	0xbbce025c	-0.0062869024
134	0x3c4f350e	0.012646927
135	0xbc6880d0	-0.014190868
136	0x3c8f875f	0.017520605
137	0xbcdcea48	-0.026967183
138	0x3a28293b	0.0006414835
139	0xbd05617c	-0.03256367
140	0x39fa078f	0.00047689347
141	0x3c14d5aa	0.009084145
142	0xbcb923cb	-0.022600075
143	0xbd3f879f	-0.046760198
144	0x3d1215e3	0.035665404
145	0x3c2f2335	0.010689546
146	0x3d44b5b7	0.04802486
147	0xbce7040a	-0.028200168
148	0x3918fcf6	0.00014590085
149	0x3b7639dd	0.003757111
150	0x3bb917a1	0.0056485687
151	0x3d163bc1	0.03667808
152	0xbd4cb11e	-0.0499736
153	0x3c4aaa66	0.012369728
154	0xbd0778dd	-0.03307425
155	0xbd4fac2d	-0.05070131
156	0x3d28c0dc	0.04119955
157	0x3d19569f	0.037436124
158	0x3be0d0fc	0.0068608504
159	0xbc7d6b1a	-0.0154674295
160	0x3d32bff9	0.04364011
161	0x3ccec479	0.02524017
162	0x3cc70a49	0.024296897
163	0x3b4380cf	0.0029831415
164	0xbc8ba1c4	-0.01704491
165	0x3c8640dc	0.01638835
166	0x3cbe1074	0.023201205
167	0xbd349aa2	-0.04409278
168	0xbd29a9d1	-0.041421715
169	0xbcdd9213	-0.027047193
170	0x3c487177	0.012234083
171	0x3c71abb3	0.014750409
172	0x3cb5e1c5	0.022202382
173	0xbccc8714	-0.024966754
174	0x3baf011b	0.005340708
175	0xbd323ecf	-0.04351693
176	0x3cd6dafd	0.026227469
177	0x3cf73870	0.030178279
178	0xbcf0f877	-0.029415352
179	0xbd3b2f32	-0.045699306
180	0xbd1a443d	-0.037662733
181	0xbc32cbeb	-0.010912876
182	0xbd3b4471	-0.045719568
183	0xbd4d83e0	-0.050174594
184	0x3c020b24	0.007937226
185	0xbb5aa092	-0.0033359868
186	0xbd280bd0	-0.04102689
187	0x3c97e097	0.01853971
188	0xbbaaad71	-0.005208664
189	0xbce0aafd	-0.027425284
190	0x3c52f640	0.012876093
191	0x3c98a952	0.018635426
192	0xbc833770	-0.016017646
193	0x3d142e67	0.036177065
194	0xbd1969e3	-0.037454497
195	0x3ccc5448	0.024942532
196	0x3d2c4d36	0.04206582
197	0x3c0051ea	0.00783203
198	0x3ced0490	0.02893284
199	0x3c9510aa	0.018196423
200	0xbce170b3	-0.02751956
201	0x3d6c530c	0.057696387
202	0x3d88318c	0.06650075
203	0xbbfc3e3e	-0.0076978495
204	0x3d8195bd	0.063273884
205	0x3b185d2a	0.002324889
206	0x3cadabed	0.021200145
207	0x392f3067	0.00016707332
208	0x3db09f13	0.08624091
209	0x3d46575c	0.048423156
210	0x3d843ca4	0.06456879
211	0x3cf1bab6	0.029507976
212	0x3d9972cc	0.07492599
213	0x3db140c3	0.086549304
214	0x3ca9f8b1	0.020748468
215	0x3df2dbef	0.11858355
216	0xbc940c0b	-0.018072149
217	0xbbfe0ce0	-0.0077529997
218	0x3b9920e0	0.0046731085
219	0xba9f5d8b	-0.0012158615
220	0xbd4e0e58	-0.050306648
221	0xbca7e3a5	-0.020494292
222	0x3c676d63	0.014125201
223	0x3c5b829e	0.013397841
224	0xbd2cc612	-0.042181082
225	0xbd032aa4	-0.032023087
226	0x3cbb1024	0.022834845
227	0xbc383d40	-0.011245072
228	0xbc80e121	-0.01573235
229	0xbd59689d	-0.053078283
230	0xbd047a1b	-0.03234301
231	0xbbd08bac	-0.0063643064
232	0xbc953f11	-0.018218549
233	0xbb95a7ec	-0.004567137
234	0x3d0054f5	0.03133102
235	0x3c18b273	0.009319889
236	0x3bb5ad66	0.0055443523
237	0x3d6bb590	0.0575462
238	0x3d70ad58	0.058759063
239	0x3b993ecd	0.004676676
240	0x3d69dc88	0.05709508
241	0x3d4c1805	0.049827594
242	0xb9bba59f	-0.00035790817
243	0xbb4a87dd	-0.0030903735
244	0x3c0b8e7d	0.008517859
245	0xbd08abd1	-0.033366982
246	0x3cc09de7	0.023512794
247	0xbbca514c	-0.006174242
248	0x3c90476d	0.017612183
249	0x3d06e743	0.032935392
250	0xbd1cb6f3	-0.03826041
251	0x3d5a3a3d	0.053278197
252	0xbd24df94	-0.040252283
253	0xbd059e8c	-0.032621905
254	0xbd3fcd62	-0.046826728
255	0x3d0c20bb	0.0342109

network.0.net.4.bias f4 [44]
0	0x3d0649b1	0.03278512
1	0x3d35ba6b	0.044367235
2	0x3dbe330d	0.09287081
3	0xbb790fb6	-0.003800375
4	0x3de91ee8	0.11382848
5	0x3d9ef1d2	0.07760967
6	0x3d58a118	0.052888006
7	0x3cfb8273	0.030701851
8	0x3d6e31bf	0.05815291
9	0x3dc33a20	0.09532571
10	0x3e21a06d	0.15783854
11	0x3d0bb75d	0.034110416
12	0xbd31c55f	-0.04340112
13	0x3d89fb83	0.06737425
14	0xbbe967e6	-0.0071229814
15	0x3e395f6b	0.18102805
16	0xbe38a2bd	-0.1803083
17	0x3c058258	0.008148752
18	0xbe373e0f	-0.17894767
19	0x3d8f0092	0.06982531
20	0x3ce7b4f2	0.028284524
21	0x3da4101e	0.080108866
22	0xbd004346	-0.031314157
23	0x3db2714d	0.08713017
24	0x3d6db8a7	0.058037426
25	0x3e58ba49	0.21164812
26	0x3e3dfa24	0.18552452
27	0x3d87ec08	0.06636816
28	0xbcca2cdf	-0.0246796
29	0xbc2fb6a2	-0.010724695
30	0x3a748863	0.00093281845
31	0x3d42d285	0.04756405
32	0x3e326297	0.17420422
33	0x3dbb761a	0.091533855
34	0x3dae5511	0.08512319
35	0x3df760a3	0.12078979
36	0x3dd850fa	0.1056232
37	0x3d61afd3	0.05509932
38	0x3df1e784	0.11811736
39	0xbe625258	-0.22101724
40	0xbceecdec	-0.029150926
41	0x3dafde71	0.08587349
42	0x3e2236bf	0.15841196
43	0xbdb0f991	-0.08641351

network.0.net.4.weight_v f4 [44, 44, 12]
0	0xbdc21a42	-0.094776645
1	0xbda1fa22	-0.07909037
2	0xbdeb7569	-0.114970036
3	0xbdc3f150	-0.09567511
4	0xbddacf24	-0.1068404
5	0xbdefef45	-0.11715559
6	0xbd7c1aa7	-0.061548855
7	0xbd8ce235	-0.06879083
8	0xbd7d88d7	-0.06189808
9	0xbe036ab6	-0.12833676
10	0xbde50adf	-0.11183714
11	0xbda3d7d6	-0.08000152
12	0xbe39b5e5	-0.18135794
13	0xbe3bc30f	-0.18336128
14	0xbe45ec0a	-0.19328323
15	0xbe6a1569	-0.2285973
16	0xbe4227fa	-0.18960562
17	0xbe746647	-0.2386714
18	0xbe3151ff	-0.17316435
19	0xbe7b97f5	-0.24569686
20	0xbe4f6dcd	-0.2025673
21	0xbe6cac04	-0.23112494
22	0xbe767cac	-0.24070996
23	0xbe8ac0c1	-0.27100185
24	0xbd6c75d8	-0.057729572
25	0xbdb93094	-0.09042469
26	0xbd6e4794	-0.05817373
27	0xbd012836	-0.03153249
28	0xbd405b97	-0.046962347
29	0xbd52f50c	-0.051503226
30	0xbda571aa	-0.0807832
31	0xbd149e8d	-0.03628402
32	0xbd1d740c	-0.03844075
33	0xbdb3babf	-0.08775853
34	0xbd9bd164	-0.076082975
35	0xbdd71202	-0.105014816
36	0x3d2ad6bf	0.041708704
37	0xbcaba598	-0.020952985
38	0x3c957725	0.01824529
39	0x3b9c6fd7	0.0047740745
40	0x3cd53eca	0.026030917
41	0xbb791117	-0.003800457
42	0xba8e4c4e	-0.0010856481
43	0xbbcf676b	-0.006329467
44	0xbb294bb1	-0.002583247
45	0xbc08e1a3	-0.008354577
46	0xbcf58149	-0.029968875
47	0x3c989c08	0.018629089
48	0xbe0db551	-0.13838698
49	0xbe017538	-0.12642372
50	0xbda5b38a	-0.08090885
51	0xbe06191b	-0.13095514
52	0xbe16dce7	-0.14732705
53	0xbe1492f1	-0.14509179
54	0xbd9804d6	-0.074227974
55	0xbd9be068	-0.076111615
56	0xbdac342b	-0.08408388
57	0xbda74004	-0.08166507
58	0xbdd9fd3a	-0.10644002
59	0xbe0ec394	-0.13941795
60	0x3c301a39	0.0107484395
61	0xbb3cd3d5	-0.0028812785
62	0xbc9304c0	-0.0179466
63	0x3d04e88b	0.032448333
64	0xbce672cb	-0.02813091
65	0xbc4f1f87	-0.012641794
66	0x3c531fd9	0.012886011
67	0xbcdc8fbd	-0.026924009
68	0x3b7a13b9	0.0038158728
69	0xbcf7e69a	-0.030261327
70	0xbd46714c	-0.048447892
71	0xbd1f04fe	-0.03882312
72	0xbd9ad6e1	-0.07560516
73	0xbd784c37	-0.06061956
74	0xbd052468	-0.032505423
75	0xbd92f104	-0.07174876
76	0xbe0a454c	-0.13502997
77	0xbdf6c37a	-0.12049003
78	0xbdfd104a	-0.123566225
79	0xbdaf7d0b	-0.08568772
80	0xbe0abae0	-0.1354785
81	0xbe120803	-0.14260869
82	0xbe157936	-0.1459702
83	0xbe18edbe	-0.14934441
84	0x393535be	0.00017281526
85	0xbd135b13	-0.035975527
86	0xbc696b3c	-0.014246758
87	0xbab12ade	-0.0013516804
88	0xbd099c40	-0.033596277
89	0xbd34d1e1	-0.04414547
90	0xbd54ad69	-0.05192319
91	0xbc7781a6	-0.015106594
92	0xbc3124aa	-0.010811964
93	0x3ac308a7	0.0014879898
94	0x3b1c9316	0.002389138
95	0xbd25822e	-0.040407352
96	0xbd76b443	-0.060230505
97	0xbd65ae99	-0.056074712
98	0x3c919fb9	0.017776357
99	0xbc0d31b8	-0.008617811
100	0xb82d01ca	-4.124808e-05
101	0xbd222b6e	-0.0395922
102	0xbb8f96c5	-0.004381987
103	0xbd485fbf	-0.048919436
104	0xbd251006	-0.040298484
105	0xbd61cdb5	-0.05512782
106	0xba640b7b	-0.00086992205
107	0xbc93ff86	-0.018066179
108	0x3c4e8db7	0.01260703
109	0x3caba173	0.020951008
110	0xbc3e9317	-0.011631749
111	0x3c8c3d0b	0.017118951
112	0xbcbf0a6a	-0.023320395
113	0x3c93adfc	0.018027298
114	0x3bd692b5	0.0065482506
115	0x3d20900e	0.03919988
116	0xbb186259	-0.002325198
117	0xbbc0192d	-0.005862376
118	0x3a2a0cc8	0.000648689
119	0xbc8182b0	-0.015809387
120	0xba8b08c1	-0.0010607467
121	0x3ca6d005	0.020362863
122	0x3c62310e	0.013805641
123	0x3d2edb96	0.042689882
124	0x3d305b6b	0.043055933
125	0x3994a753	0.00028353426
126	0x3cdef17c	0.027214758
127	0x3d1650dc	0.036698207
128	0xbcdf5fa8	-0.027267292
129	0x3d0a750a	0.033803023
130	0x3ab24536	0.0013600949
131	0x3d42cee1	0.047560576
132	0x3d9eefc9	0.07760579
133	0x3d1088a7	0.03528657
134	0x3d830e49	0.06399209
135	0x3db530ea	0.0884722
136	0x3d804c66	0.06264572
137	0x3d824f42	0.063627735
138	0x3d743d4b	0.059628766
139	0x3d1d3d29	0.038388405
140	0x3d9ba672	0.07600106
141	0x3d27c6fb	0.040961247
142	0x3db73fd1	0.08947719
143	0x3dcbcfb0	0.099517226
144	0xbc770acb	-0.015078257
145	0xbb5541da	-0.0032540471
146	0xbcf74acc	-0.030187033
147	0x3c8413d2	0.016122732
148	0xbc38aa2f	-0.011271044
149	0x3d1b9cbd	0.037991274
150	0x3d06b68b	0.03288893
151	0xbc4e9b90	-0.012610331
152	0x3cad9029	0.021186905
153	0x3cb45ba9	0.022016363
154	0x3cac906e	0.021064963
155	0x3d2ac643	0.041692983
156	0x3db63f00	0.08898735
157	0x3da2070f	0.079115026
158	0x3d41df86	0.04733231
159	0x3cd03ff5	0.025421122
160	0x3d8c3796	0.0684654
161	0x3d222593	0.039586615
162	0x3d28950a	0.04115776
163	0x3d6d20ff	0.057892796
164	0x3d8a068f	0.06739532
165	0x3cbe1216	0.023201983
166	0x3d54b42a	0.05192963
167	0x3d7d55fe	0.061849587
168	0xbbc12559	-0.0058943448
169	0xbd96a867	-0.07356339
170	0xbdc40035	-0.09570352
171	0xbd265080	-0.040604115
172	0xbc6411e0	-0.013920277
173	0xbc9c2911	-0.01906255
174	0xbd0e36c4	-0.034720197
175	0xbd96cdf4	-0.07363501
176	0xbd58985b	-0.052879672
177	0xbd3b4855	-0.045723278
178	0xbdd8a36d	-0.10578046
179	0xbdd6a624	-0.104809076
180	0xbd99f980	-0.075182915
181	0xbd768c52	-0.060192414
182	0xbd6aa436	-0.05728551
183	0xbdc9914e	-0.09842168
184	0xbd5d4d14	-0.054028586
185	0xbd21ab25	-0.039469857
186	0xbd16e31d	-0.036837686
187	0xbd993d76	-0.07482426
188	0xbd1945c7	-0.03742006
189	0xbd2a6179	-0.041596863
190	0xbcb41851	-0.021984251
191	0xbc455b58	-0.012045704
192	0xbcb4b9bc	-0.022061221
193	0xbd04e248	-0.03244236
194	0x3d20a089	0.0392156
195	0x3ca376e7	0.019954158
196	0xbccbffe3	-0.02490229
197	0xbc8fcf25	-0.017554829
198	0x3cef2715	0.02919344
199	0x3d29d44b	0.041462224
200	0xbb689fef	-0.0035495718
201	0x3ca5b874	0.020229556
202	0x3c921ffa	0.017837513
203	0xbc92a310	-0.01790002
204	0x3d1ea582	0.03873206
205	0x3cd0d579	0.025492417
206	0x3c6fed02	0.014643909
207	0xbc228392	-0.009919064
208	0x3bfcde77	0.0077169496
209	0x3b852392	0.004063078
210	0x3caa3249	0.020775931
211	0x3b43b354	0.0029861527
212	0x3c92ece7	0.01793523
213	0x3d217e9f	0.039427396
214	0x3cf98eba	0.030463565
215	0x3cca4fd7	0.024696274
216	0x3bdd79ee	0.00675892
217	0xbc0bc0c1	-0.008529843
218	0x3c20c41e	0.009812383
219	0xbce13690	-0.027491838
220	0x3c227633	0.009915876
221	0xbcf91473	-0.030405259
222	0xbc969efb	-0.018386355
223	0xbd16632d	-0.036715675
224	0xbd49bb18	-0.049250692
225	0xbcc9ac42	-0.024618272
226	0x3a55a203	0.0008149447
227	0xbd290f08	-0.0412741
228	0xbc146ea2	-0.00905958
229	0x3bc2c0ec	0.0059434082
230	0xbc24ad1c	-0.010051038
231	0xbdb14720	-0.08656144
232	0xbd28144d	-0.041034985
233	0xbd5ad37f	-0.053424355
234	0xbbdb9f16	-0.006702314
235	0xbd749cf5	-0.05972
236	0xbd0b60f5	-0.034028012
237	0xbcb173b5	-0.021661619
238	0xbd99bcff	-0.07506751
239	0xbdb313c4	-0.08744004
240	0x3d3d2c11	0.046184603
241	0x3c7388da	0.014864171
242	0x3d92cd03	0.07168009
243	0x3d3bd4d4	0.045857266
244	0xbb4c8c6e	-0.0031211632
245	0x3d3d9fc5	0.046294946
246	0x3995303d	0.00028455435
247	0x3d35bbdd	0.044368614
248	0x3d522436	0.051304065
249	0x3ceced19	0.02892165
250	0x3c4db962	0.012556406
251	0xbb8def7b	-0.004331527
252	0xbaec9bb8	-0.0018051779
253	0x3cde1216	0.027108233
254	0x3d005a53	0.03133614
255	0x3c83b90d	0.01607945

network.0.downsample.weight f4 [44, 52, 1]
0	0xbc081ce0	-0.008307666
1	0x3ca2118f	0.019783763
2	0x3ca941b9	0.020661222
3	0xbbccf106	-0.006254318
4	0xbcb5a5ac	-0.022173725
5	0x3a9b2ef1	0.0011839551
6	0x3d23c60c	0.039983794
7	0xbb9f193f	-0.0048553045
8	0x3d256a83	0.04038478
9	0x3d889372	0.06668748
10	0x3d86152b	0.06547006
11	0xbd0cd038	-0.03437826
12	0x3cddd5d5	0.027079502
13	0x3c8a1f6f	0.016860692
14	0x3cb7a7c1	0.022418858
15	0x3d424cb4	0.04743643
16	0x3a979a16	0.0011566307
17	0xba443aea	-0.00074855855
18	0xbc26de98	-0.010184906
19	0x3b8ca3e8	0.004292
20	0xbc16c329	-0.009201803
21	0x3d1926aa	0.03739039
22	0xbcc36379	-0.023851143
23	0x3b30183a	0.002686991
24	0x3cd8fabd	0.026486749
25	0x3d446b7d	0.04795407
26	0xb9bccb97	-0.0003600984
27	0xbbec23a2	-0.007206396
28	0x3cdaa403	0.026689535
29	0x3c531805	0.012884145
30	0x3ce1c250	0.027558476
31	0x3cef6a96	0.029225629
32	0xbc6d4fe9	-0.014484384
33	0x3ba0468e	0.0048912233
34	0x3c10f55f	0.0088475635
35	0x3bdf3fbf	0.006813019
36	0xbaacb13b	-0.0013175377
37	0xbc290e12	-0.010318296
38	0xbd4e9334	-0.050433353
39	0x3ca8ce98	0.020606324
40	0x3b5576bf	0.0032572
41	0x3d9e427a	0.07727523
42	0xbb61dad6	-0.0034462712
43	0x3d418a87	0.04725125
44	0x3bcccd54	0.006250063
45	0x3cf7b78f	0.030238895
46	0x3bf417f4	0.0074491445
47	0xbe27b51d	-0.16377683
48	0x3d1b0383	0.037845146
49	0x3ba28e79	0.0049608317
50	0xbd20542a	-0.039142765
51	0x3c41bf4b	0.011825393
52	0x3cdd1fab	0.02699264
53	0xbcbb0597	-0.022829814
54	0x3c45b8db	0.012067999
55	0xbce22b0f	-0.027608423
56	0xbd62740b	-0.05528645
57	0x3c9f4b32	0.019445036
58	0xbd8681e0	-0.065677404
59	0x3d982174	0.07428256
60	0x3c6d7e47	0.014495439
61	0xbd2fcb40	-0.042918444
62	0x3d078b92	0.03309209
63	0xbd27d503	-0.04097463
64	0xbca61233	-0.02027235
65	0x3c0895c4	0.008336488
66	0x3d4216f6	0.04738518
67	0xbd07278e	-0.032996707
68	0x3bcd7664	0.006270217
69	0x3d86aa5a	0.06575461
70	0xbbf0fc09	-0.0073542637
71	0x3d5ca520	0.053868413
72	0xbdca1a1a	-0.0986826
73	0x3cfb8e20	0.030707419
74	0xbd265d74	-0.040616468
75	0x3bbed1f2	0.0058233673
76	0xbd1d3aac	-0.038386032
77	0x3b6eb636	0.0036424524
78	0x3c3b8c90	0.011447087
79	0xbdaecb5a	-0.0853488
80	0xbc33087a	-0.010927314
81	0x3cdc0e30	0.026862234
82	0xbc727e7a	-0.014800662
83	0x3dd489a6	0.10377817
84	0x3b808edd	0.0039232806
85	0xbd1dcced	-0.03852551
86	0xbbe95a52	-0.0071213627
87	0x3c02524f	0.007954194
88	0x3bd1beaf	0.006400905
89	0x3c8315d2	0.016001616
90	0xbcb1bcc1	-0.02169645
91	0x3cdea207	0.02717687
92	0x3d84373a	0.06455846
93	0xbaef2ac0	-0.0018246993
94	0x3c5dac5a	0.013529861
95	0xbc10baae	-0.00883357
96	0x3a8e2c6d	0.001084698
97	0xbb9b7f43	-0.0047453954
98	0x3cb77520	0.022394717
99	0x3c625aa4	0.013815556
100	0xbca8219f	-0.020523844
101	0xbda26f3d	-0.07931373
102	0x3d2a564d	0.04158621
103	0x3b862219	0.00409342
104	0x3c996957	0.018726988
105	0xbde87b4f	-0.11351644
106	0x3cac0482	0.020998243
107	0x3c9047d9	0.017612385
108	0x3bf7b2e0	0.0075591654
109	0xbc0201f9	-0.007935041
110	0x3bb35487	0.005472723
111	0xbd21f76d	-0.039542604
112	0xbcf48fd5	-0.02985374
113	0x3ccbb2a9	0.024865465
114	0x3d20a88f	0.03922325
115	0x3c9ab5d8	0.018885538
116	0xbdb9967e	-0.09061907
117	0x3c1800b1	0.009277509
118	0xbd733a1f	-0.0593816
119	0x3c52b59f	0.012860685
120	0x3ba22f54	0.0049494896
121	0x3c4916b0	0.0122734755
122	0x3ba58231	0.0050509204
123	0x3c009897	0.00784888
124	0x3d22b21a	0.039720632
125	0xbcf63a68	-0.030057147
126	0xbc98e85f	-0.01866549
127	0x3cdef850	0.027218014
128	0xbbba000b	-0.0056762747
129	0x3d1c00d6	0.038086735
130	0xbd924d87	-0.071436934
131	0xbc5cb8a6	-0.013471758
132	0xbceb91eb	-0.028756103
133	0x3c03cc02	0.008044245
134	0xbd520219	-0.05127153
135	0xbcb692c5	-0.022286782
136	0x3cb0a13b	0.021561256
137	0xbbceb3fa	-0.006308076
138	0x3c82b0b9	0.015953409
139	0x3bc746c1	0.0060814326
140	0x3ad545ce	0.0016271414
141	0x3c1c6d32	0.009547519
142	0xbbc6a3a9	-0.0060619903
143	0x3c789252	0.015171604
144	0x3bd883bc	0.006607501
145	0x3cabca85	0.020970592
146	0x3c0d1d85	0.008612995
147	0xbadfe7e8	-0.0017082663
148	0x3a99066f	0.0011674891
149	0x3d0d0421	0.034427766
150	0x3c4d3b4f	0.012526347
151	0x3d15b61b	0.036550622
152	0x3d4f586c	0.050621435
153	0x3beac6ee	0.0071648275
154	0xbc1367e7	-0.00899694
155	0xbc3be092	-0.011467116
156	0xbd0c0c1e	-0.034191243
157	0xbd987e45	-0.07445959
158	0xbcde56c9	-0.027140992
159	0x3d234438	0.03985998
160	0x3d7e4655	0.062078793
161	0xbc524b5f	-0.012835353
162	0xbd2803d4	-0.041019276
163	0x3d7c02fe	0.06152629
164	0xbd074a66	-0.033029936
165	0xbca16442	-0.019701127
166	0xbd75b55a	-0.059987403
167	0x3d420d5b	0.047376018
168	0x3c813685	0.015773067
169	0x3bda70c2	0.006666274
170	0x3d3a334d	0.04545908
171	0xbdf5ee9c	-0.12008402
172	0xbdc4b666	-0.09605102
173	0xbb81fbf3	-0.0039668023
174	0xbcb1879a	-0.021671105
175	0xbca4f0c2	-0.020134334
176	0x3d18047f	0.037113663
177	0x3cc2b0b0	0.023765892
178	0xbdc4cdd4	-0.09609571
179	0xbded57ab	-0.11588987
180	0xbd02839e	-0.0318638
181	0xbc903394	-0.01760272
182	0xbd8acd13	-0.06777396
183	0x3d0b6a2d	0.034036804
184	0xbc1076f5	-0.008817424
185	0xbc2ac1ad	-0.0104221525
186	0xbc584fbb	-0.013202603
187	0x3d0da39d	0.034579862
188	0xbc8894a9	-0.01667245
189	0x3d514065	0.051086802
190	0x3ce4ce5c	0.027930431
191	0xba927e91	-0.0011176636
192	0xbb4e2711	-0.003145639
193	0x3bbcfe7d	0.005767642
194	0x3c4ff7e4	0.012693379
195	0x3d0fbc3c	0.035091624
196	0xbcf0e7a5	-0.029407332
197	0xbcafebec	-0.021474801
198	0xbc91ad56	-0.017782848
199	0x3d07873b	0.03308795
200	0x3dee72d6	0.11642997
201	0xbc521511	-0.012822405
202	0x3cdbea38	0.026845083
203	0xbb0b7c35	-0.002128375
204	0x3cfff4f5	0.031244734
205	0x3d054bb8	0.032542914
206	0x3c70633f	0.0146721
207	0xbd06d7cb	-0.03292064
208	0xbbf6527b	-0.0075171567
209	0x3c68ccdb	0.014208998
210	0x3c12a3b3	0.008950162
211	0x3ca6eb99	0.020376014
212	0x3c80342e	0.015649881
213	0xbd0e8ab1	-0.034800235
214	0x3c1bc0f2	0.009506451
215	0xbb44705e	-0.0029974203
216	0x3ac5287e	0.0015041975
217	0x3d1c3ce9	0.038144026
218	0xbcdb5760	-0.026775062
219	0xbc9a0d82	-0.01880527
220	0x3c66153e	0.0140431505
221	0x3b76e7c9	0.0037674776
222	0xbc87d7b4	-0.016582347
223	0xbbc8a5fb	-0.006123302
224	0xbcd9f048	-0.026603833
225	0xbc99560b	-0.018717786
226	0x3b883140	0.0041562617
227	0x3d40d338	0.047076434
228	0x3c51dbdb	0.012808765
229	0x3c63270f	0.013864293
230	0x3c9425ed	0.01808449
231	0x3c09ec68	0.00841818
232	0xb9304536	-0.00016810451
233	0x3caacd22	0.020849768
234	0xbc6227c3	-0.013803425
235	0x3ca8697f	0.020558117
236	0xbbfe8321	-0.0077670966
237	0xbaa9eaab	-0.0012963613
238	0x3c92f77e	0.01794028
239	0xbd2b8cf0	-0.041882455
240	0xbba0ec51	-0.0049109836
241	0x3c420e9f	0.011844306
242	0xba8f8e2e	-0.0010952407
243	0xbc42af1e	-0.0118825715
244	0xbbc622c4	-0.006046625
245	0xbbd5c9fc	-0.0065243226
246	0x3c7991d7	0.015232525
247	0xbc85b715	-0.016322652
248	0xbbba461d	-0.0056846277
249	0x3be2199b	0.006900025
250	0x3ced877e	0.028995272
251	0xbc50b2a4	-0.012737904
252	0xbd1e9031	-0.03871173
253	0x3ccce524	0.025011607
254	0xbc13ab5d	-0.009013024
255	0x3c84ba4b	0.016202113

network.0.downsample.bias f4 [44]
0	0xbd9c3480	-0.07627201
1	0x3d7c1229	0.061540756
2	0x3e20a263	0.15686946
3	0xbda94f33	-0.08267059
4	0x3e1a5964	0.15073162
5	0xbe9c26c1	-0.30498317
6	0x3c78eb8a	0.015192876
7	0x3d82774b	0.063704096
8	0x3e6cdc2e	0.23130867
9	0x3db2e64a	0.087353304
10	0xbd22a480	-0.03970766
11	0xbe04bcc1	-0.12962629
12	0xbe29ccd1	-0.16582038
13	0x3e659f44	0.22424036
14	0xbc378616	-0.011201402
15	0x3d7b9d5d	0.06142937
16	0xbeb103c1	-0.34573177
17	0x3e52f0c8	0.20599663
18	0xbe938a3d	-0.28816405
19	0xbd260340	-0.040530443
20	0x3ddf3680	0.10899067
21	0xbddec5f2	-0.10877599
22	0xbe39fd60	-0.18163061
23	0x3e020581	0.12697412
24	0xbdc62486	-0.09674935
25	0xbdaf8a82	-0.0857134
26	0xbdf9a5e3	-0.121898435
27	0x3d9249b3	0.07142963
28	0xbde11781	-0.10990811
29	0xbdea6022	-0.11444117
30	0x3e758410	0.23976159
31	0x3e284c84	0.16435438
32	0x3e157b10	0.14597726
33	0x3e480b5f	0.19535588
34	0x3c44158d	0.011968029
35	0x3dc6224c	0.0967451
36	0x3df0d27e	0.11758898
37	0xbcb4db10	-0.022077113
38	0xbe661ed3	-0.22472696
39	0xbe7cd73e	-0.24691483
40	0xbd3d7e7e	-0.04626321
41	0x3e3cdaf4	0.18442899
42	0xbde2b1a9	-0.11069042
43	0xbe96d915	-0.29462495

logit.weight f4 [1, 44]
0	0xbe3acb0f	-0.18241523
1	0xbdd7bb08	-0.1053372
2	0x3d9c4f50	0.07632315
3	0x3e3557f7	0.17709337
4	0x3e314744	0.17312342
5	0xbe9dc4e8	-0.3081429
6	0x3e0c1e2e	0.13683388
7	0x3d1e1b9b	0.038600545
8	0x3cfe3043	0.031028872
9	0x3e0d6696	0.13808665
10	0xbdce273f	-0.10066079
11	0xbe606aea	-0.21915784
12	0xbe8488a0	-0.25885487
13	0x3cc9d97c	0.024639837
14	0x3da5a2c9	0.080876894
15	0xbe1a7ba8	-0.15086234
16	0xbe740396	-0.23829493
17	0x3cc85d9c	0.024458699
18	0xbe841231	-0.2579513
19	0xbe1cbb62	-0.15305856
20	0x3cf68aa2	0.030095402
21	0xbe4eb8a0	-0.20187616
22	0xbe8079aa	-0.25092822
23	0x3df71667	0.1206482
24	0xbe3b6137	-0.18298803
25	0xbe37c092	-0.17944553
26	0xbe51a58f	-0.20473312
27	0x3df71eb2	0.120664015
28	0x3d50d698	0.050985903
29	0x3e15daf1	0.14634301
30	0x3dc277b1	0.094954856
31	0x3e3264b6	0.1742123
32	0x3e48c411	0.19606043
33	0x3e36ce4a	0.1785213
34	0x3dbe05cd	0.0927845
35	0x3e4e8beb	0.20170562
36	0x3dd6fc9d	0.10497401
37	0x3e135e30	0.14391398
38	0xbe4bf7d1	-0.19918753
39	0xbe24c15c	-0.16089386
40	0x3dc90ef7	0.098173074
41	0x3d75e1d1	0.06002981
42	0xbe19f9e0	-0.15036726
43	0xbe7996c2	-0.24373916

exp_avg f4 [44]
0	0xbaa205e7	-0.0012361378
1	0xba55fb32	-0.0008162736
2	0xb8e509ea	-0.000109214176
3	0x3a88682b	0.0010407021
4	0xb8c12156	-9.2091665e-05
5	0x39a79e3d	0.0003197062
6	0xb98b3e93	-0.00026558767
7	0xb81100d1	-3.4571454e-05
8	0x39a39cd0	0.00031206617
9	0xb8883d8c	-6.496449e-05
10	0xba6d70d0	-0.0009057643
11	0xb931e1ad	-0.00016964106
12	0xb9737eb3	-0.00023221485
13	0x39f2fd2d	0.00046346468
14	0xb72f454a	-1.0446945e-05
15	0xb8d83cad	-0.00010310984
16	0x39a46c25	0.00031361092
17	0xb9bbf689	-0.00035851102
18	0x3913153a	0.0001402692
19	0xb917077f	-0.00014403275
20	0x38aacdaa	8.1445396e-05
21	0xb9b01242	-0.0003358294
22	0x3a1fab2b	0.00060908747
23	0x3a7020d5	0.0009160166
24	0x3726bb48	9.937976e-06
25	0xba9ddfe0	-0.0012044869
26	0x397b15f3	0.00023945402
27	0xba0130dd	-0.00049282407
28	0x3a36010c	0.0006942905
29	0xba85070d	-0.0010149196
30	0x39c5b1c3	0.0003770721
31	0xb9c024fa	-0.00036648643
32	0x3aea86b5	0.0017892929
33	0xb97837b1	-0.0002367187
34	0xba02a548	-0.0004983735
35	0x38cb5173	9.6949654e-05
36	0x39095eb9	0.00013100625
37	0x391c1f5b	0.00014889
38	0xbac05c62	-0.001467597
39	0x398227c1	0.0002482515
40	0x39bfb568	0.00036565517
41	0xb8c4bdab	-9.381337e-05
42	0xba4c7cb5	-0.0007800565
43	0x39fe4b2d	0.00048502666

exp_avg_sq f4 [44]
0	0x3721b55e	9.638576e-06
1	0x36d126ac	6.2331874e-06
2	0x36bedca2	5.6881263e-06
3	0x3713ccc0	8.809555e-06
4	0x36dfaed4	6.6662706e-06
5	0x3797c073	1.8090219e-05
6	0x36eabb38	6.9955386e-06
7	0x37719abd	1.4400747e-05
8	0x365ece90	3.3200813e-06
9	0x378d7957	1.6865013e-05
10	0x373911c2	1.1030994e-05
11	0x36abc5cf	5.119225e-06
12	0x371a2a12	9.188911e-06
13	0x367bd92e	3.752833e-06
14	0x376999f3	1.3923726e-05
15	0x383bdf36	4.4792156e-05
16	0x36be7de8	5.6770987e-06
17	0x36e8fdf1	6.9437015e-06
18	0x3630faec	2.63721e-06
19	0x36573430	3.2067874e-06
20	0x36e15e1d	6.7164788e-06
21	0x36dea467	6.6352545e-06
22	0x36885245	4.0626933e-06
23	0x3709ef10	8.221497e-06
24	0x36c6adec	5.921107e-06
25	0x36e1b093	6.7260785e-06
26	0x3698b306	4.550794e-06
27	0x370b635b	8.308179e-06
28	0x36e2e9e0	6.7625515e-06
29	0x37383462	1.0979451e-05
30	0x36bbb7e1	5.5944406e-06
31	0x36c7789e	5.944704e-06
32	0x3884b293	6.3275125e-05
33	0x36270af1	2.4891308e-06
34	0x3774f692	1.4600942e-05
35	0x363dc947	2.8280353e-06
36	0x366e07a3	3.5469209e-06
37	0x361a90b4	2.3032017e-06
38	0x37321fd1	1.0617035e-05
39	0x38027d61	3.1111183e-05
40	0x371e2454	9.425992e-06
41	0x36767e22	3.6730275e-06
42	0x36e9523d	6.953515e-06
43	0x36a1accf	4.8182915e-06
